Assets/Networks/noself/AgentHulkGreen.onnx (onnx, 238908 bytes, 9 tensors)

action_model._continuous_distribution.log_sigma f4 [1, 3]
0	0xbcdf8a43	-0.027287608
1	0xbc065d5b	-0.008200969
2	0xbcf5580f	-0.029949216

action_model._continuous_distribution.mu.bias f4 [3]
0	0x3ca1a69e	0.01973277
1	0x3c2ab710	0.010419622
2	0xbbd5b230	-0.0065214857

action_model._continuous_distribution.mu.weight f4 [3, 200]
0	0xbc98008f	-0.018554954
1	0x3d234898	0.039864153
2	0xbcd8745e	-0.026422676
3	0xbd8624ca	-0.06549986
4	0x3ca3420c	0.019928955
5	0x3d06b4b6	0.032887183
6	0x3af81232	0.0018926321
7	0xbbbd1c9e	-0.0057712337
8	0x3bcf7d3f	0.006332069
9	0x3cc032cf	0.023461727
10	0xbcc347f5	-0.023838023
11	0x3c4dbe43	0.012557569
12	0x3d0d7770	0.034537733
13	0xbc25259f	-0.01007977
14	0xbbde57d9	-0.0067853746
15	0xbc8fe9e5	-0.017567584
16	0x3ab110cc	0.0013509034
17	0xbcbe89dd	-0.023259098
18	0xbc1207cd	-0.008912993
19	0x3be38519	0.0069433567
20	0x3c09e9e1	0.0084175775
21	0xbafabc6d	-0.0019129642
22	0x3d0bf8b6	0.034172736
23	0x3d07760b	0.03307156
24	0xbbea2dcb	-0.007146572
25	0x3bae4be3	0.005319105
26	0x3c7b4736	0.015336802
27	0xbce03134	-0.027367212
28	0x3cd14c00	0.025548935
29	0xba325f7d	-0.000680439
30	0x3c34bd56	0.011031469
31	0x3ab75e25	0.0013989849
32	0xbc9c816b	-0.01910468
33	0x3996fba8	0.00028797728
34	0xbbcd9fc6	-0.00627515
35	0xbb0c6786	-0.002142401
36	0x3d09ca2a	0.033640064
37	0xbc5187af	-0.012788697
38	0x3d591af7	0.05300423
39	0x3d06eaab	0.03293864
40	0x3bf9e030	0.007625602
41	0xbc745713	-0.014913338
42	0xbcbd2716	-0.023089927
43	0xbc410e45	-0.011783187
44	0xbc97deed	-0.018538916
45	0x3d1b8d14	0.03797634
46	0x3cc59184	0.024117239
47	0xbc4a944d	-0.012364459
48	0x3cbcec26	0.023061823
49	0x3c9406dd	0.018069679
50	0xbcf4bd14	-0.029875316
51	0xbc02d9b6	-0.007986477
52	0x3d10fd74	0.03539796
53	0x3c8a2f83	0.016868358
54	0xbc96f759	-0.018428491
55	0xbcd89e0c	-0.02644255
56	0xbadac571	-0.0016690922
57	0x3d062536	0.03275033
58	0x3d8fa83a	0.070145085
59	0x3c1c9af6	0.00955843
60	0x3d1105e3	0.035406005
61	0xbb9d5823	-0.0048017665
62	0xbc33212b	-0.010933201
63	0xbb8ff5f1	-0.004393332
64	0xbc165d7a	-0.00917756
65	0xbc76b17c	-0.015056964
66	0x3c4c70f4	0.012478102
67	0x3d153887	0.03643086
68	0x3c9cb11e	0.019127425
69	0x3b4d2db0	0.003130775
70	0xbd254629	-0.040350113
71	0xbd009c3d	-0.031399
72	0x3d34a5a7	0.04410329
73	0xbc004da9	-0.007831016
74	0x3c0ff346	0.008786028
75	0xbbcebf40	-0.00630942
76	0xbc2ae5d8	-0.010430776
77	0xbc22d4e6	-0.009938454
78	0x3b7fded1	0.003904272
79	0x3d2b34e8	0.041798502
80	0xbb24ed2e	-0.0025165784
81	0x3d1c9403	0.038227092
82	0x3c317a32	0.010832356
83	0x3ce7fa5d	0.028317625
84	0x3d6ddcd3	0.058071923
85	0x3c22c70c	0.009935152
86	0xbc1c42c5	-0.0095374035
87	0xbafb38da	-0.0019166723
88	0x3c40a009	0.011756905
89	0xb9cb48bf	-0.00038773377
90	0x3d5d6f42	0.05406118
91	0x3ca4da7d	0.020123715
92	0xb87715f7	-5.8909845e-05
93	0xbc98e611	-0.018664392
94	0xbc2cc379	-0.010544651
95	0xbbd2538d	-0.0064186514
96	0x3b8e47ff	0.0043420787
97	0xbb20f3ff	-0.0024559496
98	0x3d066b16	0.03281697
99	0xbb749f52	-0.0037326408
100	0x3c1276a1	0.008939416
101	0xbd1749da	-0.036935665
102	0x3c360e3b	0.011111791
103	0xbb92206d	-0.004459432
104	0x3c00b33e	0.007855235
105	0xbbb1ccbc	-0.0054260176
106	0xbcee61e4	-0.029099412
107	0x3c1f6b05	0.009730105
108	0x3d129bbc	0.03579305
109	0x3d11384c	0.03545408
110	0x3c5d3a35	0.013502647
111	0x3c97d1b9	0.01853262
112	0x3bed0d93	0.007234284
113	0x3d5f7558	0.054555267
114	0xbc1df8bf	-0.009641825
115	0x398affed	0.0002651209
116	0xbc091158	-0.0083659515
117	0xbc67718d	-0.014126194
118	0xbcb45023	-0.022010868
119	0x3cfd8c83	0.03095079
120	0x3c375883	0.011190536
121	0x3c08623b	0.008324201
122	0xbbc64c94	-0.0060516093
123	0x3d0b5fc4	0.034026876
124	0x3c853945	0.01626266
125	0x3c147a38	0.009062342
126	0x3cb210bd	0.021736497
127	0xbc04af19	-0.008098387
128	0x3d2874a3	0.04112686
129	0x3c690b0c	0.014223825
130	0x3b7fb3c6	0.0039017065
131	0x3a881efb	0.001038521
132	0x3c8927dd	0.016742641
133	0x3cd8b1bf	0.026451943
134	0xbcbebcee	-0.023283448
135	0x3b90be13	0.00441719
136	0xbcf9df99	-0.030502127
137	0xbbd3c8df	-0.0064631547
138	0xbc1c6425	-0.009545361
139	0x3a102dae	0.0005499971
140	0x3c62a7e3	0.013833973
141	0xbca52594	-0.02015952
142	0xbcd78cb6	-0.026312213
143	0xbc962f05	-0.018332968
144	0xbc5f1596	-0.013615986
145	0x38e6d6c8	0.00011007261
146	0x3c9ec0ce	0.019379046
147	0xbd117447	-0.03551128
148	0xba93ac35	-0.0011266532
149	0x390dcf04	0.00013523927
150	0x3c775ca3	0.01509777
151	0x3bbb2ded	0.005712262
152	0xbcc477cc	-0.023982905
153	0xbc7330e7	-0.014843202
154	0x3c4b34be	0.012402711
155	0xbb02b01d	-0.0019941397
156	0x3b90a8bc	0.004414646
157	0xbc01d412	-0.007924097
158	0x3babf692	0.0052478993
159	0x3cc4fc02	0.024045948
160	0xbceb3914	-0.02871374
161	0xbbafbc96	-0.0053630574
162	0xba932cc4	-0.0011228551
163	0x3d2ec2b8	0.042666167
164	0x3c22f861	0.009946913
165	0x3cf7041d	0.030153329
166	0xbcba439c	-0.022737317
167	0xbc342396	-0.0109948125
168	0xbc551f60	-0.013007969
169	0xbbdb8cde	-0.0067001423
170	0xbb01f049	-0.001982706
171	0x3be5201e	0.006992354
172	0xbc12b02d	-0.008953136
173	0xbb4d3ab0	-0.0031315498
174	0x3c8cc65b	0.017184427
175	0x3b7b14ff	0.0038312075
176	0xbc42533b	-0.011860664
177	0xbb63121d	-0.0034648248
178	0xbce3b6ba	-0.027797092
179	0x3d01f1c2	0.0317247
180	0x3bb86b28	0.0056280084
181	0x3a9b7d50	0.0011862908
182	0x3c94d576	0.018168192
183	0x3bca5f28	0.0061758943
184	0x3cb2a35e	0.021806415
185	0xbc4f2592	-0.012643235
186	0xbc481200	-0.012211323
187	0x3c7cd760	0.015432209
188	0x3cd9539b	0.026529124
189	0x3bc80ebd	0.0061052726
190	0xbcb7cf45	-0.022437701
191	0xbc528e1f	-0.012851267
192	0xba3fcbc8	-0.00073164375
193	0x3d0cce0c	0.03437619
194	0xbbd523dd	-0.0065045194
195	0x3cbd53dd	0.023111278
196	0x3bbff1d4	0.0058576856
197	0xbc54135a	-0.012944067
198	0xbbc7f89a	-0.0061026337
199	0x3c841d8e	0.016127374
200	0xbc2aa366	-0.010414934
201	0xbaab768f	-0.0013081598
202	0xbc5efe62	-0.013610454
203	0xbcc7a426	-0.024370264
204	0xb9a88030	-0.00032138964
205	0xbb5158d9	-0.0031943826
206	0xbcb41c20	-0.021986067
207	0x38af4dcd	8.359142e-05
208	0x3ba51e2f	0.0050389986
209	0x3c06c147	0.008224792
210	0xbcf1fe57	-0.029540224
211	0x3cd50869	0.026004987
212	0x3cba9463	0.022775834
213	0xbbd45359	-0.0064796624
214	0x3c9d358a	0.019190568
215	0x3a95c3e7	0.0011426181
216	0x3c899a6f	0.016797272
217	0x3c0b4bce	0.00850196
218	0x3c1203cc	0.008912038
219	0x3b6aff26	0.0035857647
220	0x3cfe88f5	0.031071166
221	0x3cb475d1	0.022028835
222	0x3cb5f239	0.022210227
223	0xbc9056a1	-0.017619433
224	0xbd267270	-0.04063648
225	0xbc1d1c8a	-0.009589324
226	0xbc1246c2	-0.008928003
227	0x3b9db9d2	0.0048134113
228	0xb8eb2fe4	-0.000112145935
229	0x3c91fe33	0.017821407
230	0xbcafc516	-0.021456283
231	0xbcaee4a4	-0.021349259
232	0x3c2a5f17	0.010398648
233	0x3b48c513	0.0030635044
234	0xbc4ff710	-0.012693182
235	0xbc10812a	-0.008819858
236	0x3c92b606	0.017909061
237	0x3b165393	0.0022937998
238	0x3bcaed49	0.0061928374
239	0x3c8eab82	0.017415766
240	0x3d04e55a	0.03244529
241	0xbce531db	-0.027977875
242	0x3c9207d4	0.017825998
243	0xbc863ef7	-0.016387446
244	0xbc30b6ff	-0.010785817
245	0xbce4e358	-0.027940437
246	0xbbfa98cf	-0.0076476107
247	0xbad0207e	-0.0015878824
248	0x3cd38d14	0.025824107
249	0x3b8357f4	0.0040082876
250	0xbba6319d	-0.0050718323
251	0xbcdc6df3	-0.026907897
252	0x3c765abb	0.01503628
253	0x3c156e8d	0.009120596
254	0xbc9de06d	-0.019272054
255	0x3b0fa475	0.0021918092

action_model._discrete_distribution.branches.0.bias f4 [2]
0	0x3bfa2741	0.007634074
1	0xbbfa274b	-0.0076340786

action_model._discrete_distribution.branches.0.weight f4 [2, 200]
0	0xbc4105cc	-0.011781167
1	0x3bbf688c	0.0058413204
2	0x3cbe1af8	0.02320622
3	0xbcc9a2a7	-0.024613691
4	0x3ced9ab6	0.029004436
5	0x3a807c21	0.0009802618
6	0x3c3c41a2	0.011490257
7	0xba9f8f34	-0.0012173415
8	0xbbfaae66	-0.0076501844
9	0x3cff1c7a	0.031141508
10	0xbca3d2a2	-0.019997898
11	0x3c02522f	0.007954164
12	0x3cc2b36b	0.023767194
13	0x3c37ffb1	0.011230395
14	0x3d016e3e	0.031599276
15	0xbbb3153a	-0.005465177
16	0x3b83f334	0.004026795
17	0xbca0bff3	-0.019622779
18	0x3c617b94	0.0137623735
19	0x3bfdd1d5	0.007745961
20	0x3cbdb6eb	0.023158511
21	0xbbd26448	-0.006420646
22	0x3c9ef405	0.019403467
23	0x3ca8c7d5	0.0206031
24	0xbbbff2d1	-0.0058578034
25	0x3ab1846d	0.0013543494
26	0x3a264a5f	0.00063434796
27	0x3b9747a4	0.0046166945
28	0x3c7770c6	0.015102571
29	0xbc0e6765	-0.008691643
30	0xbcaa8ddc	-0.020819597
31	0xbc771d89	-0.015082725
32	0xbca14462	-0.019685928
33	0xbc36ab68	-0.011149265
34	0x3c0790fb	0.008274312
35	0x3beaf5da	0.007170421
36	0x3b0b4aa3	0.0021254204
37	0xbc3920ee	-0.011299355
38	0x3c3d1e75	0.011542906
39	0x3a07eee4	0.0005185439
40	0x3ca95149	0.020668643
41	0xbc69803c	-0.014251765
42	0xbc9cbbea	-0.019132573
43	0xbc3ea29b	-0.011635448
44	0xbcae9fc6	-0.02131642
45	0xba8097b6	-0.0009810838
46	0xbb7b204a	-0.0038318806
47	0xbc8db7cc	-0.017299555
48	0x3d1e1c4e	0.038601212
49	0x3b620f14	0.003449385
50	0x3bdcb8f1	0.006735914
51	0xbd1891bc	-0.037248358
52	0x3c30d9e2	0.010794135
53	0x3c62ca3c	0.013842162
54	0xbc497a31	-0.012297199
55	0xbc6f2b82	-0.014597775
56	0x3c9460a2	0.018112484
57	0xbc8af3cc	-0.016961955
58	0x3c8c2ef8	0.01711224
59	0x3b99198d	0.0046722353
60	0xbc4e0e6f	-0.012576683
61	0x3c2892c1	0.010288895
62	0xbb390643	-0.0028232492
63	0x3b5ebc47	0.0033986734
64	0xbc75811e	-0.014984397
65	0x3b8e23c0	0.004337758
66	0xb9dccb92	-0.00042113342
67	0xbb51c784	-0.003200979
68	0x3c004a27	0.007830179
69	0x3c13335a	0.008984411
70	0x3c1de07b	0.00963604
71	0xbc8a0d51	-0.016852053
72	0x39a85922	0.00032109866
73	0x3c175cd1	0.009238438
74	0xbc17cdf2	-0.00926541
75	0x3b7f0aea	0.0038916417
76	0xbbcae6c3	-0.0061920597
77	0xbbc4cc5d	-0.0060058073
78	0xbbf90d92	-0.0076004947
79	0xbc996a7f	-0.01872754
80	0xbaa886a1	-0.0012857505
81	0xbc05ae3a	-0.008159215
82	0x3a9b845a	0.0011865005
83	0x3c0bb2b3	0.008526492
84	0x3cd3e450	0.025865704
85	0x3bfba950	0.0076800957
86	0xbb9639b1	-0.004584514
87	0x3a813dd7	0.0009860349
88	0x3be90700	0.00711143
89	0x3c3c1847	0.011480398
90	0x3b835bf6	0.0040087653
91	0x3c37de12	0.011222379
92	0xbc177032	-0.009243058
93	0xbc974357	-0.018464727
94	0x39709586	0.00022943885
95	0xbbc79480	-0.0060907006
96	0xba27064f	-0.00063714845
97	0x3c1128f8	0.008859865
98	0x3c7f352a	0.01557664
99	0x3bcc1aa3	0.0062287613
100	0x3c8f9cf9	0.017530905
101	0x3cb14843	0.021640902
102	0xbc191804	-0.009344105
103	0xbb896d10	-0.0041939095
104	0x3c919b46	0.017774235
105	0xbc932da2	-0.017966095
106	0xbc8418f9	-0.01612519
107	0xbb2a49eb	-0.0025984
108	0x3c0de288	0.008659966
109	0x3b8f684e	0.0043764478
110	0x3bd7fa79	0.006591138
111	0xbcdb336b	-0.026757916
112	0x3bb6efd6	0.00558279
113	0x3b6aca2a	0.0035826066
114	0xbbcc8b49	-0.00624219
115	0xbc002196	-0.0078205075
116	0xbb917d6f	-0.0044400017
117	0xbc0952f3	-0.008381593
118	0x3b9e43de	0.0048298677
119	0x3bbdbcd0	0.0057903305
120	0x3bcd7d4a	0.006271039
121	0xbd0e48d2	-0.034737416
122	0xbc4d177f	-0.012517809
123	0xbbcfe70d	-0.006344682
124	0x3c88b4d1	0.016687782
125	0xbb4d16a8	-0.0031294022
126	0x3c655603	0.013997558
127	0xbc0545b8	-0.008134298
128	0x3b87331f	0.004125967
129	0xbcbe035b	-0.02319496
130	0xbc45a37f	-0.012062906
131	0x3bb36d39	0.005475667
132	0x3bc4634e	0.0059932834
133	0xbc304977	-0.010759703
134	0x3bea32d2	0.0071471715
135	0xbc5877b9	-0.013212138
136	0xbc65d55a	-0.014027918
137	0x3aeb551a	0.0017954439
138	0xbbcac3e9	-0.006187905
139	0xbc78d9f3	-0.015188682
140	0x3badeb83	0.005307616
141	0x3be163d2	0.0068783546
142	0xbc10a3f4	-0.008828152
143	0xbc025720	-0.0079553425
144	0xbbc9cbee	-0.0061583435
145	0x3aaed2a3	0.0013337921
146	0x3d46eec7	0.04856756
147	0xbc96b8d2	-0.018398676
148	0x3c71df21	0.014762671
149	0x3c4d1838	0.012517981
150	0x3c5bf57e	0.013425229
151	0xbc78f741	-0.015195669
152	0xbccaded2	-0.024764452
153	0xbc332c02	-0.010935785
154	0xb8c08d3b	-9.18158e-05
155	0x3c9952f3	0.018716311
156	0x3c6cee0d	0.014461053
157	0xbb3f7e38	-0.002921952
158	0xbc586ee5	-0.013210033
159	0x39f309e4	0.0004635594
160	0xbbaae299	-0.005215001
161	0x3b1147de	0.002216808
162	0xbbcaae43	-0.0061853244
163	0x3c7f52d4	0.015583713
164	0xbcca44aa	-0.024690945
165	0xbcf78e12	-0.030219112
166	0x3af6dc86	0.0018834032
167	0x3cae8370	0.021302909
168	0xbbcd9898	-0.006274294
169	0xbbffa17f	-0.0078012343
170	0x3c3ccc50	0.011523321
171	0x3bc9ab02	0.006154419
172	0x3bd73073	0.006567055
173	0xbc48b564	-0.012250278
174	0x3bf0dcfc	0.007350562
175	0xbbb1652f	-0.0054136734
176	0xbc01bf18	-0.007919095
177	0x3ae09c3a	0.0017136403
178	0xbc11e0ec	-0.008903723
179	0x3bd7eabe	0.0065892627
180	0xbb81d10b	-0.0039616874
181	0x3c205238	0.0097852275
182	0xba5fba10	-0.00085345004
183	0xbbb30beb	-0.005464067
184	0xbba049e8	-0.004891623
185	0xbc2e94a9	-0.0106555605
186	0xbb3d78b1	-0.002891105
187	0x3c1f0398	0.009705447
188	0xbbe33271	-0.0069335033
189	0xbca0d9a3	-0.019635027
190	0xbbbaef31	-0.0057047834
191	0xbc746d30	-0.01491861
192	0x3cbc813e	0.023010846
193	0x3bc40f83	0.0059832945
194	0x3be06c38	0.006848838
195	0x3a04bbc7	0.00050633814
196	0xbc403891	-0.0117322365
197	0x3b5bae2e	0.0033520567
198	0x3bc2b2f1	0.0059417416
199	0xbbcc0911	-0.0062266667
200	0x3c948ab1	0.01813254
201	0xbbce7a47	-0.0063011977
202	0xbc19cc72	-0.0093871225
203	0x3cd3adda	0.025839735
204	0xbc8f689b	-0.017505934
205	0x3c156fed	0.0091209235
206	0xbc83aeef	-0.016074626
207	0xbc089d79	-0.008338326
208	0x3c09b20e	0.008404268
209	0xbbadf689	-0.0053089303
210	0x3cd45502	0.025919441
211	0x3bc8811b	0.006118906
212	0xbce5909a	-0.028023053
213	0x3b8f8105	0.004379394
214	0xbd3c9f82	-0.046050556
215	0xbbf5339d	-0.0074829594
216	0xbc173c91	-0.009230749
217	0xbb61dacc	-0.0034462688
218	0x3ac91f3b	0.001534439
219	0xbb6a6b68	-0.0035769586
220	0xbcd6610d	-0.026169324
221	0xbbe2560b	-0.00690723
222	0xbcb67f2c	-0.022277437
223	0xbc18b44f	-0.009320333
224	0x3c145062	0.009052368
225	0xbb07e779	-0.0020737334
226	0xbb9fabb7	-0.004872765
227	0xbbb6bcdc	-0.005576713
228	0xbbe3fc92	-0.006957599
229	0xba635427	-0.00086719025
230	0x3c3ef0f3	0.011654126
231	0x3d0723e9	0.03299323
232	0x3cadaed0	0.021201521
233	0x3bb71cb0	0.0055881366
234	0x3c5026fd	0.012704608
235	0xbb9ba4a8	-0.004749853
236	0x3c00759f	0.007840543
237	0x3c016d95	0.007899662
238	0xbc798720	-0.01522997
239	0xbaee5f64	-0.0018186388
240	0xbc1c2efc	-0.009532686
241	0xbb6a7288	-0.0035773832
242	0x3c5e96b4	0.013585735
243	0xbcabe29c	-0.02098208
244	0x3ca55e1d	0.020186478
245	0x3bddc927	0.006768364
246	0x3c016e80	0.00789988
247	0x3b03da82	0.0020119254
248	0xbcd68e5f	-0.026190935
249	0xbbc2022a	-0.005920668
250	0x3ba10b23	0.0049146577
251	0x3d0d584a	0.034508027
252	0xbbbc3a9c	-0.0057442915
253	0xbc1a8ec5	-0.009433453
254	0xbacadbdf	-0.0015476904
255	0x3c2de5cd	0.010613871

network_body.linear_encoder.seq_layers.0.bias f4 [200]
0	0x3b9d6a79	0.0048039523
1	0x3c61e8e9	0.01378844
2	0x3d0a4a5a	0.033762313
3	0xbc614c85	-0.013751154
4	0x3c09679b	0.008386518
5	0x3c8961ab	0.016770205
6	0xbc712863	-0.014719102
7	0xbccd4f89	-0.02506234
8	0x3c6fa49f	0.014626651
9	0xbc3a0bce	-0.0113553535
10	0x3c36bc5e	0.011153309
11	0x3c7f43d9	0.015580141
12	0xbbb399ac	-0.0054809656
13	0x3c44cb2d	0.0120113315
14	0x3c7dfdf5	0.015502443
15	0x3cdfd90a	0.027325172
16	0x3c93cfc3	0.018043404
17	0xbc37f7e5	-0.011228536
18	0xbc20cb45	-0.009814088
19	0x3c4d2700	0.012521505
20	0xbcafe00d	-0.02146914
21	0x3cf902b3	0.030396795
22	0x3cc2507c	0.023720019
23	0x3cdad7bd	0.0267142
24	0x3ab3a305	0.00137052
25	0x3acd9024	0.0015683216
26	0x3cda68b5	0.026661256
27	0x3c69bfbc	0.014266904
28	0xbbf5cd12	-0.007501253
29	0x3cea5d4b	0.028608939
30	0xbcd7f097	-0.02635984
31	0xbc44e576	-0.012017598
32	0xbc27f332	-0.010250853
33	0xbcd8aae4	-0.026448674
34	0x3c6c76bc	0.014432605
35	0x3cab0eac	0.02088102
36	0x3d2b7d46	0.041867517
37	0x3d0375a0	0.032094598
38	0x3c99d19d	0.01877671
39	0x3d0a81ae	0.03381508
40	0x3d0f9e47	0.035063054
41	0x3b441746	0.0029921099
42	0x3c84ca2d	0.016209686
43	0x3c89d251	0.01682392
44	0x3c4c04db	0.0124523295
45	0x3d2010d5	0.039078552
46	0xbcccb045	-0.024986396
47	0xbc1e27cb	-0.009653042
48	0xbc647060	-0.013942808
49	0x3b646e29	0.00348557
50	0xbca92928	-0.020649508
51	0x3be05c42	0.0068469355
52	0x3c389630	0.011266276
53	0xbc37bb25	-0.011214052
54	0xbbdfd341	-0.0068306033
55	0xbc8690b8	-0.01642643
56	0xbcb5cd51	-0.022192629
57	0x3ccd3f40	0.025054574
58	0x3c8d4b35	0.017247776
59	0xbc8ffa56	-0.017575424
60	0xbd06b69b	-0.03288899
61	0x3ca43654	0.020045437
62	0xbcac425a	-0.021027733
63	0xbabf0c95	-0.0014575893
64	0xbbfc7010	-0.0077037886
65	0x3d4bd1f6	0.04976078
66	0xbca1cda0	-0.01975137
67	0x3ca4b589	0.020106094
68	0xbc8f584c	-0.017498158
69	0x3cae4db3	0.021277284
70	0xbc2ae038	-0.0104294345
71	0x3cc5bcf7	0.024137957
72	0x3c48043a	0.012208039
73	0xbc021380	-0.0079392195
74	0x3bae0eb1	0.00531181
75	0xbc8ad721	-0.016948285
76	0xbc0c9f04	-0.008582834
77	0x3c5cd804	0.0134792365
78	0x3ba7857e	0.005112349
79	0x3c12355f	0.0089238575
80	0xbae16100	-0.0017195046
81	0xbb1d4d48	-0.0024002362
82	0x3d0d64c9	0.034519944
83	0x3d3963e2	0.04526127
84	0xbcd09707	-0.02546264
85	0xbcc39e4d	-0.023879195
86	0x3aca8a9d	0.0015452687
87	0xbcdea22c	-0.027176939
88	0x3c7a7e33	0.015288877
89	0xbc1bd56c	-0.009511333
90	0xba804f5b	-0.0009789275
91	0x3c035d8a	0.008017907
92	0xbccabcc2	-0.02474821
93	0x3d073de5	0.03301801
94	0x3d011255	0.031511623
95	0x3c9def6f	0.01927921
96	0xbc0aff32	-0.008483695
97	0x3c225647	0.009908265
98	0xba9b19c6	-0.0011833243
99	0x3d293c4c	0.04131727
100	0x3cfc18ec	0.030773602
101	0x3c9565fa	0.018237103
102	0xbc6d3dac	-0.014480036
103	0x3c0118f6	0.007879486
104	0xbb017144	-0.001975135
105	0x3c3d513d	0.011555013
106	0x3c46ab0a	0.01212574
107	0x3a836460	0.0010024421
108	0xbc954550	-0.018221527
109	0x3bda3ae1	0.006659851
110	0x3bb70255	0.005584995
111	0x3c21e387	0.009880907
112	0xbca55db7	-0.020186288
113	0x3cd510df	0.026009021
114	0xbc63c057	-0.013900838
115	0x3c9212ab	0.017831167
116	0xbc9cfe7c	-0.019164316
117	0x3ca7b71d	0.020473057
118	0x3ca827ed	0.02052685
119	0x3bbd075f	0.005768701
120	0x3d17d8f3	0.037072133
121	0x3c5c9e74	0.013465513
122	0xbb849a37	-0.004046704
123	0x3a8780b8	0.0010338044
124	0x3d0073ff	0.031360622
125	0xbb7783d3	-0.0037767782
126	0xbae76b18	-0.0017655818
127	0x3b719ebc	0.0036868295
128	0xbb502574	-0.0031760605
129	0xbc8ff75d	-0.017574007
130	0xbbcb9000	-0.0062122345
131	0x3c891503	0.016733652
132	0x3ba06d77	0.0048958617
133	0xbb8e2f49	-0.004339133
134	0x3c0358d8	0.0080167875
135	0xbc9008ab	-0.017582258
136	0xbb8cf214	-0.004301319
137	0x3bc95b2e	0.0061449027
138	0xba95dbb2	-0.0011433272
139	0xba54ca3e	-0.00081172946
140	0xbb84446f	-0.004036478
141	0x3b8969d4	0.004193524
142	0xbce55ecb	-0.027999302
143	0x3ceffb26	0.029294562
144	0xbbeca818	-0.007222187
145	0xbbddde50	-0.0067708865
146	0xbc0c6add	-0.0085704
147	0xbbbbcb67	-0.0057310346
148	0xbc381e7d	-0.011237738
149	0x3c244aef	0.010027631
150	0xb9b4420e	-0.0003438149
151	0xb9b55bc3	-0.00034591378
152	0xbd0e0fc1	-0.034682993
153	0x3d231164	0.039811507
154	0xb9cfd11e	-0.0003963792
155	0x3d0777a5	0.033073086
156	0x3b473c4c	0.003040093
157	0xbc65bfa7	-0.014022744
158	0xbc811a3d	-0.015759582
159	0x3b9894b9	0.004656401
160	0x3c568e49	0.013095447
161	0x3c965281	0.018349888
162	0x3cc94575	0.024569253
163	0xbc9f2859	-0.019428419
164	0x3c0f62ed	0.008751613
165	0x3d1fdbe1	0.039028052
166	0x3cc4005f	0.023925958
167	0xbc02183d	-0.007940349
168	0x3cbac051	0.022796782
169	0xbc56fdca	-0.013122031
170	0x3c85b84c	0.016323231
171	0x3917a793	0.00014462908
172	0x3cc21566	0.023691844
173	0x3be690f7	0.007036324
174	0x3cfa9ede	0.030593332
175	0x3c1eb8af	0.009687587
176	0xbc8b99f9	-0.017041193
177	0xbca9a7df	-0.02070993
178	0xbcb1c239	-0.021699058
179	0xbccdd836	-0.025127511
180	0x3cf8d9de	0.030377325
181	0x3b76682b	0.003759871
182	0x3ba98d91	0.0051743467
183	0x3c1604a2	0.009156378
184	0x3c0c3aa0	0.008558899
185	0xbbf57070	-0.0074902102
186	0xbcb7d26b	-0.022439202
187	0x3b25ba4d	0.0025288046
188	0xbc873499	-0.016504573
189	0x3bbb94d7	0.00572453
190	0x3c57a964	0.0131629445
191	0x3c50b3c8	0.012738176
192	0x3cb28cd9	0.021795677
193	0x3c4fdb22	0.012686523
194	0x3bbe2cea	0.005803694
195	0x3c8cffc0	0.017211795
196	0x3c4472ac	0.0119902305
197	0x3b8ca768	0.0042924173
198	0x3ce45ce9	0.027876334
199	0x3bf51277	0.007479008

network_body.linear_encoder.seq_layers.0.weight f4 [200, 88]
0	0x3d828fb8	0.063750684
1	0x3de9ca13	0.11415496
2	0x3e4b690b	0.1986429
3	0xbd0ff765	-0.035148043
4	0x3da68bc7	0.08132129
5	0x3d60ec45	0.054912824
6	0xbcb6da6f	-0.022320954
7	0x3e3bf3dd	0.18354745
8	0x3ca53629	0.020167427
9	0x3b4e5c77	0.0031488219
10	0x3e48018d	0.19531842
11	0x3c44b56c	0.012006145
12	0x3d745ed9	0.059660766
13	0xbe0cc14c	-0.13745612
14	0x3dc86846	0.097855136
15	0x3af80770	0.0018923115
16	0x3d9724aa	0.0738004
17	0x3e4d2ba5	0.2003618
18	0x3e1ce77c	0.1532268
19	0xbddc37a2	-0.107527986
20	0xbd8e1855	-0.06938235
21	0x3da4151d	0.080118395
22	0xbdb3f33c	-0.08786628
23	0x3d9c3be9	0.076286145
24	0x3cee71c7	0.029106988
25	0x3c061db5	0.008185794
26	0xbe006cfb	-0.12541573
27	0x3da1fff5	0.07910148
28	0xbe38406c	-0.17993325
29	0x3ad0dcca	0.0015934941
30	0xbd66553b	-0.056233626
31	0xbe1a2e6e	-0.15056774
32	0xbd2d2f54	-0.042281464
33	0xbd50b733	-0.050955962
34	0x3dce3ebc	0.100705594
35	0xbe31cd9e	-0.17363593
36	0x3e1f484b	0.15554921
37	0x3d854217	0.06506746
38	0xbe24158c	-0.16023844
39	0x3d265da4	0.040616646
40	0x3d220f94	0.039565638
41	0xbe081a3a	-0.13291255
42	0x3dfd98b5	0.12382642
43	0xbda8e756	-0.08247249
44	0x3d0c285f	0.03421819
45	0x3de471c1	0.11154509
46	0x3db78528	0.089609444
47	0x3d079157	0.03309759
48	0x3c6d00ad	0.014465493
49	0xbda6a232	-0.08136405
50	0xbdb56944	-0.088579684
51	0x3d056612	0.032568045
52	0xbc7bb7da	-0.015363658
53	0xbdd21dc8	-0.102595866
54	0xbda5553f	-0.080729
55	0x3c8f28e7	0.017475558
56	0x3ccc072d	0.024905765
57	0xbdafa132	-0.085756674
58	0xbd5f3d21	-0.054501656
59	0x3e2790fb	0.163639
60	0x3d41b156	0.04728826
61	0xbd5feee9	-0.0546712
62	0xbdb81da0	-0.089900255
63	0x3ced10d5	0.02893869
64	0xbd874685	-0.066052474
65	0xbdabbce2	-0.08385636
66	0x3d60754f	0.054799374
67	0x3d6c69aa	0.057717957
68	0xbe399108	-0.18121731
69	0xbe35ce1c	-0.17754406
70	0x3e1d04d0	0.15333867
71	0xbdf769eb	-0.12080749
72	0x3bf10b91	0.007356115
73	0xbd89991b	-0.06718656
74	0x3d87f77a	0.06638999
75	0x3e8339a4	0.25629914
76	0xbe1ec032	-0.15503004
77	0x3da98c8b	0.082787596
78	0xbca6ec55	-0.020376364
79	0xbe716fcb	-0.23577802
80	0x3c11fc1c	0.008910205
81	0xbe4b9b74	-0.1988352
82	0x3eb6ad63	0.3567916
83	0xbd91f024	-0.07125881
84	0xbca22ecc	-0.019797705
85	0xbe16a858	-0.14712656
86	0x3e4ce029	0.20007385
87	0x3d39ee9f	0.045393582
88	0xbdbb1152	-0.09134163
89	0x3e072ed5	0.13201459
90	0xbccb557b	-0.024821034
91	0x3d85ca84	0.065327674
92	0xbd88b45b	-0.06675025
93	0xbcee27b7	-0.029071672
94	0xbdabc7c8	-0.083877146
95	0x3d88e85a	0.066849425
96	0x3d364699	0.04450092
97	0x3e0e9c41	0.13926794
98	0xbdfe9c5f	-0.12432169
99	0x3da4c677	0.08045667
100	0xbe4f61db	-0.20252173
101	0xbdea80af	-0.11450326
102	0x3ccb4dc7	0.02481736
103	0x3ddb1a4d	0.10698376
104	0xbc57f6e2	-0.01318142
105	0x3de27802	0.11058046
106	0x3d242e4f	0.040083226
107	0xbdb4adf8	-0.088222444
108	0xbb15f01c	-0.0022878712
109	0x3d791627	0.06081214
110	0xbe14fa74	-0.14548665
111	0x3e05bbd4	0.13059932
112	0xbd2c0a06	-0.042001747
113	0xbdb2275a	-0.08698912
114	0xbddaa9ac	-0.106768936
115	0x3e50dbc9	0.20396341
116	0x3d50ffce	0.051025204
117	0x3db421bb	0.08795496
118	0xbd818467	-0.06324082
119	0x3df282f6	0.11841385
120	0x3cafbea2	0.021453205
121	0xbd9031c7	-0.07040744
122	0xbcab0b71	-0.02087948
123	0x3e1dff6f	0.15429471
124	0xbdaa24ee	-0.08307825
125	0x3e5447c4	0.20730501
126	0x3e47777c	0.19479173
127	0x3d7daff9	0.0619354
128	0x3d500e9c	0.050795183
129	0x3c234a07	0.00996638
130	0x3e0943ed	0.13404818
131	0xbdd850ff	-0.10562324
132	0x3d3db925	0.046319146
133	0xbae97064	-0.0017809984
134	0x3b51bb1f	0.0032002402
135	0xbdd0799b	-0.101794444
136	0x3e72452f	0.23659204
137	0xbd4e3bb0	-0.05034989
138	0x3e24606d	0.16052409
139	0xbbe82966	-0.007085013
140	0xbdfd0e3e	-0.12356232
141	0xbe16f6b4	-0.14742547
142	0x3d46c138	0.04852411
143	0xbcf84f1d	-0.030311162
144	0x3d3de7db	0.046363693
145	0xbd57c149	-0.052674565
146	0xbdf13f10	-0.11779606
147	0x3e24a29b	0.16077654
148	0x3bcd764e	0.0062702065
149	0xbdaab10a	-0.08334549
150	0x3d387827	0.04503646
151	0x3b350493	0.0027621135
152	0xbcc5b8cb	-0.024135968
153	0xbd8d5c71	-0.069023974
154	0x3e2c3d62	0.1682029
155	0xbce89493	-0.028391158
156	0xbdf08cd1	-0.117456086
157	0xbdf776ff	-0.120832436
158	0x3c25d46e	0.010121448
159	0xbdbfc288	-0.09363276
160	0x3bf3e661	0.007443235
161	0xbdb293f6	-0.087196276
162	0x3e858243	0.26075944
163	0xbd8d34aa	-0.068948105
164	0x3d0f1208	0.034929305
165	0x3dd8594b	0.10563906
166	0xbcc7f09a	-0.02440672
167	0xbd96b09c	-0.07357904
168	0xbde7634d	-0.11298237
169	0xbd607c64	-0.05480613
170	0x3e4368a7	0.1908289
171	0xbe470f9b	-0.19439547
172	0xbca8b46b	-0.020593842
173	0xbcf56ec2	-0.02996004
174	0x3bb98f51	0.0056628366
175	0x3dd18a6c	0.1023148
176	0x3d71922c	0.05897729
177	0x3df3998d	0.11894522
178	0xbdf95fd4	-0.12176481
179	0x3dfd503e	0.123688206
180	0x3dcb544a	0.09928186
181	0x3cafb832	0.021450136
182	0xbde99da7	-0.11407023
183	0x3e1ba47e	0.15199468
184	0x3dae64cb	0.085153185
185	0x3df9c8c4	0.12196496
186	0x3e385443	0.18000893
187	0xbd050dc3	-0.032483827
188	0xbe0147cf	-0.12625049
189	0x3d561009	0.052261386
190	0xbbaec676	-0.005333717
191	0xbdf881b5	-0.12134115
192	0xbd7e46e4	-0.062079325
193	0x3deb1842	0.11479236
194	0xbd31feeb	-0.043456
195	0x3e1cc809	0.15310682
196	0xbe1694df	-0.14705227
197	0x3e336b7e	0.17521474
198	0x3df4cd12	0.119531766
199	0x3d271a52	0.040796585
200	0xbd02d0ea	-0.031937517
201	0x3cef6e6d	0.02922746
202	0x3d41df5a	0.047332145
203	0x3df5dceb	0.120050274
204	0x3dd4f48c	0.10398206
205	0x3dabdc5a	0.08391638
206	0x3d8e3c79	0.06945128
207	0x3e60c5d3	0.21950464
208	0x3de2144d	0.11039028
209	0x3da42199	0.08014221
210	0x3d6c7942	0.057732828
211	0x3e2f65f5	0.17128737
212	0xbc3ace63	-0.0114017455
213	0x3de04f0a	0.109525755
214	0x3dab93b3	0.08377781
215	0x3d8c8837	0.068619184
216	0x3d8cbfe1	0.068725355
217	0x3de6dbe5	0.1127241
218	0xbd6315a1	-0.05544055
219	0x3c24e8a4	0.0100652315
220	0xbdbf521b	-0.09341832
221	0xbc256450	-0.010094717
222	0xbe2a52bf	-0.16633128
223	0x3da8ced9	0.08242578
224	0x3d650227	0.055910256
225	0xbb210b8e	-0.0024573538
226	0xbc313ecd	-0.0108181955
227	0x3e372f62	0.17889169
228	0x3d5a66b4	0.0533206
229	0x3e08a2e9	0.13343395
230	0x3d9ded60	0.07711291
231	0x3c0ab039	0.008464866
232	0x3e177489	0.14790548
233	0xbdafa1cb	-0.085757814
234	0x3d087a34	0.033319667
235	0xbd0a5e8b	-0.03378157
236	0xbda50c50	-0.08058989
237	0x3dc842bb	0.09778353
238	0xbe2420c4	-0.16028124
239	0x3d4b344b	0.049610417
240	0x3e3cddfd	0.18444057
241	0xbe401f60	-0.18761969
242	0xbdd2de92	-0.10296358
243	0x3e13e8b8	0.14444244
244	0x3d05f501	0.032704357
245	0xbd46127b	-0.048357468
246	0x3dad030a	0.08447845
247	0x3ddd365d	0.108013846
248	0xbd3a22b1	-0.04544324
249	0x3c3907f3	0.011293399
250	0x3cfce5cc	0.030871294
251	0x3c7cbaf0	0.015425429
252	0x3e155e6e	0.14586803
253	0x3de3f6b9	0.11131043
254	0xbd252fdc	-0.040328845
255	0x3c2caf27	0.010539806

network_body.linear_encoder.seq_layers.2.bias f4 [200]
0	0x3bcfa91b	0.0063372976
1	0x3d0128fb	0.031533223
2	0xbc3d4ec1	-0.011554421
3	0xbc1b2f84	-0.009471778
4	0x3c9984d8	0.018740103
5	0x3c941daf	0.01808056
6	0x3aab688e	0.0013077424
7	0x3c23e29e	0.01000276
8	0x3cbe03b5	0.023195127
9	0x3c83fa3d	0.016110534
10	0xbc3f82f3	-0.011688936
11	0x3c9cedd0	0.019156367
12	0x3d05e46d	0.032688547
13	0x3b9d054a	0.0047918903
14	0x3bbb9704	0.0057247896
15	0xbca96505	-0.020678053
16	0x3ca3e284	0.020005472
17	0x3af8c0ca	0.0018978354
18	0x3b47261e	0.003038771
19	0x3c0c37c1	0.008558215
20	0x3d02b149	0.031907354
21	0x3c252702	0.010080101
22	0x3c84cc73	0.01621077
23	0x3c4f9001	0.012668611
24	0xbc164c0c	-0.009173404
25	0x39fd3768	0.000482972
26	0x3c16c690	0.009202614
27	0xbb100304	-0.0021974454
28	0x3caa0433	0.020753955
29	0x3b807ea5	0.003921347
30	0xbb1ebcba	-0.0024221377
31	0x3c7d1f66	0.0154493805
32	0x3c65098e	0.013979329
33	0xbbd6b10c	-0.0065518674
34	0x3cdcf613	0.026972806
35	0x3c4099fd	0.011755464
36	0x3d1481d7	0.036256637
37	0xbc668fc7	-0.014072365
38	0x3ca45eb0	0.020064682
39	0x3c517c2a	0.012785951
40	0x3c09fafa	0.008421654
41	0x3a9bf223	0.0011897724
42	0xbc18a033	-0.009315538
43	0xbc9afa70	-0.018918246
44	0x3ad84fe5	0.0016503303
45	0x3b8bcd7e	0.00426644
46	0x3c08203c	0.0083084665
47	0xbac22e72	-0.0014814867
48	0x3cbdf8b1	0.023189874
49	0x3c91e985	0.017811546
50	0xbc5464be	-0.012963472
51	0x3d050065	0.03247108
52	0x3cb4cc72	0.022070143
53	0x3c0cd78d	0.008596313
54	0xbc90d8f6	-0.01768158
55	0xbc685b45	-0.014181917
56	0xbbd2a9f8	-0.0064289533
57	0x3c744d83	0.014911058
58	0x3ce61ebd	0.028090829
59	0x3b43b219	0.0029860793
60	0x3cfb3c06	0.03066827
61	0x3bebff85	0.007202091
62	0x3cb062cf	0.02153149
63	0x3beb512d	0.0071813078
64	0xbc287351	-0.0102814
65	0xbc4533e5	-0.012036298
66	0x3c80264e	0.015643265
67	0x3c8978e6	0.016781282
68	0x3d2eecd1	0.042706314
69	0x3c7a3679	0.015271776
70	0xbc2cfdbd	-0.010558543
71	0x3c2c2307	0.010506398
72	0x3c9e8c91	0.019354137
73	0xbbbf6460	-0.005840823
74	0x3b97618d	0.0046197833
75	0xbc45a2d4	-0.012062747
76	0xbc973533	-0.018457985
77	0x3a210435	0.00061422895
78	0x3942d323	0.00018579936
79	0x3d085f6e	0.033294134
80	0x3a4d1da0	0.0007824544
81	0x3c82f573	0.01598618
82	0xbbba6065	-0.0056877607
83	0x3c3fb282	0.011700274
84	0x3cbd36b3	0.023097372
85	0x3bc9774d	0.006148255
86	0xbbeed70c	-0.007288819
87	0xbb0ae7e1	-0.002119534
88	0x3c31113f	0.010807334
89	0x3c715917	0.014730713
90	0x3c9b1957	0.018932981
91	0x3c7e47a7	0.015520013
92	0xbc0e5125	-0.008686339
93	0x3b28a273	0.0025731593
94	0xbb8d57ea	-0.0043134587
95	0x3c13fb5b	0.009032096
96	0x3b4ff7ce	0.0031733396
97	0xbc1e41b1	-0.009659217
98	0x3d4f37e1	0.0505904
99	0xbc6395c4	-0.013890687
100	0x3c88f204	0.016716965
101	0xbab6a596	-0.0013934847
102	0x3c0717b2	0.0082453955
103	0x3bae0ca3	0.005311565
104	0x3c50b530	0.012738511
105	0x3b6370ae	0.0034704613
106	0xbc0a2cfa	-0.008433575
107	0x3c51e3f2	0.012810694
108	0x3c8bf91e	0.017086562
109	0x3ca20331	0.019776912
110	0x3c6bead2	0.014399247
111	0x3c6d12d6	0.014469823
112	0x3caebb0b	0.021329423
113	0x3cd0a54e	0.025469448
114	0xbc888def	-0.016669242
115	0xbc72f5c7	-0.014829106
116	0xbc119d1e	-0.008887557
117	0xbc1ff883	-0.00976384
118	0xbc9c6a8e	-0.019093778
119	0x3ce96cde	0.028494295
120	0x3c9a133b	0.018807998
121	0x3b16c38a	0.0023004734
122	0x3b324691	0.0027202705
123	0x3ccd963a	0.025096048
124	0x3caa7a7c	0.020810358
125	0x3be1ab4f	0.0068868767
126	0x3d0f9f3d	0.03506397
127	0x399c72d7	0.000298402
128	0x3d071a05	0.0329838
129	0x3c2fa88d	0.010721338
130	0x3b5f8a83	0.003410966
131	0xbc2025a2	-0.009774597
132	0x3d001f4e	0.031279854
133	0x3cbd6b43	0.023122435
134	0xbba3936d	-0.0049919398
135	0xbc0b4cc2	-0.008502187
136	0xbc99004d	-0.018676901
137	0x3a5f1863	0.0008510409
138	0xbc368936	-0.011141112
139	0x3c8a0443	0.016847735
140	0x3b76b251	0.0037642906
141	0xbc3723b1	-0.011177943
142	0xbc9085a3	-0.017641848
143	0xbc848de8	-0.016180947
144	0x3b44895f	0.0029989106
145	0x3c5b6b82	0.013392331
146	0x3c9573f0	0.01824376
147	0xbb948882	-0.0045328746
148	0x3c984a26	0.018590044
149	0xbaf16f57	-0.0018420023
150	0x3b926e51	0.004468717
151	0x3d02002e	0.031738453
152	0xbb990838	-0.004670169
153	0xbca0ec43	-0.019643908
154	0x3cd4e68e	0.025988843
155	0x3c5c9aa6	0.013464605
156	0x3bff22a1	0.0077861105
157	0x3c091442	0.008366646
158	0xbc22fc76	-0.009947887
159	0x3bced16f	0.0063115875
160	0xbc6d349b	-0.014477874
161	0x3c5c7f5b	0.013458098
162	0xb93f0044	-0.00018215278
163	0x3c84ac0d	0.016195321
164	0x3d022a4c	0.03177862
165	0x3c9ae6ad	0.018908823
166	0xbc8799f8	-0.01655291
167	0xbc2e1ed5	-0.010627468
168	0xbc2a3089	-0.010387548
169	0xba86957a	-0.0010267936
170	0xbc822355	-0.015885988
171	0x3c6e5f45	0.014549081
172	0x3b7d043f	0.0038607267
173	0xbbd4c523	-0.006493227
174	0x3ce5beb3	0.028045034
175	0xbb6a8afc	-0.0035788408
176	0xbcceb34b	-0.025231978
177	0xbb2ed089	-0.002667459
178	0x39ab5582	0.0003267937
179	0x3d2ae058	0.041717857
180	0x3c0ad78c	0.008474242
181	0x3d038a66	0.03211441
182	0x3c5eceab	0.013599078
183	0x3cb05fae	0.021529999
184	0xbaf680b3	-0.0018806666
185	0xbc9e6f47	-0.01934017
186	0xbbc487cc	-0.0059976336
187	0x3c233818	0.009962104
188	0x3cf473cb	0.02984037
189	0xba7064d5	-0.00091702986
190	0xbcc77a30	-0.024350256
191	0x3b8e718e	0.004347033
192	0xbc14b7c4	-0.009077016
193	0x3cd52ecc	0.026023291
194	0xbc559db2	-0.013038086
195	0x3d44a9e5	0.048013587
196	0x3bce9932	0.0063048834
197	0x3a30c7ff	0.0006743669
198	0x3a33f848	0.0006865305
199	0x3c7d50e1	0.015461178

network_body.linear_encoder.seq_layers.2.weight f4 [200, 200]
0	0xbd73f42d	-0.059559036
1	0xbcf2a81a	-0.029621173
2	0xbd54efde	-0.051986568
3	0xbe4203e8	-0.18946803
4	0x3dcc765d	0.099835135
5	0xbd29ab89	-0.041423354
6	0xbd41d8ab	-0.04732577
7	0x3d294f4e	0.041335396
8	0xbdde83e9	-0.108650036
9	0x3da35661	0.0797546
10	0x3cf3a1b6	0.029740196
11	0xbd2f7644	-0.042837396
12	0x3d36a569	0.04459134
13	0xbcc411c9	-0.023934262
14	0xbd84e0a4	-0.06488159
15	0xbbcbb210	-0.006216295
16	0xbdac9afd	-0.08427999
17	0x3d8efe7f	0.06982135
18	0x3c7ee5f9	0.015557759
19	0x3c759421	0.01498893
20	0x3df57e71	0.119870074
21	0x3e0c494b	0.13699834
22	0x3e097395	0.13422997
23	0xbd8c6fc0	-0.06857252
24	0xbd338eb8	-0.04383728
25	0x3d0f9709	0.035056148
26	0x3cfb63d8	0.030687258
27	0xbcc61209	-0.024178522
28	0x3d65474e	0.055976205
29	0xbd9d01e6	-0.07666378
30	0xbdadc69b	-0.084851466
31	0x3cc6aac8	0.024251357
32	0x3ca614ab	0.020273527
33	0x3de5800b	0.11206063
34	0x3d450bb7	0.048106875
35	0x3dd7a1cd	0.10528908
36	0x3d15238a	0.036410846
37	0xbce0de35	-0.027449707
38	0x3ae60f8c	0.0017552241
39	0x3cc8ad7a	0.024496783
40	0xbb020f31	-0.001984548
41	0x3d0a5101	0.033768658
42	0xbe2fa230	-0.17151713
43	0xbd0e9f5d	-0.03481995
44	0xbdd607ad	-0.10450683
45	0xbd9f0a72	-0.07765664
46	0x3ceeb3fd	0.02913856
47	0xbd88e980	-0.066851616
48	0x3ce7f613	0.02831558
49	0x3da98603	0.08277514
50	0x3d4e3c00	0.05035019
51	0x3db30522	0.087412134
52	0x3d4b6f6c	0.049666807
53	0x3ca99777	0.020702107
54	0x3d2e1802	0.042503364
55	0x3d0acd85	0.033887405
56	0xbd94cecc	-0.07266006
57	0xbb5bc4f3	-0.003353414
58	0x3d6d5a2b	0.05794732
59	0x3d66aed5	0.056319077
60	0xbdb5e8b3	-0.088822745
61	0x3c257284	0.010098103
62	0x3b8f2025	0.0043678456
63	0xbcb44b12	-0.022008453
64	0x3d3404a6	0.043949746
65	0xbdb7fe13	-0.08984008
66	0xbd842518	-0.064523876
67	0x3d259b8a	0.040431537
68	0xbc0cd10f	-0.008594765
69	0x3dc25c21	0.094902284
70	0x3d1c869f	0.038214322
71	0xbaf1a2b6	-0.0018435332
72	0xbdad75dd	-0.08469746
73	0xbd69ffbf	-0.057128664
74	0xbd89661b	-0.06708928
75	0x3bc0ced2	0.00588403
76	0x3ccd545f	0.025064645
77	0xbd8b8b40	-0.06813669
78	0xbcca96df	-0.024730144
79	0x39c7839f	0.00038054303
80	0x3bf98ab7	0.007615413
81	0x3bfe071d	0.007752313
82	0x3d33a161	0.043855075
83	0xbd403d59	-0.046933506
84	0x3db6e4be	0.08930348
85	0xbdb1ccc0	-0.08681631
86	0x3db73daf	0.08947312
87	0xbdb9e8e8	-0.090776265
88	0xbc231d1d	-0.009955672
89	0xbd66114c	-0.05616884
90	0x3c200544	0.00976688
91	0xbe0160f6	-0.12634644
92	0x3d6e6d10	0.05820948
93	0x3ae3da39	0.0017383761
94	0xbe08d7fc	-0.13363642
95	0x3e00d112	0.12579754
96	0x3c41d932	0.011831569
97	0x3d2c44b2	0.0420577
98	0x3d266a0d	0.04062848
99	0xbd99fad7	-0.07518547
100	0xbdd31b49	-0.103079386
101	0xbd897364	-0.06711462
102	0xbca88daf	-0.020575373
103	0xbc177ac9	-0.009245583
104	0xbdacf5e1	-0.08445335
105	0x3ada76b3	0.0016667455
106	0x3c4bf1ab	0.012447755
107	0x3d2c43e7	0.042056944
108	0xbcdd04d9	-0.02697985
109	0x3d58852e	0.052861385
110	0xbcc73f0f	-0.02432206
111	0xbdea4dff	-0.11440658
112	0x3da27e44	0.079342395
113	0xbe0763f3	-0.13221721
114	0xbc7cbd36	-0.015425971
115	0x3c012b83	0.007883909
116	0x3cd48457	0.02594201
117	0xbdf042d9	-0.117315
118	0xbd37c865	-0.044868845
119	0x3dcfb0ba	0.1014113
120	0x3d701e30	0.05862254
121	0xbcc45194	-0.02396468
122	0x3d7fd255	0.062456448
123	0x3db5b723	0.08872821
124	0xbdd4a06d	-0.10382161
125	0xbd1c83ad	-0.038211513
126	0xbd83b5f9	-0.06431193
127	0x3b5ed819	0.0034003316
128	0xbd9cbd09	-0.07653243
129	0xbd42ba9a	-0.04754124
130	0xbd75e57f	-0.060033318
131	0x3d32d463	0.04365958
132	0x3d90abbd	0.070640065
133	0xbd2d333d	-0.042285193
134	0x3b7ab803	0.0038256652
135	0xbc613349	-0.0137451375
136	0xbcc77789	-0.024348991
137	0x3c08683d	0.008325634
138	0xbddb2143	-0.106997035
139	0x3c62f338	0.013851933
140	0xbcd6f4a7	-0.026239706
141	0xbe03d2d4	-0.12873393
142	0xbcfaae34	-0.030600645
143	0xbb4315f8	-0.0029767733
144	0xbc123a23	-0.008924994
145	0xbcfe531c	-0.031045489
146	0xbdef3a49	-0.11681039
147	0xbd97f8f2	-0.074205294
148	0x3b9baf80	0.004751146
149	0xbe18ed90	-0.14934373
150	0xbd5124cc	-0.051060483
151	0x3d75c9f4	0.06000705
152	0x3cbe1d90	0.023207456
153	0x3dad22cc	0.084539026
154	0xbd266df1	-0.040632192
155	0x3da37440	0.07981157
156	0xbc5906e5	-0.013246273
157	0xbd0713eb	-0.03297798
158	0xbc94d942	-0.018170003
159	0xbdc8a776	-0.09797566
160	0x3d98e8ea	0.074663
161	0xbc8fa612	-0.017535243
162	0x3d445697	0.04793414
163	0xbd9b4009	-0.07580573
164	0xbd8f9308	-0.07010466
165	0x3d0e1638	0.03468916
166	0x3d857e60	0.06518245
167	0x3cdd20e0	0.026993215
168	0xbd6f9e71	-0.05850071
169	0xbde27767	-0.110579304
170	0x3c7c0921	0.015383036
171	0xbd324905	-0.043526668
172	0xbcc681d8	-0.024231836
173	0xbe0d3536	-0.1378983
174	0x3d845de1	0.064632185
175	0xbd52d99d	-0.051477063
176	0xbe2cb729	-0.16866745
177	0x3b157c90	0.002280984
178	0xbd881f51	-0.06646598
179	0xbd52c9ee	-0.051462106
180	0xbcaebd6b	-0.021330556
181	0x3e237ac4	0.159648
182	0xbd9218a3	-0.07133605
183	0x3d7fd64e	0.062460236
184	0x3cb52fd4	0.022117533
185	0x3cf8a9aa	0.03035434
186	0x3d4debb3	0.05027361
187	0x3de5ea33	0.112263106
188	0x3c2b6fb9	0.0104636485
189	0x3d368992	0.04456479
190	0xbcce6aab	-0.025197348
191	0xbc733b25	-0.014845644
192	0xbd65a92b	-0.056069534
193	0x3dad126b	0.084507786
194	0xbd84affb	-0.06478878
195	0xbd0e6341	-0.034762625
196	0x3b8bf4ac	0.0042711105
197	0x3d2add0c	0.041714713
198	0xbe31301e	-0.17303512
199	0x3c042089	0.008064398
200	0xbd3d46d0	-0.04621011
201	0xbd56c56b	-0.052434366
202	0x3d964dfa	0.073390916
203	0xbd501723	-0.050803315
204	0x3d05ac36	0.032634936
205	0x3b3acf27	0.002850482
206	0xbd46f1f4	-0.04857059
207	0xbe0afcb1	-0.13572957
208	0xbc8c1f78	-0.01710485
209	0x3cf22321	0.029557766
210	0xbd30bebc	-0.04315065
211	0x3dd966a2	0.10615279
212	0x3c414b29	0.011797705
213	0xbcc779bf	-0.024350045
214	0x3cbfbe47	0.023406161
215	0xbc9aef31	-0.018912883
216	0x3d754a3c	0.05988525
217	0x3c661bca	0.014044711
218	0x3d4a6b08	0.04941848
219	0xbc8645c7	-0.016390694
220	0x3d7dd206	0.061967872
221	0x3d894292	0.067021504
222	0xbd29cd39	-0.04145548
223	0x3dbdfbd5	0.09276549
224	0x3d39382e	0.045219593
225	0xbd25c56e	-0.040471487
226	0x3dc3b5c5	0.09556154
227	0x395b0669	0.00020887855
228	0xbd9cf9fc	-0.07664868
229	0xbdb09829	-0.08622772
230	0xbda88fb7	-0.082305364
231	0xbd4c85ce	-0.049932294
232	0x3d2d7569	0.0423483
233	0x3b848414	0.0040440653
234	0xbdcb1284	-0.09915641
235	0x3e18a7c6	0.1490775
236	0x3d251487	0.04030278
237	0xbde2db4a	-0.11076982
238	0xbd80ab43	-0.062826656
239	0x3e1bdcb7	0.15220915
240	0x3c93e061	0.018051328
241	0xbd25c234	-0.04046841
242	0x3d23b451	0.039966885
243	0x3e01d24a	0.12677875
244	0xbd051029	-0.032486115
245	0xbdc3b45c	-0.09555885
246	0x3c0afe7f	0.008483528
247	0xbd60027e	-0.054689877
248	0xbdea7dd3	-0.1144978
249	0xbc448c92	-0.011996405
250	0xbe2ffafa	-0.17185584
251	0xbcf92334	-0.030412294
252	0x3d7f651b	0.06235228
253	0xbd17a1de	-0.037019603
254	0x3d41c1b4	0.04730387
255	0xbd07c1cf	-0.033143815
