Assets/Networks/noself/AgentFastRed.onnx (onnx, 238908 bytes, 9 tensors)

action_model._continuous_distribution.log_sigma f4 [1, 3]
0	0xbc2cf960	-0.0105575025
1	0x3d019932	0.03164024
2	0xbd16d270	-0.036821783

action_model._continuous_distribution.mu.bias f4 [3]
0	0xba001524	-0.00048859627
1	0xb9efe992	-0.00045759656
2	0xbc27162e	-0.010198159

action_model._continuous_distribution.mu.weight f4 [3, 200]
0	0xba5e5a3b	-0.00084820733
1	0xbce68a35	-0.028142074
2	0xbd1cdc0f	-0.0382958
3	0xbd28e299	-0.041231725
4	0x3c9c1794	0.019054212
5	0xbc98eb61	-0.018666925
6	0x3cd763f2	0.026292775
7	0xbb72a3e5	-0.0037023958
8	0xba689352	-0.000887205
9	0xbcd7ce1a	-0.026343394
10	0xbc6d2d6d	-0.014476162
11	0xbd045479	-0.032307122
12	0x3cc93efb	0.024566164
13	0xbcc72bfa	-0.024312962
14	0xbbff2ae1	-0.007787094
15	0x3c843400	0.016138077
16	0xbc9a21ea	-0.018815
17	0xbb44de54	-0.0030039744
18	0xbcc6ef8f	-0.024284152
19	0x3c8b9d9d	0.01704293
20	0xbb3b9a83	-0.0028626032
21	0xbc8e8c07	-0.017400755
22	0x3d78ff18	0.06079015
23	0xbc24e873	-0.010065186
24	0x3beb723f	0.00718525
25	0xbc0e2889	-0.0086766565
26	0xbc383450	-0.011242941
27	0x3aace57a	0.0013190948
28	0x3c4ba3bd	0.012429175
29	0xbc45626f	-0.012047394
30	0xbcfbf889	-0.03075816
31	0x3c9cb901	0.019131185
32	0x3bc5f56c	0.0060412195
33	0xbb97db08	-0.004634265
34	0x3cb526c0	0.022113204
35	0x3d3490c0	0.044083357
36	0xbb1a81ce	-0.0023575905
37	0x3cde5c32	0.027143572
38	0xbcdb3e25	-0.026763031
39	0x3ba3bc48	0.00499681
40	0x3bdd4da7	0.0067536416
41	0x3c966460	0.01835841
42	0xbb6568c4	-0.0035005072
43	0xbc569c6e	-0.013098819
44	0x3bfbda4a	0.007685934
45	0xbcab087f	-0.020878075
46	0xbbd0a390	-0.0063671544
47	0xbc055edf	-0.008140295
48	0xbc9ef282	-0.019402746
49	0x3b82ad40	0.003987938
50	0xba55d4e1	-0.00081570266
51	0x3b8ac018	0.004234325
52	0x3bf78782	0.0075539956
53	0xbd12efb8	-0.035873145
54	0x3c2e92e8	0.010655142
55	0x3ca78d94	0.020453252
56	0xbd188fe9	-0.03724662
57	0x3ce6713c	0.028130166
58	0xbaeca505	-0.0018054551
59	0xbcace863	-0.021106904
60	0x3c7ec97f	0.01555097
61	0x3c0b9574	0.008519519
62	0x3d2cbf60	0.042174697
63	0x3caad34e	0.020852711
64	0x3c566835	0.013086368
65	0xbd11f0a9	-0.035629902
66	0x3bfcea65	0.0077183717
67	0x3d6ddf12	0.058074065
68	0x3d5c48dd	0.053780425
69	0x3c8cc66c	0.017184459
70	0x3a7ec74b	0.0009719028
71	0x3b9d3e16	0.004798661
72	0xbc1ac620	-0.009446651
73	0xbbb5dae4	-0.0055497754
74	0xbc3623c5	-0.011116927
75	0x3d307593	0.043080878
76	0xbb8a56e2	-0.004221783
77	0xbad79a1b	-0.0016449125
78	0x3c4cfc74	0.012511361
79	0x3d0eb236	0.034837924
80	0x3c703c6f	0.014662846
81	0xbab206cd	-0.0013582349
82	0xbbf7e34d	-0.007564938
83	0xbc5e76c2	-0.013578119
84	0xba1f01cc	-0.00060656364
85	0x3b33ab90	0.0027415492
86	0xbc4dec31	-0.012568519
87	0xbcb570c9	-0.022148507
88	0x3d41314d	0.047166158
89	0x3d80db01	0.06291772
90	0xbb9befab	-0.0047587953
91	0x3c4f40bf	0.012649714
92	0xbc4ceae8	-0.012507178
93	0x3c4325dc	0.011910882
94	0x3d286393	0.041110586
95	0xb99d7ba0	-0.0003003748
96	0x3b5e02c5	0.0033876162
97	0xbc357287	-0.011074669
98	0x3bc34969	0.005959679
99	0xbd0bd358	-0.0341371
100	0x3ce5639c	0.028001599
101	0x3ca0a76c	0.019611083
102	0x3d7ef98c	0.062249705
103	0xbc2d05a1	-0.010560424
104	0x3ce84022	0.028350893
105	0x3b89c541	0.0042044227
106	0x3c9f6a26	0.019459795
107	0x3d751e2a	0.05984322
108	0x3d11d4e2	0.03560341
109	0xbbfa5c5b	-0.007640404
110	0xba8a6af7	-0.0010560442
111	0xbbdd940c	-0.0067620333
112	0x3cd4e072	0.02598593
113	0xbb5c289d	-0.0033593543
114	0xbbf74b63	-0.0075468286
115	0x3bd22c93	0.006414005
116	0x3b514e8d	0.003193769
117	0x395deedc	0.00021165184
118	0xbb2dd2e5	-0.0026523408
119	0xbb1fced3	-0.0024384751
120	0xbaf7aec8	-0.0018896693
121	0x3c31ffa3	0.010864171
122	0xbc0f286a	-0.008737663
123	0xbd1623a0	-0.03665507
124	0x3d6ab56f	0.057301935
125	0x3d2547ae	0.040351562
126	0xbd1595a3	-0.036519658
127	0x3cae4e43	0.021277552
128	0xbcaebee9	-0.021331267
129	0xbca64064	-0.020294376
130	0xbbb211e0	-0.00543426
131	0x3d036e90	0.032087862
132	0x3b2dbb8e	0.0026509496
133	0xbb72a2be	-0.0037023271
134	0xbbfd1934	-0.0077239517
135	0xbc4a502e	-0.012348218
136	0x3c92ff36	0.01794396
137	0xbca04b54	-0.01956717
138	0xb9ea3b09	-0.00044675943
139	0xbcabad36	-0.020956617
140	0x3c90f78e	0.017696168
141	0x3cf9f162	0.030510608
142	0xbc8891ec	-0.016671143
143	0x3c9e5619	0.019328164
144	0x3cdca74f	0.026935248
145	0x3c92eaec	0.017934285
146	0x3cccbb0e	0.024991538
147	0xbccc3538	-0.02492772
148	0x3cae58a1	0.021282496
149	0xbc3d3df3	-0.011550414
150	0x3c3b01db	0.011414017
151	0x3c374e09	0.011188039
152	0xbc134e72	-0.008990871
153	0x3beddecd	0.007259226
154	0xbc6f4462	-0.014603706
155	0xbcd92c67	-0.02651043
156	0x3d9a665d	0.075390555
157	0x3b05edcb	0.0020435925
158	0xbc9023f8	-0.017595276
159	0x3cb10b05	0.0216117
160	0xbcb3d949	-0.021954196
161	0xbcdbb17a	-0.026818026
162	0x3c88918f	0.01667097
163	0xbb0064d8	-0.0019591358
164	0x3caec705	0.021335134
165	0x3d615b6b	0.055018824
166	0xbc13e0cb	-0.009025763
167	0x3d31553b	0.043294173
168	0xbcb1aa1b	-0.021687558
169	0xbca6bd05	-0.020353803
170	0x3c8f7372	0.017511103
171	0x3c2a7d2a	0.010405818
172	0xbb2a5dca	-0.0025995844
173	0xbbe822f5	-0.0070842453
174	0x3cc7cc91	0.024389537
175	0xbc59d27e	-0.013294814
176	0x3b80e93d	0.003934054
177	0xbcb08e84	-0.021552332
178	0x3c35b5ba	0.01109069
179	0xbc3ca9b1	-0.011515067
180	0xbbf6c037	-0.007530238
181	0xbd302c8f	-0.043011244
182	0xbc73c548	-0.0148785785
183	0xbd01a5e9	-0.031652365
184	0x3cdbd737	0.02683602
185	0xbc6c5237	-0.014423898
186	0xbb28db4d	-0.002576548
187	0x3d09a614	0.03360565
188	0xbd10ea6a	-0.035379805
189	0xbd1f09f9	-0.03882787
190	0x3c2a30ef	0.010387643
191	0xbc9b15a7	-0.018931223
192	0x3c88bb87	0.016690983
193	0xbc062d33	-0.008189487
194	0x3ca0ba58	0.019620106
195	0x3ca46b13	0.020070588
196	0x3ac8a93c	0.0015309225
197	0x3bb5c1f4	0.0055468027
198	0xbcfba2eb	-0.030717334
199	0x3c8ec32a	0.017427046
200	0xbd45bacc	-0.048273847
201	0x3a8e70ad	0.001086732
202	0xbc626cd4	-0.013819892
203	0x3cab613c	0.020920388
204	0x3c162930	0.009165093
205	0xbd106551	-0.035252873
206	0xba709053	-0.00091767794
207	0xbb8e6366	-0.0043453453
208	0xbc8a879b	-0.016910365
209	0xba6e3a5f	-0.00090876775
210	0xbca7cca1	-0.020483317
211	0xbccd3b8a	-0.025052804
212	0x3ca64307	0.020295633
213	0xbd848ab4	-0.06471768
214	0xbc77df56	-0.015128931
215	0x3c8580f7	0.016296847
216	0x3bb5dfd6	0.005550365
217	0x3d013467	0.031544115
218	0xbb8095a8	-0.0039240904
219	0x3ccdae76	0.025107604
220	0x3c71525e	0.0147291105
221	0xbbaeb3ac	-0.005331477
222	0x3cc49572	0.023997042
223	0xbba7898e	-0.0051128333
224	0x3c610ac9	0.013735482
225	0xbd60af19	-0.054854486
226	0x3d18c8c6	0.037300847
227	0xbc3ec786	-0.01164425
228	0xbd096544	-0.03354384
229	0xbc4ca29d	-0.012489942
230	0xbb834607	-0.0040061506
231	0x3d4f4e1f	0.05061161
232	0xbc6f239c	-0.014595892
233	0x3cffe3a5	0.031236479
234	0x3cdfe38b	0.02733018
235	0x3b44ba33	0.003001821
236	0xbcc04ec9	-0.023475068
237	0xbcca104f	-0.02466598
238	0x3d32b4f7	0.043629613
239	0x3c22b427	0.009930647
240	0x3c85454b	0.016268393
241	0x3c2e3c6e	0.010634525
242	0x3cd161e8	0.02555938
243	0xbb84f13f	-0.004057079
244	0x3d3ee57f	0.046605583
245	0x3cb235c9	0.021754162
246	0xbc6104a2	-0.013734015
247	0x3ca3ed97	0.020010753
248	0x3c8031a8	0.015648678
249	0xbd5eb504	-0.05437185
250	0x3cc2530b	0.023721239
251	0x3be5320f	0.006994493
252	0x3cbb2e25	0.022849152
253	0xbba72f0a	-0.005102043
254	0x3c6007be	0.013673721
255	0x3d18ec4c	0.037334725

action_model._discrete_distribution.branches.0.bias f4 [2]
0	0xba2ab7d0	-0.00065123755
1	0x3a2ab7c9	0.00065123715

action_model._discrete_distribution.branches.0.weight f4 [2, 200]
0	0xba3edb4d	-0.0007280603
1	0xbbd1dc32	-0.006404423
2	0xbc125109	-0.008930453
3	0xbcb5956a	-0.022165973
4	0xbca4070e	-0.020022895
5	0x3b1cedf4	0.0023945542
6	0x3c9650c6	0.018349063
7	0x3b87c42b	0.004143258
8	0xbc000fe8	-0.007816292
9	0x3be01878	0.0068388544
10	0x3ba46b90	0.0050177053
11	0x3c4d8f71	0.012546406
12	0xbc2a4d39	-0.010394388
13	0xbc2dc8c8	-0.010606952
14	0xbc8e8358	-0.017396614
15	0xbbb21622	-0.0054347673
16	0x3b190934	0.0023351433
17	0x3caad118	0.020851657
18	0xbc8bab68	-0.017049506
19	0x3c9a62bb	0.018845906
20	0xbca7df9b	-0.020492366
21	0xbc2c6b42	-0.010523619
22	0xbc89398c	-0.016751073
23	0xbc735466	-0.014851665
24	0xbc91ea32	-0.017811868
25	0x3bf02354	0.00732843
26	0xbcaf27e3	-0.021381324
27	0x3c5b66af	0.013391181
28	0xbb23412c	-0.0024910672
29	0xbca1fa5c	-0.019772701
30	0xbb884025	-0.0041580372
31	0x3bf07c08	0.0073390044
32	0xbb042bab	-0.002016763
33	0x3b4348af	0.0029797961
34	0xbc2b9586	-0.010472661
35	0x3bd032bf	0.0063537057
36	0x3aa86153	0.0012846388
37	0x3cc6eb2c	0.02428206
38	0xbc99f7f5	-0.018794993
39	0xbc22a50b	-0.009927045
40	0x3d00c9b1	0.031442348
41	0xbc0c4789	-0.008561977
42	0xbb28b8f8	-0.0025745016
43	0x3bb3ad58	0.0054833107
44	0xbcaf128e	-0.021371152
45	0x3c2adfc7	0.010429329
46	0xbba90bce	-0.005158878
47	0xbc2ad34a	-0.010426352
48	0xbb6f38b3	-0.0036502301
49	0xbca73c1c	-0.020414405
50	0x3b3c9a95	0.0028778662
51	0xbbdd2675	-0.006748969
52	0x3962f34c	0.00021643675
53	0xbd312cf3	-0.043255758
54	0xbc61967b	-0.0137687875
55	0x3b811486	0.003939214
56	0x3c117aa9	0.008879342
57	0x3c14c2ea	0.009079674
58	0xbc479a33	-0.01218276
59	0x3c0cbb21	0.008589537
60	0xbaf88ab9	-0.0018962241
61	0x3c0d400f	0.00862123
62	0x3c1bde55	0.009513457
63	0xbc76a1a7	-0.015053189
64	0xbbf4fc46	-0.0074763624
65	0x3a8a8b88	0.0010570148
66	0xba99d0d5	-0.001173521
67	0xbc994963	-0.018711751
68	0x3b972cac	0.0046134796
69	0x3bde6256	0.006786625
70	0xbc29c058	-0.0103608
71	0xbbd72107	-0.0065652165
72	0xbcdbd74d	-0.026836062
73	0xba436441	-0.00074535987
74	0xbc2b3f21	-0.010452063
75	0x3b91bb5b	0.0044473833
76	0xbc04aca6	-0.008097803
77	0xb95463b3	-0.00020255036
78	0xbb731e35	-0.0037096862
79	0xbcb9aef2	-0.022666428
80	0xbb8db1b4	-0.0043241624
81	0xbc2783d5	-0.010224302
82	0x3bc8c15e	0.006126567
83	0x3c221693	0.009893077
84	0xbb2f4f80	-0.0026750267
85	0xbc6f4f2b	-0.014606277
86	0xbcda913e	-0.026680585
87	0x3c0c2303	0.008553269
88	0x3b2d2cd9	0.0026424436
89	0x3c0653b5	0.008198668
90	0x3b575823	0.003285893
91	0x3c188302	0.009308578
92	0xbc57ea92	-0.0131784845
93	0x3b26d9a0	0.0025459304
94	0xbcb4810f	-0.022034196
95	0x3a1ce758	0.00059854006
96	0xbbabb63d	-0.0052402304
97	0xbc22b240	-0.009930193
98	0x3c8f614c	0.01750245
99	0xbc411193	-0.011783975
100	0x3bfe9255	0.007768909
101	0x3c900b27	0.017583443
102	0xbb99c84b	-0.0046930662
103	0x3bb79c39	0.00560334
104	0x3b0ca873	0.0021462708
105	0x3acea0bb	0.0015764454
106	0xbbe3d327	-0.0069526616
107	0x3bf784c9	0.007553671
108	0x3ba937b6	0.005164112
109	0xbb9b329d	-0.004736258
110	0xbb0ef185	-0.0021811437
111	0xbb881c83	-0.0041537895
112	0xbc699f8e	-0.014259232
113	0x3bc95eed	0.0061453492
114	0x3be7a221	0.007068888
115	0xbaae2211	-0.0013285299
116	0xbbee65b5	-0.007275308
117	0x3b8c449a	0.004280639
118	0x3bad2008	0.0052833594
119	0x3a8e1748	0.0010840679
120	0x3bf4befc	0.007469056
121	0x3c809dbd	0.015700215
122	0xbca48994	-0.020085134
123	0x3ad10153	0.0015945829
124	0xbc6312af	-0.013859435
125	0xbbbd8c55	-0.005784551
126	0xbc699ac3	-0.0142580895
127	0xbb535ce4	-0.0032251412
128	0xbb8330ab	-0.0040036044
129	0xbc2fb505	-0.010724311
130	0xbc7872f8	-0.015164129
131	0xbbe3b7b7	-0.0069493908
132	0xbb9ff910	-0.0048819855
133	0xbccd3ee4	-0.025054403
134	0xbc2aa963	-0.0104163615
135	0x3c14514b	0.009052585
136	0xbc5a04c9	-0.013306805
137	0xbcc54cf5	-0.024084548
138	0xbb67c970	-0.003536787
139	0xbcac95c1	-0.021067502
140	0x3ba8e065	0.005153703
141	0xbc4896e9	-0.012243011
142	0xbc14320e	-0.009045137
143	0x3ce212cf	0.02759686
144	0x3c8c890f	0.017155198
145	0xbbe3e1f6	-0.006954427
146	0xbc1ab5ed	-0.009442789
147	0xbc187f0f	-0.009307637
148	0xbc903e85	-0.017607937
149	0xbbddf14d	-0.00677315
150	0x3cd08ea6	0.025458645
151	0xbc53872f	-0.012910648
152	0xbbee72d6	-0.007276873
153	0x3af4a5b6	0.0018665108
154	0x3b9e3ab3	0.004828775
155	0x3c35e9fc	0.0111031495
156	0xbafb564c	-0.0019175499
157	0xbaceee01	-0.0015787483
158	0xbc80e69e	-0.015734967
159	0xbc08f450	-0.00835903
160	0x3c4d8ba5	0.012545501
161	0xba0cf7db	-0.00053775095
162	0x3bdccc48	0.0067382194
163	0xbc2e36f6	-0.010633221
164	0xbb8de780	-0.0043305755
165	0xbc8c5fcc	-0.017135523
166	0xbb8ebf6d	-0.004356316
167	0x3c3c5d16	0.011496803
168	0xbadb4e58	-0.0016731722
169	0x3bc6196f	0.0060455124
170	0xba75f8ea	-0.00093830994
171	0x3bbbb6fd	0.005728601
172	0xbb66e703	-0.0035232909
173	0xbc805b97	-0.015668673
174	0xbccb0caf	-0.024786321
175	0x3becc0fb	0.0072251535
176	0xbcffd41e	-0.031229075
177	0x3c0c25e0	0.008553952
178	0x3bd9f55a	0.0066515626
179	0x3a2f5880	0.0006688908
180	0xbbf3cc97	-0.0074401605
181	0xbc3242ec	-0.010880213
182	0xbbdf4b1b	-0.006814373
183	0xbc1e12f7	-0.009648076
184	0xbb8ce372	-0.0042995745
185	0x3bf8e182	0.007595242
186	0x3b095495	0.0020954956
187	0x3ccedcaf	0.025251715
188	0xbb3898a9	-0.0028167164
189	0xbc8d2f3b	-0.017234435
190	0xbc02e90e	-0.007990135
191	0x3c11aad9	0.008890831
192	0x3c66ec4d	0.014094424
193	0xbcfce562	-0.030871097
194	0xbcc00398	-0.023439214
195	0x3b62e3c5	0.0034620625
196	0xb9a7025f	-0.0003185449
197	0xbc06a252	-0.008217411
198	0x3b81c93b	0.003960756
199	0xbcd45a6f	-0.025922028
200	0x3bee83ee	0.007278911
201	0x3ba571c2	0.0050489614
202	0x3c3f30d7	0.011669359
203	0x3ce716fa	0.028209198
204	0x3ada8f36	0.001667476
205	0xbc46db55	-0.012137254
206	0xbca0d585	-0.019633064
207	0xbc871a4b	-0.01649203
208	0x3ba0890d	0.00489915
209	0xbc1bffb8	-0.009521417
210	0x3c822880	0.015888453
211	0xbc86d453	-0.016458666
212	0x3a81ad9a	0.0009893656
213	0xbc0d8f16	-0.008640071
214	0xbac41528	-0.0014959918
215	0x3c51cba2	0.0128048975
216	0x3c8407d8	0.016117021
217	0xbb968b73	-0.0045942604
218	0x3c98f8d3	0.018673336
219	0xbc800250	-0.015626103
220	0x3bddad4c	0.0067650434
221	0x3c2ecf94	0.010669608
222	0x3d0a1029	0.033706818
223	0x3ca0f66a	0.01964875
224	0x3b8ebd31	0.0043560495
225	0xbb2c60cb	-0.002630281
226	0x3cb6e2b9	0.022324907
227	0xbcc42768	-0.023944572
228	0x3ca3b2d2	0.01998273
229	0x3c9f107c	0.01941704
230	0x3b18bb10	0.0023304857
231	0x3aae7a73	0.0013311639
232	0x3c8225f0	0.01588723
233	0x3b997141	0.0046826904
234	0x3c16f59b	0.00921383
235	0x3be2a06b	0.006916096
236	0xbaf1079c	-0.0018389109
237	0xbab861fb	-0.0014067286
238	0x3c0d55ed	0.008626443
239	0x396d67bb	0.00022640724
240	0xbc57f02f	-0.013179823
241	0x3c02918c	0.007969271
242	0xb91d0342	-0.000149739
243	0xbc293546	-0.010327643
244	0x3c730359	0.014832341
245	0x3a786709	0.00094758027
246	0x3c6ebc15	0.014571209
247	0x3c8443b4	0.016145565
248	0x3c3b8a59	0.011446559
249	0x3c51ae05	0.012797837
250	0xbbefc592	-0.0073172534
251	0x3b742396	0.0037252656
252	0xbb60bc43	-0.00342919
253	0x3d0bfb77	0.034175362
254	0xbb854c2b	-0.004067918
255	0x3b9a416b	0.0047075055

network_body.linear_encoder.seq_layers.0.bias f4 [200]
0	0xbcbe4580	-0.0232265
1	0xbb07d95d	-0.0020728924
2	0xbac21d91	-0.0014809837
3	0xbbae2659	-0.00531463
4	0x3b10cca9	0.0022094643
5	0x3c78d467	0.015187359
6	0xbb2c82b1	-0.0026323015
7	0x3cba08d6	0.022709291
8	0xbc0a5815	-0.008443852
9	0x3cc3aaa3	0.023885077
10	0x3be900d6	0.0071106954
11	0x3c4cf0ab	0.012508552
12	0xba39c1fb	-0.0007086095
13	0x3cb60ad0	0.022221953
14	0x3bd4aa3f	0.0064900215
15	0xbb4594c4	-0.0030148486
16	0x3c86feb0	0.016478866
17	0x3c3e51e7	0.011616207
18	0x3c25a126	0.010109222
19	0xbcf2d31e	-0.029641684
20	0x3c9c8b10	0.019109279
21	0x3c15ba96	0.009138724
22	0x3cfe974a	0.031078
23	0x3c925e83	0.017867332
24	0xbc4d61a9	-0.012535491
25	0x3bc49752	0.005999484
26	0x3c7d9043	0.015476289
27	0x3bdd322b	0.0067503653
28	0xbc41da6d	-0.011831862
29	0x3ca3f0fa	0.020012368
30	0xbd06c4fe	-0.03290271
31	0x3c009f83	0.007850531
32	0x3c9266f8	0.017871365
33	0x3cab2750	0.02089277
34	0x3bdcfd49	0.006744061
35	0x3cf45eb3	0.029830312
36	0x3bd2f52d	0.0064379186
37	0x3d08228d	0.033236075
38	0x3c16d2b4	0.009205509
39	0xbb5803c1	-0.0032961222
40	0x3cacbc0b	0.02108576
41	0xbc793a7b	-0.015211697
42	0x3b68aaf9	0.0035502298
43	0x3b45fd0c	0.0030210642
44	0x3ad2e17b	0.0016088927
45	0x3c2a8d6d	0.010409695
46	0x3c21b52f	0.009869858
47	0xbc93c13a	-0.018036474
48	0xbc9bfd10	-0.019041568
49	0x3c28f003	0.0103111295
50	0xbc032efa	-0.008006806
51	0x3c6dff11	0.014526145
52	0xbc36f2ec	-0.0111663155
53	0x3ce3d5d0	0.027811915
54	0xbb4470bb	-0.002997442
55	0x3cd65a90	0.02616623
56	0x3c865be3	0.016401237
57	0x3c0dbea5	0.00865141
58	0x3d1464a3	0.036228787
59	0xbbdf3240	-0.00681141
60	0x3ca6dfb0	0.020370334
61	0xb9dc55da	-0.00042025634
62	0xbc2f0916	-0.010683319
63	0x3be07ec2	0.006851048
64	0xbc470ecb	-0.012149523
65	0x3c4da786	0.012552148
66	0x3c8100e5	0.015747497
67	0xbb392ab1	-0.0028254206
68	0x3cb58961	0.022160234
69	0xbab1311f	-0.0013518668
70	0x3bc12bda	0.00589512
71	0x3c91991f	0.01777321
72	0x3c497af6	0.012297383
73	0x3c573fd8	0.01313778
74	0x3b72a532	0.0037024734
75	0x3caa20ef	0.020767657
76	0xbd0f47d8	-0.034980625
77	0x3c85385b	0.016262224
78	0x3c1efcf0	0.00970386
79	0xbc2a8f2d	-0.010410112
80	0x3cb092f6	0.021554451
81	0x3ccff4a3	0.025385207
82	0x3c9dee3c	0.019278638
83	0x3ce6e7ac	0.028186642
84	0xbc5f3244	-0.013622824
85	0xbbbda596	-0.0057875616
86	0x3c5eaec9	0.013591477
87	0x39cfdc38	0.00039646192
88	0x3a49fb1c	0.000770496
89	0x3bfb1a17	0.0076630223
90	0x3d15a4a5	0.03653397
91	0xbb41f1c5	-0.0029593569
92	0x3d078739	0.033087943
93	0x3bb4ec4c	0.005521333
94	0x3cad0133	0.021118736
95	0x3ad132ac	0.0015960536
96	0x3cca6cb4	0.024710037
97	0x3ba7e201	0.0051233773
98	0x3c2b837a	0.010468358
99	0x3d2c939e	0.042132966
100	0x3cd41e8d	0.025893474
101	0x3ca2a545	0.019854197
102	0x3b92dfb6	0.004482235
103	0x3ba2a3e9	0.0049633873
104	0x3b892a23	0.0041859313
105	0x3bb47ff9	0.0055084196
106	0xbcd1b5ba	-0.02559935
107	0x3c9356ea	0.01798578
108	0xb8f683ba	-0.0001175473
109	0xb84ed668	-4.931391e-05
110	0x3c052d97	0.008128545
111	0xba03f0a9	-0.00050331146
112	0x3cb3491e	0.02188545
113	0x3b278367	0.00255605
114	0x3cba1d9f	0.022719203
115	0xbd240e28	-0.040052563
116	0x3ca3701a	0.019950915
117	0xbba420ff	-0.0050088163
118	0x3ce3c9ab	0.027806124
119	0x3cc00131	0.023438068
120	0x3cc754bc	0.024332397
121	0x3bd6f206	0.006559613
122	0x3b172016	0.0023059896
123	0x3c56b2fd	0.013104198
124	0x3b0baff7	0.00213146
125	0x3ae6a7a2	0.0017597566
126	0xbb87ab2c	-0.0041402783
127	0x3c9b2983	0.018940693
128	0x3c8e9f38	0.017409906
129	0x3c2d30ad	0.010570687
130	0x3c12830c	0.008942377
131	0xbac2d37f	-0.0014864056
132	0x3c50b0fc	0.012737509
133	0xbbd82341	-0.0065959995
134	0x3cf39267	0.029732896
135	0xba6f3c76	-0.0009126136
136	0x3c8b0383	0.016969448
137	0x3c47d881	0.012197615
138	0xbbfed77e	-0.0077771535
139	0x3c7f896c	0.015596729
140	0xbbe4fa5f	-0.0069878544
141	0x3c8f8d43	0.017523414
142	0x3c5e7c36	0.013579419
143	0xbbc47797	-0.0059957015
144	0xbc0a34d2	-0.008435445
145	0x3cd97fd9	0.02655022
146	0x3ba61d61	0.00506942
147	0x3be33902	0.006934286
148	0x3b4cb847	0.0031237768
149	0x3ce7b5aa	0.028284866
150	0x3c0a98e2	0.008459302
151	0x3c6a8b42	0.014315428
152	0xbbb433a0	-0.0054993182
153	0x3c9dab92	0.01924685
154	0xbc321978	-0.01087033
155	0x3a855943	0.0010173697
156	0x3ca158ac	0.019695602
157	0x3c80b5d9	0.015711712
158	0x3cddcc9e	0.027075108
159	0x3cae1ab6	0.021252971
160	0xb9b8f20a	-0.00035275548
161	0xbc070e3c	-0.00824314
162	0x3cc5d837	0.02415095
163	0x3ced058b	0.028933307
164	0x3b28f0f0	0.0025778376
165	0x3c42542b	0.0118608875
166	0xbc1390cf	-0.009006693
167	0xbac82a50	-0.0015271399
168	0x3c83415e	0.01602238
169	0x3c6fc956	0.014635405
170	0x3caa647a	0.020799864
171	0x3ca5a3ab	0.020219645
172	0x3c7d13eb	0.015446643
173	0x3cc79b24	0.024365969
174	0x3c0ddb53	0.008658248
175	0x3cc48df0	0.023993462
176	0x39f85b9b	0.00047370497
177	0x3c772c46	0.015086239
178	0xbc5aa6cb	-0.013345431
179	0x3a967435	0.0011478724
180	0x3b8bfe69	0.0042722714
181	0x3c971d9b	0.018446734
182	0x3b9a4b79	0.004708704
183	0x3c4449a4	0.011980448
184	0x3bdace30	0.0066774115
185	0x3d132aa9	0.035929356
186	0xbbc1d8ba	-0.0059157284
187	0x3b85338c	0.0040649828
188	0xbc03d775	-0.008046974
189	0x3c287705	0.010282283
190	0x3c2946d4	0.010331828
191	0x3cc4e47c	0.024034731
192	0xbc31cacd	-0.010851574
193	0x3c4caa7c	0.0124918185
194	0xbcb3be28	-0.02194126
195	0x3c53b184	0.012920741
196	0x3b248cab	0.0025108259
197	0x3c0399f0	0.008032307
198	0xbbd4c278	-0.006492909
199	0x3b885f50	0.0041617528

network_body.linear_encoder.seq_layers.0.weight f4 [200, 88]
0	0xbdf3bd70	-0.11901367
1	0xbd03f83b	-0.032219153
2	0x3d97ce9b	0.07412454
3	0xbe9d0444	-0.30667317
4	0x3dcebae3	0.100942396
5	0xbd874dfc	-0.06606671
6	0x3ca2f289	0.01989104
7	0x3d80add6	0.062831566
8	0xbb7f3a11	-0.0038944522
9	0xbbdf493d	-0.0068141506
10	0x3da74260	0.08166957
11	0xbdf12d0a	-0.11776169
12	0xbc42cea7	-0.01189009
13	0xbdcfe174	-0.10150424
14	0xbd96f8ac	-0.07371649
15	0xbe60ae8d	-0.21941586
16	0xbe07ff2b	-0.13280933
17	0x3d328e8a	0.043592967
18	0x3e285afd	0.1644096
19	0xbd57965f	-0.05263364
20	0x3dac7aa8	0.08421832
21	0xbd8b69a7	-0.06807261
22	0xbe1549e3	-0.14578967
23	0x3d30b83e	0.043144457
24	0xbda7e1a0	-0.081973314
25	0x3e28d673	0.16488056
26	0x3e276ade	0.1634936
27	0xbcc51879	-0.024059521
28	0xbe41f8b3	-0.18942527
29	0xbe15d1f8	-0.14630878
30	0x3e047ab1	0.12937428
31	0xbde338a4	-0.11094788
32	0x3d0b6bb7	0.03403827
33	0xbd915337	-0.0709595
34	0x3e00192f	0.12509607
35	0xbca3cec0	-0.019996047
36	0x3e392e20	0.18084002
37	0x3d0e5ee7	0.034758475
38	0xbd93e14b	-0.072207056
39	0xbd966040	-0.07342577
40	0xbdace3be	-0.08441876
41	0x3d9ccc9e	0.07656215
42	0xbe859f2e	-0.26098007
43	0x3dbd9c11	0.09258283
44	0x3d8ee256	0.06976764
45	0xbd0d665e	-0.034521453
46	0xbdc64892	-0.096818104
47	0x3c60b03b	0.013713892
48	0x3d6a06ca	0.05713538
49	0xbbbc0de7	-0.005738962
50	0x3e107e0b	0.14110582
51	0x3d82c49d	0.06385157
52	0x3e38d79a	0.18050995
53	0xbd6dce4b	-0.058058064
54	0x3de81341	0.113317974
55	0xbc95fdc2	-0.018309478
56	0x3d4ad293	0.049517225
57	0x3d412395	0.047153074
58	0x3d32126d	0.043474603
59	0xbb86eb0d	-0.0041173757
60	0x3e3338ab	0.17502086
61	0xbd94b87e	-0.072617516
62	0x3e5cde48	0.21569169
63	0x3d94e60e	0.07270442
64	0x3e38fccd	0.18065186
65	0x3e034460	0.12819052
66	0xbcb0a126	-0.021561217
67	0x3d69bf17	0.057067003
68	0xbe3e4eea	-0.18584791
69	0x3e3da943	0.185216
70	0x3d60f7ef	0.054923948
71	0xbdb5843b	-0.088631116
72	0x3be7d702	0.0070751915
73	0x3cca8a1d	0.02472406
74	0xbdb8d41b	-0.09024831
75	0xbe835c40	-0.2565632
76	0x3df9b628	0.12192947
77	0xbde9ec3a	-0.1142201
78	0xbd7ac461	-0.061222438
79	0xbe40544e	-0.1878216
80	0x3dd3a3af	0.103339545
81	0xbe9cc9ab	-0.3062261
82	0x3dea2f72	0.11434831
83	0xbe84f1bb	-0.25965676
84	0xbb85c74f	-0.0040825973
85	0xbd8f7269	-0.07004244
86	0xbd6ffae4	-0.058588877
87	0xbc4bb8ec	-0.0124342255
88	0xbd983104	-0.07431224
89	0xbdb93bdc	-0.090446204
90	0x3dfa7989	0.12230212
91	0x3e2ba425	0.16761835
92	0x3da4eb39	0.08052678
93	0x3de622b9	0.112370916
94	0xbe24af6d	-0.16082545
95	0x3e0c9ec7	0.13732444
96	0xbc893ac0	-0.016751647
97	0x3d8aa50a	0.0676976
98	0x3c5bdd7c	0.013419505
99	0x3d95690c	0.07295427
100	0x3d0c4229	0.034242783
101	0x3b8c0f56	0.004274289
102	0xbe1ac1d2	-0.15112999
103	0xbc5300a0	-0.012878567
104	0xbe2433f7	-0.16035448
105	0xbcab1fe8	-0.020889238
106	0x3e14c941	0.14529897
107	0xbce36e0b	-0.027762434
108	0x3ddf06f1	0.10889996
109	0x3e220e7e	0.15825841
110	0xbe743419	-0.23847999
111	0xbd97f56e	-0.07419859
112	0xbc91b3d9	-0.017785953
113	0x3da32d87	0.07967668
114	0xbcec4405	-0.028841028
115	0x3db2deb2	0.08733882
116	0x3dde91e4	0.1086767
117	0x3e440404	0.19142157
118	0xbde791b6	-0.11307089
119	0x3cd6855e	0.026186641
120	0xbea7772a	-0.32708102
121	0x3e51ab3f	0.20475481
122	0x3cdb229b	0.0267499
123	0x3db6c6b0	0.089246154
124	0xbe566d1d	-0.20940061
125	0x3dd2d278	0.1029405
126	0x3e955667	0.29167482
127	0x3e1af897	0.15133892
128	0xbadbf277	-0.0016780634
129	0x3d5326f2	0.051550813
130	0x3d35d085	0.044388313
131	0xbc77db7b	-0.015128012
132	0x3ca945c0	0.020663142
133	0x3e993876	0.2992589
134	0x3dd2fd6c	0.10302243
135	0x3d5caaed	0.053873945
136	0xbd8d9786	-0.069136664
137	0x3db39f07	0.087705664
138	0xbdf3eae8	-0.11910039
139	0x3d83900f	0.06423961
140	0x3c7e2646	0.015512055
141	0x3c05ae7c	0.008159276
142	0xbccb7cf6	-0.02483986
143	0x3d524904	0.051339164
144	0xbdaef8cc	-0.08543548
145	0x3dd1e2e6	0.102483556
146	0x3db89f9b	0.09014817
147	0x3e08860b	0.13332383
148	0x3d8c3127	0.068453126
149	0xbc025acf	-0.007956221
150	0xbdceb432	-0.10092963
151	0xbdabab62	-0.08382298
152	0xbbfa4026	-0.0076370416
153	0xbc58ac1c	-0.013224628
154	0x3df7bd21	0.1209662
155	0xbe5a7ecc	-0.21337432
156	0x3d8bd159	0.06827039
157	0x3c72b890	0.014814511
158	0xbd928ddc	-0.07155964
159	0xbdde4161	-0.10852314
160	0xbdddd8cc	-0.10832366
161	0xbcf78f97	-0.030219836
162	0xbdae0f90	-0.08499062
163	0x3d3ebcd8	0.046566814
164	0xbb8b2643	-0.0042465045
165	0xbd8aee35	-0.06783716
166	0xbe2c4e74	-0.16826802
167	0x3c95dea7	0.018294645
168	0x3d507e1a	0.05090151
169	0xbde05317	-0.10953348
170	0x3d9bbbea	0.07604201
171	0xbdad9562	-0.08475758
172	0x3d8b5484	0.068032295
173	0x3e9a4360	0.30129528
174	0x3c70343f	0.014660894
175	0xbe4773f8	-0.19477832
176	0x3e0a8de4	0.1353069
177	0x3d425363	0.047442805
178	0xbdad8272	-0.08472146
179	0xbc099de9	-0.008399465
180	0x3b3abb8b	0.0028493132
181	0xbd827fab	-0.06372007
182	0x3d036715	0.03208073
183	0x3e054ac4	0.13016802
184	0xbda9d7a2	-0.08293082
185	0xbe38c991	-0.18045641
186	0x3db71611	0.08939756
187	0x3d0c0b5c	0.03419052
188	0x3cb3eec0	0.02196443
189	0x3e2207b8	0.15823257
190	0x3e01b775	0.1266764
191	0x3db7030c	0.08936128
192	0xbd9e7036	-0.07736246
193	0xbe12b9fe	-0.14328763
194	0x3e074e6b	0.13213508
195	0x3df56c0b	0.11983498
196	0xbd48fa2b	-0.049066704
197	0xbd9d9379	-0.07694144
198	0xbd862c67	-0.06551438
199	0x3db38aac	0.08766684
200	0x3e04b4ca	0.1295959
201	0x3c329251	0.010899142
202	0xbe20fd30	-0.15721583
203	0xbd4d0849	-0.05005673
204	0xbe130e76	-0.14360985
205	0x3e2fe554	0.17177325
206	0x3ca0c507	0.0196252
207	0xbe4b93e1	-0.1988063
208	0xbd893530	-0.06699598
209	0x3e0a88cf	0.13528751
210	0xbc17602a	-0.009239236
211	0x3e2ac9e1	0.16678573
212	0xbced3f7a	-0.028960932
213	0x3dad4bac	0.08461699
214	0xbe25b01c	-0.16180462
215	0xbe2a5cc6	-0.16636953
216	0xbb16b8c9	-0.0022998324
217	0xbd598eb5	-0.05311461
218	0x3da5b7ca	0.080916956
219	0x3e0f7aaf	0.14011644
220	0xbd21a903	-0.039467823
221	0xbe239c5a	-0.15977612
222	0xbcc0e2cd	-0.023545647
223	0x3d28a21f	0.041170236
224	0x3db721f6	0.089420244
225	0xbd72e004	-0.05929567
226	0x3d85cd3d	0.06533287
227	0x3e1db1c2	0.1539984
228	0xbbfbfa76	-0.0076897694
229	0xbdf8cbc1	-0.12148238
230	0x3e556913	0.20840864
231	0xbe0fb2c5	-0.14033039
232	0x3daaa71f	0.08332657
233	0xbd0914a4	-0.03346695
234	0x3e4725cb	0.1944801
235	0xbd98a364	-0.07453039
236	0xbd44fd89	-0.048093352
237	0xbb1a3358	-0.0023529138
238	0x3e55d717	0.20882832
239	0x3e3c9a74	0.18418294
240	0x3dc199e7	0.09453183
241	0xbcb1bad1	-0.021695526
242	0xbe0e9ca3	-0.1392694
243	0x3e196ef3	0.1498373
244	0x3e548b8c	0.20756358
245	0xbd13dccc	-0.03609924
246	0xbe081daa	-0.13292566
247	0x3c434869	0.011919119
248	0x3cf91cd8	0.030409262
249	0xbd88add6	-0.066737816
250	0xbdfeb92b	-0.12437662
251	0x3db47974	0.08812228
252	0x3d4ab6aa	0.04949061
253	0xbd563edb	-0.052306037
254	0x3dbce727	0.09223776
255	0x3dce0550	0.10059607

network_body.linear_encoder.seq_layers.2.bias f4 [200]
0	0x3ca1452e	0.019686308
1	0x3c5d1ee9	0.013496139
2	0x3c704ad9	0.014666283
3	0x3c5f437c	0.013626929
4	0xbb05918b	-0.002038094
5	0x3ccaa6ec	0.024737798
6	0xbb85b447	-0.0040803286
7	0x3c748723	0.014924797
8	0x3b286ace	0.0025698426
9	0xbbedc8fa	-0.0072566243
10	0x3bb845ca	0.005623554
11	0x3c87b63f	0.016566394
12	0x3c8bf6a7	0.017085386
13	0x3cb7893f	0.022404311
14	0x3c626906	0.013818985
15	0x3c2f4478	0.010697477
16	0x3aca39b1	0.001542857
17	0x3ba3488a	0.0049830126
18	0x3c8bc3b1	0.017061086
19	0x3cb0d108	0.021584049
20	0x3c05e434	0.008172084
21	0x3aae64fb	0.0013305241
22	0x3ca0802b	0.019592365
23	0x3c9b03c9	0.018922703
24	0x3b8e4521	0.004341737
25	0x3c795a79	0.015219324
26	0x3ba5f5ed	0.005064717
27	0x3c7a72e9	0.015286186
28	0x3ca5ce64	0.020240016
29	0x3bab90b0	0.005235754
30	0x3b0cebba	0.0021502809
31	0x3c243aa7	0.010023749
32	0x3b11368d	0.002215776
33	0x3b55c106	0.0032616272
34	0x3c0130ab	0.0078851385
35	0xba075728	-0.00051628286
36	0x3c850264	0.016236492
37	0x3ac716cb	0.0015189288
38	0x3bcbc47f	0.0062184925
39	0x3aa244a1	0.0012380072
40	0x3c4740cc	0.012161445
41	0x3c635258	0.013874613
42	0x3ae38307	0.0017357775
43	0xbc3dc8f4	-0.0115835555
44	0x3c1c73ca	0.009549091
45	0xbb5f7dfc	-0.0034102192
46	0x3c29e11b	0.010368611
47	0x3b34226e	0.0027486342
48	0x3b3cca24	0.0028807009
49	0x3c11c7c1	0.008897723
50	0xbb675b5c	-0.0035302257
51	0x3bc8285c	0.006108327
52	0x3cf226ad	0.029559458
53	0x3cc00bdf	0.02344316
54	0xbaefa066	-0.0018282055
55	0x3b8929e1	0.0041859006
56	0x3c765202	0.015034201
57	0x3c0f1308	0.008732565
58	0x3bedef5f	0.0072612013
59	0x3c16dbc5	0.009207671
60	0x3c3edd2f	0.011649414
61	0x3cbf6c7c	0.023367159
62	0x3b8f27a1	0.004368738
63	0x3cd63b4c	0.026151322
64	0x3bf28290	0.007400818
65	0x392187cc	0.00015404745
66	0x38bc628f	8.9828965e-05
67	0x3c6c5708	0.014425047
68	0x3c84a102	0.016190056
69	0x3ccc1dcd	0.024916554
70	0x3c64674a	0.013940642
71	0x3b8ac45a	0.0042348327
72	0x3c13c82c	0.009019893
73	0xbd08ae52	-0.03336937
74	0x3c8e9140	0.017403245
75	0x3c60f598	0.013730429
76	0xb90ea0f4	-0.00013602135
77	0xbbba108c	-0.005678242
78	0xbaedf31f	-0.0018154121
79	0x3ba6120f	0.0050680707
80	0x3b999b43	0.004687698
81	0x3bf02960	0.007329151
82	0x3ca8dc98	0.020613
83	0x3c38f46f	0.011288746
84	0xba3f4ce7	-0.0007297531
85	0x3c99dc43	0.018781787
86	0x3caaf8a7	0.02087052
87	0x3c41e00a	0.0118332
88	0x3c55b245	0.013042991
89	0x3c7ea216	0.015541574
90	0x3c3e9fa0	0.011634737
91	0x3d0598bd	0.032616366
92	0xbb11de49	-0.0022257736
93	0x3c7e5ebc	0.015525516
94	0x3c55571a	0.013021255
95	0x3bef7bb4	0.0073084477
96	0x3c79f111	0.015255229
97	0x3922c29a	0.00015522019
98	0x3cd1c665	0.025607297
99	0x3c1e04d9	0.00964471
100	0x3c63a1cd	0.013893557
101	0x3bd079cf	0.006362177
102	0x3c2ac9c3	0.01042408
103	0xbc58a8c3	-0.01322383
104	0x3bd9202f	0.006626151
105	0x3c21a6b9	0.00986641
106	0x3c32714a	0.010891268
107	0x3c845202	0.016152386
108	0x3c12f40d	0.008969319
109	0x3c8b945b	0.017038515
110	0xbaaebdf8	-0.0013331762
111	0x3a2ae8ba	0.00065196643
112	0xbbc1fd18	-0.0059200637
113	0xbc892464	-0.016740985
114	0xba482a5d	-0.0007635707
115	0x3b502b30	0.0031764023
116	0x3bafbda6	0.005363184
117	0x3b9b1cae	0.0047336435
118	0x3c2f8295	0.0107122855
119	0xbc068739	-0.0082109505
120	0x3c81e41b	0.01585584
121	0xbb329efc	-0.0027255407
122	0x3c37c94e	0.011217428
123	0x39f6e949	0.00047094587
124	0x3c7e9a3a	0.0155397
125	0x3c1178f6	0.008878937
126	0x3bf9b0dd	0.0076199607
127	0xbc43146a	-0.011906723
128	0x3c08040a	0.008301744
129	0x3926965d	0.00015887008
130	0x3b4f2ff8	0.0031614285
131	0x3c27d248	0.010243006
132	0xb9f0460a	-0.0004582855
133	0x3c372037	0.011177114
134	0x3ba63f4f	0.005073465
135	0x3c90a594	0.017657079
136	0x3c463062	0.012096496
137	0x3cb0e450	0.021593243
138	0x3cd6bef2	0.026214097
139	0x3b83809e	0.004013135
140	0x3c8557a6	0.016277146
141	0x3c83485f	0.01602572
142	0xbaab769f	-0.0013081616
143	0x3b82963e	0.0039851954
144	0xbc178ea2	-0.009250315
145	0x3c2600ab	0.010131995
146	0x3c07b42d	0.008282703
147	0x3c33c9dc	0.01097342
148	0x3c4b40e3	0.012405607
149	0x3c361edc	0.011115756
150	0x3c5f252e	0.013619704
151	0x39c77fbe	0.00038051413
152	0x3b8d2a7b	0.0043080426
153	0x3ce46f69	0.027885156
154	0x3a9e078f	0.0012056696
155	0xbbd47128	-0.006483216
156	0x3c320868	0.010866262
157	0x3b0c290c	0.002138677
158	0x3c3237f1	0.010877595
159	0xbb4928d0	-0.0030694492
160	0x3c8d2544	0.017229684
161	0x3bfeb58e	0.007773108
162	0xbc02502b	-0.007953684
163	0x3ba8dc4a	0.0051532136
164	0x3b9c81e0	0.0047762245
165	0x3b789067	0.0037927867
166	0x3c459577	0.012059561
167	0x3b847114	0.0040418003
168	0x3b52815e	0.0032120566
169	0x3b84d19c	0.0040533077
170	0x3c31225f	0.010811417
171	0x3b882e60	0.004155919
172	0xba5b0fb4	-0.0008356527
173	0x3c391f84	0.011299018
174	0x3bfe5280	0.0077612996
175	0x3c118598	0.008881949
176	0x3cbf0311	0.023316892
177	0xbbfecb57	-0.007775705
178	0x3d18715b	0.03721748
179	0x39a202c4	0.00030901108
180	0xbb54e105	-0.0032482755
181	0x3c387dc6	0.0112604555
182	0xbb74cc0d	-0.003735307
183	0x3a51c34c	0.0008001819
184	0x3c315b63	0.010825011
185	0xb90e7b7a	-0.00013588174
186	0x3bb78e2a	0.005601664
187	0x3c10fae7	0.008848882
188	0x3c82e133	0.015976524
189	0x3c35efd8	0.0111045465
190	0x3b8c6bd9	0.0042853174
191	0x3c02dc13	0.00798704
192	0x3af63ebc	0.0018787007
193	0x3c9dbd5f	0.019255338
194	0x3c6ea0bf	0.014564692
195	0x3bdcceaa	0.0067385035
196	0x3c144eed	0.0090520205
197	0x3be89f03	0.007099034
198	0x3d102ab5	0.03519698
199	0x3c7f0c11	0.015566842

network_body.linear_encoder.seq_layers.2.weight f4 [200, 200]
0	0x3d29439e	0.04132425
1	0xbd2ac50f	-0.041691836
2	0xbcee9303	-0.029122835
3	0x3d5190a7	0.05116334
4	0x3e149774	0.145109
5	0x3cbbd92f	0.02293071
6	0xbd90850e	-0.07056628
7	0x3d786336	0.06064149
8	0xbd17e6f9	-0.037085507
9	0x3deebf25	0.11657552
10	0xbbe30211	-0.0069277366
11	0x3d4af31a	0.049548246
12	0x3bdf6535	0.0068174847
13	0x3c83083d	0.01599514
14	0x3daa38e9	0.08311636
15	0x3d89a447	0.067207865
16	0x3ddfd3ca	0.109290674
17	0xbdc33e27	-0.09533339
18	0x3d34bfa6	0.044128083
19	0xbdd3e7bc	-0.10346934
20	0xbe035547	-0.128255
21	0x3c925c34	0.017866232
22	0x3cb74cd1	0.022375496
23	0x3daca176	0.08429234
24	0xbdabc176	-0.08386509
25	0xbd9aa84d	-0.07551632
26	0xbc1f8eec	-0.009738665
27	0x3d41bbd5	0.04729827
28	0xbddb7096	-0.107148334
29	0xbc24551b	-0.010030056
30	0xbe2488b8	-0.16067779
31	0x3d6a7ee0	0.057249904
32	0x3d81195f	0.06303667
33	0xbd417b3e	-0.047236674
34	0x3ba7e7f6	0.0051240874
35	0xbbd58464	-0.0065160263
36	0x3ca30522	0.019899908
37	0x3cca0e4b	0.024665019
38	0x3d837e0c	0.06420526
39	0x3d296d48	0.041363984
40	0x3ca704a3	0.020387953
41	0xbb4e7a51	-0.0031506012
42	0xbdbbb00b	-0.09164437
43	0xbd759c2d	-0.059963394
44	0x3d1883c7	0.037235048
45	0xbd9a2a6f	-0.07527625
46	0xbcf048c3	-0.02933157
47	0x3e0ece23	0.13945822
48	0xbdbf4875	-0.09339992
49	0x3c0319ff	0.008001803
50	0xbd93035e	-0.071783766
51	0x3c25e2b3	0.01012485
52	0x3d0fab9a	0.03507576
53	0xbc41169f	-0.011785178
54	0xbd84e606	-0.06489186
55	0x3d1ec6b8	0.03876373
56	0xbdc57547	-0.096415095
57	0xbd01e89a	-0.031715967
58	0x3c612519	0.013741755
59	0x3e44f650	0.19234586
60	0x3ca5e268	0.02024956
61	0xbd8a7a3f	-0.06761598
62	0x3dc49e1a	0.09600468
63	0xbde83257	-0.113377266
64	0xbd4582b3	-0.048220348
65	0xbdb56b10	-0.08858311
66	0xbc654c8d	-0.013995302
67	0x3c1adf76	0.009452691
68	0x3d4394f9	0.047749493
69	0x3d38d9d5	0.045129616
70	0xbd2b2902	-0.041787155
71	0x3e0f4ac3	0.13993363
72	0x3d6c76bf	0.057730433
73	0x3d276b6d	0.040873934
74	0xbdafc784	-0.085829765
75	0x3d8ebbeb	0.06969436
76	0xbd8da72d	-0.06916652
77	0xbc2426fb	-0.010019059
78	0x3e3a396e	0.1818597
79	0xbdac1bcf	-0.084037416
80	0xbd06dcb9	-0.03292534
81	0x3da5d198	0.080966175
82	0xbda347c9	-0.07972676
83	0xbdab681d	-0.083694674
84	0xbc219736	-0.009862712
85	0x3d3f018a	0.046632327
86	0x3dc35a31	0.09538687
87	0x3d834ba5	0.064109124
88	0xbd404548	-0.04694107
89	0x3dd85737	0.1056351
90	0xbe01c558	-0.12672937
91	0x3d476408	0.04867938
92	0xbdcacf73	-0.09902849
93	0xbd4db3d0	-0.05022031
94	0xbd0d12de	-0.03444182
95	0xbe11000c	-0.14160174
96	0xbcc5b107	-0.024132265
97	0xbe05fcf2	-0.13084772
98	0x3e097b49	0.13425936
99	0x3d29660e	0.041357093
100	0xbc7235ff	-0.0147833815
101	0x3d6cad98	0.05778274
102	0xbd837bb8	-0.06420082
103	0xbd0e856a	-0.034795202
104	0xbd848227	-0.06470137
105	0xbb4ddae8	-0.0031410996
106	0xbe640ea4	-0.2227121
107	0x3d9b2088	0.07574564
108	0xbe17b471	-0.14814927
109	0xbd34b5ec	-0.044118807
110	0x3d64770a	0.055777587
111	0x3c7679a0	0.015043646
112	0xbcff3a9c	-0.031155877
113	0xbd3a6f4b	-0.045516293
114	0x3d69c63b	0.057073813
115	0x3dd70e5c	0.10500786
116	0x3d8519c0	0.06499052
117	0x3c41374b	0.011792968
118	0xbc5ba673	-0.013406384
119	0xbdaabe13	-0.08337035
120	0x3bfbf2f5	0.007688875
121	0x3d2213d2	0.039569683
122	0xbe0c130d	-0.13679142
123	0x3cd703a4	0.026246853
124	0x3dc97737	0.098371916
125	0x3d9af1ba	0.07565637
126	0xbd7b1a0f	-0.06130415
127	0x3cae28a9	0.021259623
128	0x3de6e563	0.11274221
129	0xbd6c9db6	-0.057767592
130	0xbc68b1cf	-0.014202549
131	0x3da9d374	0.082922846
132	0x3e1d72d2	0.15375832
133	0xbce4f79e	-0.027950104
134	0xbca5decb	-0.020247838
135	0x3d25dbca	0.04049281
136	0x3d5e23c2	0.05423332
137	0x3c052f4e	0.008128954
138	0xbde1a0a6	-0.110169694
139	0x3d1b59e2	0.037927516
140	0xbd62951a	-0.055317976
141	0x3c39da6a	0.011343578
142	0x3c8d2cb2	0.017233226
143	0xbcea0629	-0.02856739
144	0xbe078eea	-0.13238111
145	0xbe118c0e	-0.14213583
146	0x3b765beb	0.0037591408
147	0xbe127b1d	-0.14304776
148	0xbcd1e924	-0.025623865
149	0xbc90b1ac	-0.017662846
150	0xbce66d89	-0.028128402
151	0xbc699a08	-0.014257915
152	0x3d8fdb81	0.07024289
153	0xbdf94cb9	-0.12172837
154	0x3c3f4861	0.011674971
155	0xbdbbbf56	-0.09167354
156	0x3dc68744	0.096937686
157	0x3c01ec80	0.007929921
158	0xbcd10d30	-0.025518984
159	0x3da426e5	0.08015231
160	0x3d883622	0.0665095
161	0x3b8c5a31	0.0042832126
162	0xbdc05e10	-0.09392941
163	0xbd347224	-0.044054165
164	0x3cd411e0	0.02588743
165	0xbb7e22d4	-0.0038778083
166	0x3cbb2304	0.022843845
167	0xbd56edf3	-0.05247302
168	0xbcf70b17	-0.030156655
169	0xbd1e3ebe	-0.038634054
170	0x3d0740b8	0.033020705
171	0x3de8aa16	0.11360566
172	0xbd4479fa	-0.04796789
173	0xbd58d433	-0.052936744
174	0xbc9b7aff	-0.018979548
175	0xbdde360a	-0.10850151
176	0x3bea28ab	0.0071459613
177	0x3d826875	0.0636758
178	0xbe4f500d	-0.2024538
179	0x3cc0c895	0.023533145
180	0xbcd33911	-0.025784047
181	0xbe18cb3f	-0.14921282
182	0x3c727d77	0.014800421
183	0xbddf3454	-0.10898653
184	0x3dc93b6e	0.098257884
185	0xbd956392	-0.07294382
186	0xbac197bd	-0.0014769953
187	0x3d2f001e	0.04272472
188	0x3d87d186	0.0663176
189	0x3b3c7e2d	0.002876173
190	0xbd836575	-0.06415836
191	0xbe0e8bb0	-0.13920474
192	0xbb6009ae	-0.0034185457
193	0xbe1e4622	-0.15456441
194	0xbd2b954d	-0.04189043
195	0x3bcc7610	0.00623966
196	0xbe018b5e	-0.1265082
197	0x3cb55d17	0.022139115
198	0xbd6ae911	-0.057351176
199	0x3db65ea6	0.089047715
200	0xbcc085f5	-0.023501376
201	0xbdb074c4	-0.08616021
202	0xbd244380	-0.040103436
203	0x3d292bb2	0.041301437
204	0x3d47c05e	0.04876744
205	0x3c418b37	0.011812977
206	0x3d8dab25	0.06917409
207	0x3d29667b	0.0413575
208	0x3d266e61	0.04063261
209	0x3ae9cba4	0.0017837179
210	0x3d3bcd59	0.04585013
211	0x3d2f592f	0.04280966
212	0x3d9e264e	0.0772215
213	0x3a300f88	0.00067161815
214	0x3e035b73	0.12827854
215	0xbc1721df	-0.009224384
216	0xbc2947ac	-0.010332029
217	0xbd8c3764	-0.068465024
218	0x3daacfd4	0.08340421
219	0xbd36a290	-0.044588625
220	0xbd9d44aa	-0.07679112
221	0x3c77a23b	0.015114362
222	0x3d4fbedc	0.050719127
223	0x3e28d239	0.16486444
224	0xbe31b37a	-0.17353621
225	0xbc9cc98e	-0.019139078
226	0x3cb992b5	0.022652963
227	0x3d5e0eef	0.05421346
228	0xbd0ac6e2	-0.033881076
229	0x3d9c9bef	0.076469295
230	0x3c00bbac	0.007857244
231	0xbd00cb04	-0.03144361
232	0x3e0e94f5	0.1392401
233	0x3c65f33d	0.014035043
234	0xbd411636	-0.047140323
235	0x3c83e7d8	0.016101763
236	0x3d75da07	0.06002238
237	0x3e34e177	0.17664133
238	0xbd15032f	-0.03637999
239	0xbb98f367	-0.0046676877
240	0x3ca63623	0.020289486
241	0x3d56e52a	0.05246464
242	0x3bc7cdea	0.006097545
243	0x3d115671	0.035482828
244	0xbe04e408	-0.12977612
245	0xbd7ba408	-0.06143573
246	0x3de23a1f	0.11046242
247	0x3bd57bc9	0.0065150005
248	0x3dbecf55	0.09316889
249	0xbc03a7d3	-0.008035618
250	0x3d43267b	0.04764412
251	0x3ddc7138	0.10763782
252	0x3ce4a2da	0.027909685
253	0x3d852948	0.065020144
254	0xbcbcc204	-0.023041733
255	0x3c7fe9b6	0.015619686
