Assets/Networks/self1/AgentRapidBlue.onnx (onnx, 238908 bytes, 9 tensors)

action_model._continuous_distribution.log_sigma f4 [1, 3]
00000000: 1c6d f1bb 8499 f3bc bff5 85bd
-0.007367743 -0.029736288 -0.06541013

action_model._continuous_distribution.mu.bias f4 [3]
00000000: c35b 8e3c 3357 4f3b d864 1abb
0.01737774 0.0031637668 -0.0023558643

action_model._continuous_distribution.mu.weight f4 [3, 200]
00000000: 5127 ca3c c0ba 063d 804d d13b 002c 803c
00000010: a95b bc39 458e 3a3c 4378 1c3d fe6e d93b
00000020: 2af0 b13a bdf8 8c3c e3ec 08bd 0de9 173b
00000030: d9fb f0bc 04ac c7bc bf8d e9bb 0c47 6d3c
00000040: 439f 123c a30a 55bc 39cb 4a3c ad0b 6d3d
00000050: 53d3 95bc c284 413a dcf2 f63b 4e03 3cbc
00000060: fe57 2abd c4c2 93bb a052 febc db55 58bc
00000070: 7d1b 29bb f89f adbc 0005 aabc 14fe 063d
00000080: 4fd2 3f3c 217c 50bd 70a6 0b3d cd46 27bb
00000090: 293f 6e3c e0db c7bc 0ad3 733c 27cb dc3b
000000a0: bf4f e8bc 1787 a8bb bb98 6c3a 390b f63b
000000b0: 52bb 93bc 086f c5bc e448 1a3d a02a dbbb
000000c0: e09e 9d3c c388 d539 c23a bcbc d8bd f33c
000000d0: 7e04 7fbd 2eed c0bc 9f14 e3bc 9889 de3c
000000e0: f23c c23c d311 a6ba b06c b63c c59a 343c
000000f0: 95d1 fdbc 0e20 2f3c 747a 393d 64b3 643c
00000100: 967d 05bc ffba 11bd 03d2 85bc d5d2 81ba
00000110: 5bdf a0bc 87e9 3c3c 56d4 a63c 6a95 323b
00000120: 615d 423c f525 eb3a 2da7 83bb df27 36bd
00000130: d093 8abb 520e abba 6339 18bc 0018 f6bc
00000140: 1dc2 8ebb 078c 013b 751d 853c 9772 ca3c
00000150: 59a9 003d 420a 2cbc dd44 2a3c 85cf 053c
00000160: 38e8 fb3b 07f7 c63b 3235 a037 0c02 403c
00000170: 1a8f 3d3c f969 2ebc 93d8 023c ad4d 513c
00000180: a850 f1bb 53d1 183c d7b7 9fbc 4a71 223b
00000190: fc6a 3b3b 7ae6 39bc e2a5 173c 39ef 983c
000001a0: 86bc 1c3c 6d19 c6bb 519a a03c d181 88bc
000001b0: b02f 84bc a3f0 55bc 99a7 52bb 5b33 db3b
000001c0: 007d 39bc cf7a a2bc e4bd 223c d1b0 053d
000001d0: 822b bebc b243 173c d3cd c6bc 4f28 12bd
000001e0: 3619 373c 12f6 a23c 9dd7 15bd 25e2 323c
000001f0: 1684 e33c 35cf 26bb 071e 9e3b 1012 00bd
00000200: 1328 f4bb f768 5e3c f8a3 83bb 3f64 bb3c
00000210: 6bd3 ea3a fb91 f33b 5eeb 9e3b fed2 993c
00000220: 6f41 a0bc ced6 443c 8367 c53c a1d8 b23c
00000230: 9de7 56bc 9fae 963b 66ee 41bc c4ca 07bc
00000240: 5141 e43b cbf4 ec3c 9476 2a3d 1af3 8ebb
00000250: a0fd 463c f56b 433c 8409 9b3b 9076 6ebc
00000260: 5806 193b 73af 91bb dd32 003d 1721 723c
00000270: f275 acbb 42f0 303d f2f7 473b 3977 4b3b
00000280: d4c2 e5bc 481b 0f3b 386e 323c f1aa b33a
00000290: 2aed 3abc f50d 20bc d6ee d83c 85f3 aabc
000002a0: 4e3e 883c 4a0d 7ebc e3c5 07bc 6709 57bb
000002b0: 57c7 fa3c 4675 f23b 8a53 48bb a0ba c63c
000002c0: 6ca5 ce3c f826 a43a e7f5 89bc 3ef4 04bd
000002d0: 5d0b d2ba 2feb cc3c a1ad c0bc 1af5 483c
000002e0: 083d 2d3c e6bb d2bb 068c 26bd b90e 87bc
000002f0: 8201 a73c 4853 7cbc e107 f3ba 5d97 20bc
00000300: d670 2e3d 58e3 863c 3c6d 69bc 699b c23c
00000310: f1be ceb9 a946 643b e79f 99bb 1707 2b3c
00000320: 7138 893d c192 c83c 777b 9c3b 41b8 d73c
00000330: 677e 353d 1d53 d63a cb67 8abb c947 f33c
00000340: 28ea 163c 4ab0 013d 961c c0bc fa18 dc3c
00000350: 7646 52bc ef3c a53c 63f8 c4bc e2a0 923b
00000360: c066 05bd 6e73 10bc 3719 4dbc 9693 a33c
00000370: acc3 b03c 676f 6fbc 6585 2abc bef4 353c
00000380: 529b c83c 6955 f2b9 070e e93a e9fc f8bb
00000390: 06aa 1a3d 235a 93ba 4c00 e93b c6ef ee3b
000003a0: cc84 b6bc 7d69 0dba a206 febb a4ad 5dbb
000003b0: 943c 6cbc 2ad4 cbbc 25ef 0fbc e15a d03b
000003c0: 5610 143d 85f7 6ebc 8e58 afbc 9762 2ebd
000003d0: 39a7 b7bc dc19 953b f522 273d 309f b63c
000003e0: 8f58 823c 3406 33bc 3e35 b3bc 9d20 2c3c
000003f0: f96a 7a3c 39a5 bcbc 97e6 8fbc a8ea dc3b
0.02467695 0.032892942 0.0063874125 0.01564598 0.00035926446 0.011386459 0.038200628 0.0066355458
0.0013575603 0.017208451 -0.033429038 0.002317968 -0.029416965 -0.024374016 -0.007127493 0.014482271
0.008949104 -0.013003024 0.012377554 0.057872463 -0.018289244 0.0007382148 0.0075362753 -0.011475397
-0.041587822 -0.004509302 -0.031045258 -0.013204063 -0.0025803738 -0.021194443 -0.020754337 0.03295715
0.011707856 -0.05089963 0.034094274 -0.0025524378 0.014541426 -0.024396837 0.014881859 0.006738085
-0.028358338 -0.005143057 0.0009025444 0.007508662 -0.018033657 -0.024100795 0.03766717 -0.006688431
0.019240797 0.0004072842 -0.022977237 0.02975361 -0.062260143 -0.023550596 -0.027719794 0.02716522
0.023710702 -0.0012670107 0.022268623 0.011023228 -0.030983726 0.010688795 0.045282796 0.013958786
-0.008147618 -0.035578724 -0.016335493 -0.0009904752 -0.019637754 0.011530287 0.020364922 0.0027249702
0.011863084 0.0017940389 -0.0040177316 -0.044471618 -0.0042290464 -0.0013050532 -0.009291026 -0.030040741
-0.004356636 0.00197673 0.016249398 0.024712844 0.031411503 -0.0105004925 0.010392395 0.008167152
0.0076875947 0.0060719284 1.9098257e-05 0.011719238 0.011569763 -0.010645383 0.007986206 0.012774867
-0.0073643513 0.0093272505 -0.019496841 0.0024786764 0.0028597703 -0.011346454 0.009255858 0.018668758
0.009566432 -0.0060455115 0.019604834 -0.016663464 -0.01613602 -0.013057861 -0.0032143353 0.0066894717
-0.011321306 -0.01983395 0.009932969 0.03263933 -0.023214106 0.009232448 -0.024268067 -0.035682973
0.011175444 0.019892726 -0.036582578 0.010918175 0.027772944 -0.0025453095 0.004825357 -0.031267226
-0.0074510663 0.01357483 -0.0040173493 0.02287495 0.0017915791 0.0074331737 0.0048498353 0.018777367
-0.019562451 0.012014104 0.02409721 0.021831812 -0.013116744 0.004598453 -0.011836624 -0.008288089
0.006965794 0.02892532 0.04161699 -0.004362476 0.01214543 0.011927594 0.004731359 -0.014554635
0.0023349728 -0.004445964 0.031298507 0.014778397 -0.0052630836 0.043197878 0.0030512777 0.0031046404
-0.028047003 0.002183633 0.010890536 0.0013707561 -0.011409083 -0.009768953 0.026481073 -0.020868072
0.016631272 -0.015506098 -0.008286926 -0.0032812 0.03061263 0.007399234 -0.0030567371 0.024258912
0.025225364 0.0012523821 -0.016840888 -0.03245949 -0.0016025115 0.025014488 -0.023520293 0.012265468
0.010573633 -0.0064310906 -0.04066088 -0.016486512 0.020386461 -0.015400715 -0.0018541777 -0.009801713
0.042588077 0.016465828 -0.014247235 0.023755746 -0.00039433644 0.0034832156 -0.0046882513 0.010438702
0.067002185 0.02448404 0.0047754603 0.026332976 0.04431 0.0016351674 -0.004223799 0.029697316
0.009211101 0.031662263 -0.02345113 0.026867379 -0.012834182 0.020170657 -0.024044221 0.004474745
-0.032568693 -0.008816583 -0.012518219 0.019967835 0.021577679 -0.014613963 -0.01040778 0.011105714
0.024488125 -0.00046221472 0.001778067 -0.0075985086 0.037759803 -0.0011242073 0.007110631 0.007291767
-0.02228012 -0.0005394442 -0.0077522555 -0.0033825422 -0.01441874 -0.024881441 -0.008785044 0.00635849
0.03614839 -0.01458538 -0.02140453 -0.04257449 -0.022418605 0.004550202 0.040804822 0.022292703
0.015911369 -0.010926772 -0.021875974 0.0105058225 0.015284293 -0.023028003 -0.017566008 0.0067418404

action_model._discrete_distribution.branches.0.bias f4 [2]
00000000: 84bb 603c 87bb 60bc
0.013716582 -0.013716585

action_model._discrete_distribution.branches.0.weight f4 [2, 200]
00000000: d911 ab3c 0d70 3fb9 3b61 a23b 65bb 62bc
00000010: 8fb9 b8bb f568 8abc b9fe 8c3c 3fa4 093b
00000020: 9a6b 683b be7d 88bc 0636 28bc 1a05 2abc
00000030: 4fab f2bb 93ec 6bbb 9ec7 25bc f86f ee3b
00000040: 4541 9dbc 0b47 e6bb d746 c73c dccc c93c
00000050: c47b ec3c 314e c8bb 7f4d 50bc d604 33bc
00000060: d0a3 ddbc 37f2 04bc 1826 0abc 4c43 4fbc
00000070: af94 25bc 8dbc c03b d74f 4a3c 3fde a43c
00000080: e2ae 2cbc 612e f1bc bc92 9b3c e8d8 7e3c
00000090: f7bd 613b 161c 17bc 95e1 a8b9 23e8 a23b
000000a0: 925c 93bc 17a6 9a3c ed39 abbc 8cf8 9fbb
000000b0: 3714 f73c 8539 3c3a b4fd b53c d723 16bd
000000c0: 0254 91ba 319c 6a3c da47 143c 0ef7 f13c
000000d0: 0651 20bc 1578 463b acba b8bc f5fe c2bc
000000e0: 2bee e53c c13e 2bbb 4eae b93c 0acb ef3c
000000f0: 82b8 8e3c 461f e13b 6bc8 273b 0eb5 213c
00000100: 35fb bc3a a4e5 07bd e3b4 503c 05b4 bb3b
00000110: 6a42 e9bc bf1f e5ba eb82 b03b 1630 20bc
00000120: bda5 043c 69c0 033b 1487 42bc 43f5 51bc
00000130: b795 1dbb 326b 77bc c1e0 5ebb f712 37bc
00000140: f115 82bc 7ff7 e43b 1192 2e3a 8951 893b
00000150: 981f af3c 2e7d 6abc 4d54 3bbb d5a6 363d
00000160: 6267 fc3b 45ad 51bc 4324 0c3c dd07 e33a
00000170: fdb1 913c 49e9 a13b fb3e 84bc f749 73bb
00000180: 8094 fcbb 009f 8c3b 0e5f 8c3c f467 9abc
00000190: cb11 21bc 2a9b 27bc bd47 623b 7166 cd3b
000001a0: 8dde ef3b c8ee 54bb 88bf 97b9 6646 2b3b
000001b0: 58f6 ed3b 3fb0 463a a926 9d3b 8402 263d
000001c0: 48d0 e13b 34ff 903a 95d4 01bc a69b d03c
000001d0: 60c7 61bc e4a3 95bb 0fe8 063c 1eb9 c93c
000001e0: 5785 1eb9 bd88 f13c 1089 85bb 3538 f53c
000001f0: 374e 063c 1991 49bc 5a1a 9c3b db4a c2bc
00000200: dfa8 a83c 4c56 a6bb 860d bbbc acf0 aa3c
00000210: 169b 9dbc 7d30 013d 184b 463c 3ef2 823c
00000220: fd31 a5bc 57b8 0e3d 6f5b 843b 095a 7d3b
00000230: 0958 f7bb bf29 f03b 1a4a 1bbd 689e e0bb
00000240: f633 b13c f4df d73a 66c4 023d 4aa0 0fbc
00000250: 3fb2 adbb a245 27bc afbb 3bbc afc9 08bc
00000260: 8ce0 aebb a4ca 18ba fa8f ca3b 16ea 2fbc
00000270: 0f9b d1ba 653a 1a3d 42fd 63bb a982 29bc
00000280: da8e de3b 3e38 093b 83a8 a1bb 242d a9bc
00000290: 1228 a2bc ed7a 12bb d5ff 22b9 96a0 37bc
000002a0: 20d9 b1ba 9e79 75bc 1940 7d3a 3e93 153c
000002b0: 6687 c6bb 7f32 5e39 9040 f13b 1593 be3c
000002c0: 5242 d9bb c3ef 6fbb 3284 13bc 9af8 f23b
000002d0: 2601 e9ba f2ce 763c d5de 15bd e1e9 ca3b
000002e0: f188 903c 2d2a 853b d40f c1bc 5d0f b63b
000002f0: 9718 0aba 169e 1c3c 96a6 63bb 44d1 2639
00000300: a02d 3e3d 1f9d fcbb 561d 863b f914 0ebc
00000310: d8a7 28bc 508c 07bc 22a3 bd3b d33f 4c3c
00000320: 06a6 b8bc 9f41 0bbc f13a b53b 39e9 683b
00000330: 21a4 013c e3b0 863c e604 c5bc 6cd4 fab8
00000340: 76fe 8f3b f025 973c 2503 823c 5dd7 8ebb
00000350: 1156 abba 7957 d5bb dfba 313c 7119 82bb
00000360: a634 5a3c 67c9 6e3b 3ff4 b8bc 534a e9bc
00000370: 62a3 f8bc 4d1e 1fbc 485f a03b 131c 503c
00000380: d316 683c e237 183c 3ba6 863c 0060 d0bb
00000390: 6333 1a3c 4fb3 cfbb 3161 863b 1251 acbc
000003a0: 7b20 da3b 0e5f 593c b21b b0bc f881 d53b
000003b0: effa 1dbc 902e db3c b10c d1bb cc45 af3b
000003c0: 1a5a d93c 1745 4dbc 80d0 9e3c fb6c bf3b
000003d0: 4842 0dbc f70c 13bc 3b84 19bc 7399 213d
000003e0: b1a3 81bb 6636 773b b77b ddbc 0a38 0abd
000003f0: c225 d83b 7501 423b d65c 2a3d 4c8d 4c3b
0.020882534 -0.00018256922 0.0049554384 -0.013838624 -0.0056373547 -0.01689575 0.017211305 0.002100244
0.0035464526 -0.016661521 -0.010266786 -0.010377193 -0.0074056755 -0.0035999164 -0.010118393 0.0072765313
-0.019196162 -0.007027512 0.024325771 0.024633817 0.02886761 -0.0061128368 -0.012713789 -0.010926446
-0.027055651 -0.008114389 -0.008431934 -0.012650322 -0.01010625 0.005881852 0.012348137 0.020125506
-0.010539742 -0.02944106 0.018990867 0.015554644 0.0034445503 -0.009223005 -0.0003221153 0.0049715205
-0.017988477 0.018878026 -0.020901645 -0.004881924 0.030161006 0.0007180202 0.022215702 -0.036655273
-0.0011087658 0.0143194655 0.009050334 0.02953675 -0.0097849425 0.0030283977 -0.02254995 -0.023803214
0.028067669 -0.0026129934 0.022666123 0.029271621 0.017421965 0.006870183 0.0025601636 0.009869827
0.0014418127 -0.033177987 0.012738439 0.005728247 -0.028474052 -0.0017480775 0.0053867004 -0.00977709
0.008096156 0.00201037 -0.011873025 -0.012814823 -0.0024045536 -0.015101241 -0.0034008475 -0.011173955
-0.015879603 0.0069875116 0.0006659339 0.004190628 0.02137737 -0.014312072 -0.0028584183 0.044592697
0.007702754 -0.012797658 0.008553567 0.0017321069 0.017785067 0.00494114 -0.016143313 -0.0037122944
-0.0077081323 0.004291415 0.01713517 -0.018848397 -0.009830902 -0.010229865 0.0034527623 0.0062683155
0.0073202313 -0.0032490958 -0.00028943666 0.002613449 0.0072620325 0.00075793633 0.0047958684 0.040529743
0.006891284 0.0011062385 -0.007924219 0.025464844 -0.013780445 -0.0045666564 0.008234038 0.024624404
-0.00015117727 0.029484147 -0.004075177 0.029934028 0.008197359 -0.01230266 0.0047638835 -0.023717334
0.020588337 -0.0050762054 -0.022833597 0.020866714 -0.01923899 0.031540383 0.012102865 0.01598465
-0.020165438 0.03484377 0.00403922 0.0038658401 -0.0075483364 0.0073291953 -0.037912466 -0.006854821
0.021631222 0.0016469941 0.03192558 -0.008766243 -0.0053007896 -0.010209473 -0.0114583215 -0.008348866
-0.0053368267 -0.00058285356 0.006181714 -0.010736963 -0.0015991646 0.037653346 -0.0034788405 -0.010346093
0.0067919316 0.0020938064 -0.0049334182 -0.020651408 -0.019794498 -0.0022351102 -0.00015544829 -0.01120772
-0.0013568737 -0.014982609 0.00096607354 0.009129344 -0.006058621 0.00021190381 0.007362433 0.023263494
-0.0066302205 -0.0036611415 -0.009003686 0.0074148895 -0.0017776832 0.015063988 -0.036589462 0.0061924313
0.017643424 0.0040638656 -0.023567118 0.0055560307 -0.00052679464 0.009559175 -0.0034736744 0.00015908951
0.04643023 -0.00770916 0.0040928526 -0.008671992 -0.010293923 -0.008273199 0.005787269 0.012466389
-0.022540104 -0.008499532 0.005530708 0.0035539402 0.007912667 0.016441768 -0.024050187 -0.000119604956
0.004394348 0.018450707 0.01587064 -0.0043591694 -0.0013071914 -0.0065106717 0.010847776 -0.003970318
0.013318216 0.0036435963 -0.022577403 -0.028477823 -0.030351344 -0.009711814 0.004894171 0.012702006
0.014165598 0.009290667 0.016436687 -0.0063591003 0.009411666 -0.006338514 0.0041009416 -0.021034751
0.006656704 0.013267292 -0.021497581 0.0065157376 -0.009642347 0.026755601 -0.0063796868 0.0053488966
0.026532222 -0.012528679 0.01938653 0.005841849 -0.00862176 -0.008975259 -0.009369905 0.03945298
-0.003956281 0.0037721633 -0.02703653 -0.03374485 0.006596298 0.002960292 0.04159244 0.003121215

network_body.linear_encoder.seq_layers.0.bias f4 [200]
00000000: bbf2 f23c 8751 c23c eeb3 6e3c e61d 043c
00000010: 32d6 d8bc 4b74 8d3b 2456 143c d57a fb3c
00000020: 019a c53c 2644 fd3c 43e6 773c b970 633b
00000030: b614 c03c 51df 7d3c c507 3fbc a255 b83c
00000040: 4c80 853c 280e 8f3c 5e93 0d3c 3f21 933c
00000050: 796e e33b dba5 8abc bbd8 933c 8d8a 503b
00000060: 4724 95bc 9642 ea3c 6edb 3fbb 419f 033b
00000070: d1ec d03c 9723 a739 9846 adba 8de4 f838
00000080: fb4a 9c3b 16db d13c 21af 9a3b 6046 3c3c
00000090: f4de 113d cb07 9bbb 4653 96bc 2d3b 7dba
000000a0: 24de bcba 1164 31bc 7a06 983c e7f6 f83c
000000b0: 6d07 393c c908 e5ba 3344 c93c 7e7f 39bc
000000c0: b1ef d1bb 028c dcbc b22c 9a3c af23 bb3c
000000d0: 10e5 443c c054 2bbc 7b40 ef3c 61cb 10bc
000000e0: e5a4 393c d893 ed3a 77c4 48bc 45d8 d9bb
000000f0: e9ae e8b9 e1d1 8c3c 390c 273d 911a 033b
00000100: 1257 083c 7f87 48ba cea4 353c 9110 20bc
00000110: 1eda 5d3c 223e 9e3b 4285 c4bb 55af 5ebc
00000120: 92dd 623c ecec 6f3c 8717 943a d57c c43c
00000130: 9839 d63a d5b3 2f3c c7a8 bd3c 2eb7 de3c
00000140: 89fe 493c 52c1 6ebb cf77 eb3b 8ab8 cd3c
00000150: c86a fe3c e2df d73b a014 aa3b 1224 d93c
00000160: 5296 8cbc 540a a03c 5772 163c 4a19 33bc
00000170: bf8c 0bbc c683 e7b8 59de 94bb ffb3 61bb
00000180: f510 2a3c b9ab 03bc 2ca8 b939 f533 a23b
00000190: 6e47 c43b 84f0 a43b 3ab6 a8bb fedf 5cbb
000001a0: 0b0e a33b 80ab bb3c 9510 24bb ce81 61bb
000001b0: de35 113c b1c4 ba3c 4b7a e3ba b2a2 9d3c
000001c0: 67ac 263c a515 503c 389d a4bc 6e19 c339
000001d0: e3e2 d8bb a460 8e3c 590f 7abb 7ae8 2f3c
000001e0: 139c 1f3d e075 b93c d750 b2bc 90cb 1eb9
000001f0: 8a70 3cbc db0d 373c 9295 f93b 1156 bf3c
00000200: aaae 9fbb 5a52 a63c 6ace 63bc 284f 0cbb
00000210: dffa 0e3c db7c 5cbc 6ca4 3d3c 97ca f73c
00000220: 0d5f 9a3c 6a06 3e3c b34a 193a 1754 5d3c
00000230: aaea 243b 8753 a93c f5dd ddbb c53a 873c
00000240: 6d5e af3c 0d5d 853c 2d2b 903c ed50 0a3d
00000250: cd97 983c 8ce5 2a3b ba8e c13c 5685 e23c
00000260: 6616 aa3c 6e8c 3c3b 44b3 883b 50b6 d93c
00000270: 6f17 8b3c b878 213d 1fff 463c e04d 08bc
00000280: d294 13ba 49e7 5dbc 4ae2 75bc 1e98 0dbc
00000290: e802 7b3c d1c8 a13c 42a4 053d 9393 49bb
000002a0: 7cf5 a63b 4ff2 c8ba 21ad 0d3d 917a fab9
000002b0: bc9c 2e3d 72a4 e3bb 8a01 a8ba 564f 1ebb
000002c0: 2a88 1cbc 4c62 313c 0dd2 ef3c 9921 9e3a
000002d0: 4584 533c 3419 433c d724 73bc b703 793b
000002e0: 87ef 013c 6575 843c 6053 7d3c 8e45 3dbc
000002f0: ccb6 1dbb 4e36 883c f4ab d23c efa6 8a3b
00000300: eb90 0a3c 7d9f 463c 6524 653c f887 c33c
00000310: 2c0c 2dbc e067 1fbb a03c 313c 7012 ca3c
0.029656759 0.023720516 0.014569266 0.008063769 -0.026469324 0.0043168417 0.009053741 0.03069822
0.024121286 0.030916285 0.015130582 0.003470464 0.023447376 0.015495137 -0.011659567 0.02250177
0.016296528 0.017462805 0.008641092 0.017960189 0.0069406596 -0.01692479 0.018047681 0.0031820864
-0.018205775 0.028596204 -0.0029275077 0.0020083936 0.025503548 0.0003187924 -0.0013219891 0.000118681324
0.0047696806 0.025617164 0.004720584 0.011491388 0.035613015 -0.0047311536 -0.018350255 -0.0009660002
-0.0014409465 -0.01082708 0.018557776 0.03039117 0.011293274 -0.0017473932 0.024568653 -0.0113219
-0.0064067473 -0.02692223 0.01882014 0.022844164 0.012017503 -0.010457218 0.029205551 -0.008837552
0.011330818 0.0018125726 -0.012253872 -0.006648096 -0.00044380807 0.017189922 0.04078314 0.0020004848
0.00832154 -0.0007649585 0.011086656 -0.009769575 0.013540773 0.004829184 -0.005997331 -0.013591607
0.013846772 0.014643889 0.0011298516 0.023985306 0.0016344069 0.010724028 0.023151768 0.027186956
0.012328752 -0.0036431146 0.007185913 0.02511241 0.031056777 0.006587968 0.005190447 0.026506457
-0.017161522 0.019536175 0.009182534 -0.010931322 -0.008517443 -0.00011039483 -0.0045431075 -0.0034439561
0.010380019 -0.008036547 0.00035411248 0.0049500414 0.0059899604 0.0050335545 -0.005148676 -0.0033702846
0.0049760393 0.022908926 -0.0025034298 -0.0034409645 0.008862941 0.022798868 -0.0017355172 0.019242618
0.01017294 0.012700473 -0.020094499 0.00037212245 -0.006618844 0.017380066 -0.003815612 0.010736579
0.038967203 0.022639215 -0.021767063 -0.00015143887 -0.011501441 0.011172737 0.007616707 0.02335647
-0.0048731165 0.02030294 -0.013904193 -0.0021409485 0.0087268045 -0.013457502 0.011574846 0.03024797
0.018844152 0.011598209 0.0005847618 0.013508818 0.0025164285 0.020669712 -0.006770844 0.016507516
0.02140733 0.016279722 0.017598713 0.033768583 0.018627072 0.0026076762 0.023627628 0.02765147
0.020762634 0.0028770226 0.0041717608 0.026576191 0.016978947 0.039421767 0.012145787 -0.008319348
-0.0005629781 -0.013543912 -0.015007565 -0.008642225 0.015320517 0.019749077 0.03262735 -0.0030758127
0.005095182 -0.0015331003 0.034588937 -0.00047775035 0.042629942 -0.0069470936 -0.0012817841 -0.0024156175
-0.009553948 0.010826658 0.029274965 0.0012064456 0.0129099535 0.011907864 -0.014840326 0.00379966
0.007930643 0.01616926 0.015461773 -0.011552228 -0.0024065254 0.016627457 0.02571676 0.004231326
0.008457403 0.012122986 0.013985728 0.023868546 -0.010561984 -0.002432339 0.010817677 0.024666995

network_body.linear_encoder.seq_layers.0.weight f4 [200, 88]
00000000: fa67 afbc 89b5 863d 6f07 ad3c 512a 2ebe
00000010: 6fbb a0bd cbbd cbbd 7d2b 203e a092 88bd
00000020: 39a9 4c3d 87fa 84bc eb81 0fbd d4e8 2dbd
00000030: 1918 e53c 0d69 a33d ae1d b3bd a784 02bc
00000040: 1f70 913c 48ef d63d e19f 0f3e b575 9f3d
00000050: 4202 0c3c 0d15 b9bd 26b7 283d 2278 d33d
00000060: fc67 3d3e b868 2c3d 9ef1 36b9 f26d 573b
00000070: 3f70 6bbd 0917 ac3c 17eb 7fbd 8df0 cdbb
00000080: ecc9 6cbd a235 473d ac5f 1e3e e328 c4bd
00000090: 64e0 c23d d896 583d 9cac 54bd a4bd c7bd
000000a0: 2a6c d1bd d6ed 193e 1c13 7cbd 6de3 4ebe
000000b0: 640b ea3d 7fc7 21be b860 fe3d f34e b43d
000000c0: 8821 9b3c 0298 8e3b a20a 223e b781 233e
000000d0: c21d e43c 3b4a 0c3d c91a 863d 8ab4 363c
000000e0: aa2f 84bd 0a10 49be 23e2 11bd f0d0 993d
000000f0: 8117 cdbd 785c 2c3d 9ba0 b6bd 009c 383e
00000100: 2c24 1a3d 8172 c83d c538 0a3e 1ee7 a43d
00000110: dea4 b13d 6b67 6bbe 98bd 0ebb b853 7f3d
00000120: 44a3 b43d b02c 463c f86c 8a3e e395 bfbd
00000130: aeb2 a0b7 1352 c63d 9968 093d 2382 5bbd
00000140: 07b6 07be b4be 9abd 3ec5 f3bd 7782 9e3b
00000150: 276f 1abb 1c62 023e 4fd8 a2bd e39a 723d
00000160: 32ce 65bd 38d3 96bd 5c02 febd 6b40 6f3c
00000170: dc2c 93bc 337d f73d 4dd2 333e 449c eebd
00000180: 763b 413e bb88 203c 2680 29be a246 e2bc
00000190: 4afb 9c3d 71c7 213d 677f 94bd 3375 003c
000001a0: a526 92bc 18c6 573d 6ab1 2a3e 5b5d c23d
000001b0: 0aa0 93bd 228b bdbd 0b2e 1c3e d801 c53d
000001c0: af29 2d3d de22 313e ab27 e9bd 0c7a 8fbd
000001d0: 2e97 623d 9dcb 96bc 0947 0a3e 92a0 85bd
000001e0: 0eb8 9ebd 1ac6 753e 5bdf bc3d cd31 e13d
000001f0: a794 8f3d c7ad 013e 7881 6b3c 9c97 cf3d
00000200: 64f2 693e 0b55 6abd 9cac dbbd cf40 6abd
00000210: b464 373e 5cf7 4cbd a299 dd3d d2b9 123e
00000220: 5901 abbd 0de8 633d 3492 0fbe 8756 5e3e
00000230: ac68 843d 0ad7 ee3d 76f0 6ebd 8f20 54bd
00000240: d592 3a3d c50b bbbd eb18 02be 82e3 0a3e
00000250: 75fd 833d 5da6 4b3c d741 a6bd e916 053e
00000260: 7915 f23c 487d 37bd d76f af3d 687a c7bd
00000270: 80c9 243e 1e7f 0abe e92a bc3d 3109 033e
00000280: d998 d23d d2b3 5c3e 9d19 93bd f163 043e
00000290: 4e0f b83c 5a00 783d e4bb 803d c838 873d
000002a0: c8b3 b3ba 64d5 f7bd 85cc 043e f7e9 da3d
000002b0: dc03 213e 1b02 44be 0e88 c7bd 9a68 69be
000002c0: 0499 5abe c82e 013e 05bf 13be 58ec 303d
000002d0: 387a 1fbc 758e 6cbd d6d6 d7bd 8f06 ba3c
000002e0: 640f 25be 7f75 04be abec 39bc a5fe e5bd
000002f0: d198 fd3d 44b9 0bbc 3726 10bd 4c11 5bbe
00000300: 8060 26be ac8d 9d3c 8b6b 29be 5b2c 68bd
00000310: 47d0 18bd adc7 573d f89b fc3c 4dbf 99bd
00000320: 2c4b 3abc 2c3f 73bd ec85 373e bc08 b3bd
00000330: 3be9 ce3c ec42 573e bcc6 843c e5a8 8d3d
00000340: 3994 1dbe 9bc6 843e 3970 b43c 6d58 f0bc
00000350: b2b7 973d 0175 f4bd 91ef 833d ef50 c43d
00000360: a904 86bd 2bfb 3d3e b03f 5c3d ab6b 963d
00000370: ef84 20be 64ee 873d 247d 3f3e 5c53 303c
00000380: d126 3dbe 706e d73b 10b3 41be f944 e73c
00000390: a76b 703b fda4 1abd 5aeb 04bd 361b 4f3d
000003a0: 917a 30bd 50d9 44bd db0f 36bd c21e 263e
000003b0: 70e6 ae3d 277c 393c 5678 c53b f425 2a3e
000003c0: 4981 853d 20e4 1c3e add0 243e 4293 8abc
000003d0: c2c6 133c f50c 07be ff83 debc 0f32 3f3d
000003e0: 2399 5f3c 8d48 e03c 8ebc 823d 1965 f73d
000003f0: 17af 083e a32a b23d 8d46 52bc 3485 b23d
-0.021411885 0.06577594 0.021121709 -0.1700833 -0.0784825 -0.099483095 0.1564159 -0.066685915
0.04996607 -0.016232742 -0.03503601 -0.04245837 0.027965592 0.07979021 -0.08745895 -0.007966197
0.017753659 0.10494858 0.14025833 0.07786123 0.00854546 -0.09037218 0.04119029 0.10325648
0.18496698 0.042092055 -0.00017446882 0.003287193 -0.057480093 0.021007078 -0.06248006 -0.0062847794
-0.057809755 0.048635133 0.15466183 -0.09578111 0.09515455 0.05287823 -0.051922426 -0.09752968
-0.10225709 0.15032133 -0.06154166 -0.20203944 0.11427954 -0.15798758 0.124207914 0.08804121
0.018936887 0.004351617 0.15824369 0.15967451 0.02784622 0.03425048 0.065480776 0.011151442
-0.06454404 -0.19635025 -0.03561605 0.07510555 -0.10014249 0.042080373 -0.08917352 0.1802826
0.037632152 0.09787465 0.13498218 0.080518946 0.08674024 -0.2298867 -0.0021780487 0.0623357
0.08820203 0.012095615 0.27036262 -0.093547605 -1.915669e-05 0.09683623 0.033547018 -0.053590905
-0.13253032 -0.07555905 -0.11902855 0.00483733 -0.0023564787 0.12732738 -0.07951414 0.059229743
-0.056104846 -0.073645055 -0.12402794 0.014602761 -0.017965727 0.12084427 0.17560692 -0.11650899
0.18870339 0.009798224 -0.16552791 -0.027621571 0.07665117 0.039496843 -0.072508626 0.0078404425
-0.017840693 0.05267915 0.1666924 0.094904624 -0.072082594 -0.09255053 0.15251939 0.09619492
0.04227608 0.17298457 -0.11384519 -0.070057005 0.055319957 -0.018407637 0.1350366 -0.06524767
-0.077499494 0.24001351 0.09222289 0.10995827 0.07010775 0.12663947 0.0143741295 0.10136339
0.22846371 -0.05721001 -0.10726282 -0.057190713 0.17909509 -0.050040588 0.10820319 0.14328697
-0.083498664 0.055641223 -0.14020616 0.21712695 0.06465277 0.11662109 -0.05833479 -0.051788863
0.045550186 -0.09133104 -0.12704818 0.1356335 0.064448275 0.012429801 -0.08118027 0.12997021
0.029551255 -0.044797212 0.08566254 -0.09740144 0.16092491 -0.13525054 0.09187872 0.12796475
0.102830596 0.21552971 -0.0718262 0.1292875 0.022468235 0.06054721 0.06285837 0.06602627
-0.0013710195 -0.12101248 0.12968643 0.106891565 0.15724128 -0.19141428 -0.09742747 -0.22793809
-0.21347433 0.12615502 -0.14428337 0.043194145 -0.009733729 -0.057753045 -0.105390236 0.022708206
-0.16119152 -0.12935446 -0.01134793 -0.1123021 0.12382663 -0.0085280575 -0.035192695 -0.21393317
-0.1624775 0.019232593 -0.1654493 -0.056682926 -0.037308004 0.05268066 0.03083609 -0.07507191
-0.011370461 -0.059386417 0.17922181 -0.087419 0.025257697 0.21021622 0.016208045 0.0691698
-0.15388574 0.25932774 0.022026168 -0.02933904 0.07408084 -0.11936379 0.06442178 0.09585749
-0.065438576 0.18552844 0.053771675 0.07344755 -0.1567571 0.06637266 0.18700081 0.010762062
-0.18471839 0.0065744445 -0.18915963 0.02823113 0.003668526 -0.037755 -0.03245101 0.05056306
-0.04308564 -0.048058808 -0.044448715 0.1622267 0.08540046 0.011321104 0.006026308 0.1661604
0.065188 0.15321398 0.16095228 -0.016915921 0.0090195555 -0.13188536 -0.02716255 0.0466786
0.0136473505 0.027378345 0.0638362 0.1207983 0.13348041 0.086995386 -0.012834203 0.08716813

network_body.linear_encoder.seq_layers.2.bias f4 [200]
00000000: f2e5 b53c e130 a03c bba3 cd3b 5fd9 c23c
00000010: 5e18 9c3c db53 6a3c b1cc 633c 1381 863c
00000020: d349 b03c 861f 5f3c e8bb 0aba 9025 083c
00000030: d52f c03c dff0 9abc 2dae 3e3c 3afb 623c
00000040: dfaf 8c3c 8b44 84bc 8cc4 f43b a08c bc3c
00000050: c0a0 32bb cbd6 aa3c fd61 e03b 5ca1 0c3c
00000060: 521f 1b3c 213d 83bc c840 16bc fc7d 14bc
00000070: e22e 8a3c 54a0 a4bb 7019 24bc 8836 543c
00000080: ef3a 933c 6bb8 e6bb 1c0f cd3c d7d5 6a3c
00000090: 7d01 313c 0d0d 66bb 8f30 103c c137 de3b
000000a0: b0e8 e43b d000 5c3c c397 e0bb b6b1 823c
000000b0: a8e5 113d 7e66 fdbb a117 a33c f005 f5bb
000000c0: 7baa 1b3c 240b b73b c2c0 95bb 55fe 993c
000000d0: 8fb7 72bc 8723 8bbb 0995 6b3b 0463 b53b
000000e0: 0243 b03c c465 cd3b 3efa c43c 16a6 973c
000000f0: 1d44 af3c 0478 203c 1a3d 823c 661f 1f3c
00000100: 8ff8 b13c 68d5 fc3b fe3f 3bbc 71c3 8d3c
00000110: 7b36 bf3c 824b 513c 9f45 0a3c 5fca 4fbb
00000120: 3dc4 333c 89c8 593c 1ea3 04bc fc2f 923c
00000130: 4186 41bc f638 0dbb 17d7 b83b 1fab 7fbc
00000140: 287e 97bb 693a 903c 2f53 8e3c ee89 343c
00000150: 4ab7 a03c 26a0 1b3b 9ccd f03b b536 873c
00000160: 337e 573c 9930 693a 0693 753c fe79 343c
00000170: cf5d c53c 56f3 ac3c b60b b93b 6b4e 0d3c
00000180: bf9c f7ba e151 893c b69b a23b fccf 89bb
00000190: f55b 5b3c ed39 32bb 47dd 503c d04c 9a3c
000001a0: 2b22 cb3b dc42 db3b 3e2d 9d3c 1685 1fbc
000001b0: d630 0ebc 9a14 3a3c 8b9f 05ba 6b7f 453c
000001c0: ee04 043c 6d26 efba f58a 66ba 8d59 913c
000001d0: b691 7bbb 910d 813c 9b88 61bc f1cc a2bb
000001e0: 20a3 d43b 5520 523c 4818 d6bb b624 7f3c
000001f0: 34a8 8f3c b036 623c dfb1 693c 92f8 3ebb
00000200: 435a 3ebb 9f83 1f3c 0f9b 693c 3c8b a33c
00000210: 942f b1b8 bdf7 693c 98a9 743c 002b df3b
00000220: 51cb 04bc 448c c53c 61aa 1d3c eb05 7b3c
00000230: 29f0 033c 6d01 ca3b 9f0d b73a 1f9d 093d
00000240: 0cf6 403c f182 483c 6081 bf3c 1d85 47bc
00000250: 19f7 f33b 06bd 223c 954c 763c 483f babb
00000260: cd88 203b dd56 e23b a611 4f3c 7bc1 3c3c
00000270: d9e3 62bc eb92 973c 2c8c 893c 4798 a63c
00000280: 269e c23b 6a5a c73b 6715 1b3c f332 b0bb
00000290: cb06 a93c 49e3 a8bb 9e12 6f3c 167e ba3a
000002a0: 64cf 733c 4880 5dbb 0ca6 e1bb 10ff 943c
000002b0: 1d26 463c 6c2f e23c 7ff2 0c3c 204a 303c
000002c0: e88e 393c c020 a93c 0a65 343c 389e 69bc
000002d0: 41e7 403c 651a df3c 4fed 12bc 4303 863c
000002e0: aa5a e93c 95a3 bd3c b29f 4f3c 1580 943b
000002f0: b9f0 5d3c a9e9 b23c 1eda 443c 4a3b 8bba
00000300: 4b1e 003d 851c 473c 8455 353c 2238 273c
00000310: a5e5 82bb 3340 cd3b b18d bbbb ddbe 9d3c
0.022204373 0.019554557 0.0062756217 0.023785291 0.019054588 0.014302219 0.013903783 0.01641897
0.021519577 0.013618356 -0.00052922824 0.008309737 0.023460308 -0.018913684 0.011638206 0.013853842
0.017173706 -0.016145965 0.0074697193 0.023016274 -0.002725646 0.020854374 0.0068476186 0.008583393
0.009467917 -0.01602036 -0.0091707185 -0.00906324 0.016868059 -0.0050239954 -0.01001583 0.012952454
0.017972438 -0.0070410273 0.025031619 0.01433321 0.0108035775 -0.0035102994 0.00880064 0.0067815487
0.0069857463 0.013427928 -0.006854029 0.01595388 0.035619408 -0.0077331653 0.019908728 -0.0074775144
0.009501095 0.005586045 -0.0045700977 0.018798033 -0.014814272 -0.0042461785 0.0035946986 0.005535485
0.021516327 0.006268235 0.024045106 0.018511813 0.021394784 0.009794239 0.015898276 0.009712076
0.021724967 0.0077158697 -0.011428831 0.017305108 0.023341408 0.01277435 0.0084394505 -0.0031706316
0.01097208 0.01329244 -0.008095531 0.017845146 -0.011811794 -0.0021548844 0.005640875 -0.015604763
-0.0046231933 0.017605977 0.01737365 0.011019213 0.019618649 0.002374658 0.0073487293 0.016505579
0.013152647 0.0008895486 0.014988666 0.011015413 0.024092583 0.021112125 0.005647148 0.008624653
-0.0018891318 0.016762676 0.00496241 -0.004205702 0.0133886235 -0.002719517 0.012748069 0.018835455
0.0061991415 0.00669132 0.019186612 -0.00973632 -0.008678636 0.011357451 -0.0005097321 0.012054305
0.008057816 -0.0018245705 -0.000879451 0.017742896 -0.003838641 0.01575354 -0.013765479 -0.0049682786
0.0064891726 0.012825091 -0.0065336563 0.015572717 0.01753626 0.013806984 0.014263599 -0.0029139859
-0.00290455 0.009735971 0.01425816 0.019963853 -8.44888e-05 0.014280257 0.014933012 0.006810546
-0.008105115 0.024114735 0.009623141 0.015321235 0.008052864 0.0061647207 0.0013965851 0.033597108
0.011777412 0.01223825 0.02337712 -0.012177733 0.007445228 0.009932762 0.015032907 -0.0056838132
0.0024495602 0.0069073276 0.012638485 0.011520739 -0.013848268 0.018502673 0.016790472 0.020336283
0.005939263 0.0060837762 0.009465552 -0.0053771674 0.020633122 -0.0051540476 0.014591841 0.001422825
0.014880989 -0.0033798385 -0.0068862494 0.01818803 0.012094048 0.027610503 0.008602737 0.01075986
0.011325575 0.0206455 0.011010418 -0.014258914 0.011773885 0.027234266 -0.008967712 0.016358977
0.028485615 0.023149291 0.012672352 0.00453187 0.013546162 0.021839933 0.012014894 -0.0010622528
0.03127889 0.012152796 0.011067752 0.010206254 -0.003994661 0.0062637567 -0.005723678 0.01925605

network_body.linear_encoder.seq_layers.2.weight f4 [200, 200]
00000000: 7b0d 273d 9cde a1bd 0358 0fbe 0530 cbbd
00000010: 7c4d ef3d a5d8 5b3d d763 71bd 9fd2 cabc
00000020: 84c9 763d daea 25bd d102 1b3d 2909 24be
00000030: 24dc a43c 7ab3 c03b 8488 c53c bd0f 743d
00000040: af08 8e38 320b 85bc 62a0 07be 855f 17be
00000050: c53f 87bd c10d eb3c 474e ebbd b029 d0bc
00000060: b688 333c da0a 143d 24f1 a4bd 605e 5c3d
00000070: c480 d73d d193 cbbd 00a5 d9bd a70d b0bd
00000080: 43f8 653d 8405 463e 75ac 683c 2793 e2bd
00000090: 3d73 a0bd b782 d5bd daa7 36bd d842 a7bb
000000a0: 78ea 09bd 7bc8 a83c ed13 34bc 406b a6bd
000000b0: 1e10 323e 2d31 bc3c 4f08 c43d 536f 733d
000000c0: 6e16 89bd f357 b9bd ffe8 8cbd 0129 bebc
000000d0: 405f 03be 5f83 d3bd 229b 4c3d 3099 753c
000000e0: 2e17 9f3d 6b20 683d 8017 a03d abd0 b2bb
000000f0: b25f 3f3d c384 0f3d 00e0 de3d e210 2d3d
00000100: 93fc a93d b0e6 8ebc 9a7a 2dbd dfde bd3d
00000110: 82d0 f03a 39cf df3d 1855 8cbd 6d74 9b3b
00000120: 8079 af3d 37f8 2a3c 2275 243d 9041 27bd
00000130: d01a bbbd 8b9e f6bc 4832 d0bd 43c4 133c
00000140: 80c2 b83d ca56 22be 4139 823d c528 763d
00000150: 9679 9c3d cb0f b23c c765 633d 2a60 ba3c
00000160: 7f75 b7bd 88d9 243e 4a8e fdbd c030 9fbd
00000170: daf0 9fbd 7632 44bc c64d f3bd d0bb 483d
00000180: 5d80 a9bb 4781 c93c 5be5 163e 0407 d83b
00000190: ae23 d53d 8059 00be 3562 36bb 9aa3 f1bd
000001a0: 9c96 87bd 509e 8c3c 33e1 803d cb9c b5bd
000001b0: 1314 1f3e 6b22 bebd c8f5 44bd c0b9 96bd
000001c0: fd90 003d 181f 4b3e a180 1e3d c53d 29bd
000001d0: 4115 14be ece3 c7bc fe83 89bc 4042 a2bd
000001e0: 07cc 513d d6db 07bd c532 70bc 66da 0c3d
000001f0: 0500 f8bd 0bb5 70bc 35d3 2d3c 0d39 413d
00000200: bd12 213d f4fa ed3d caea b43d 2ea6 4bbd
00000210: e24a 95bc 35c9 4dbe 7297 afba edc7 0d3c
00000220: 223c 863d 6bfc b43c a37d efbd a9a3 363c
00000230: 3d03 fc3c 3945 013d 8abd 943d ee07 423d
00000240: 8e9f 823d 6972 ccbc 416b 36bc 6506 fb3d
00000250: 3900 8abc 4a90 53bd 30a0 b5bc ddd1 e83c
00000260: c15f 043e a0a4 f7bd 6e04 3f3c 6d8b 51bd
00000270: 495e 1bbd 19d6 bd3d bd57 d5bd e604 dfbd
00000280: a91e 5dbd 79c7 1f3c 88bd 563d 6576 55bd
00000290: 4767 82bd 0f97 cfbd 567a 083d 7f48 9f3d
000002a0: f07d 77bd 1321 2e3d f93b b23d e3e2 92bd
000002b0: b10c ba3c d8f9 c2bd 7cd2 873d bf72 e3bd
000002c0: 89ff eebc 308c 8a3b 8b59 9d3d 685e e23c
000002d0: c8ca 243d db03 063d a7ef c1bc 8bf6 14be
000002e0: 05da c7bc 9168 c73c 69ef a73c 3906 8d3c
000002f0: 7d42 a2bd 0a7b 5abd a971 12bd b8fc fabb
00000300: ee49 85bd c7cb 9cbd 8500 083e ea7e 273e
00000310: d41c 263c 076e 81bc 4601 803c b413 b1bd
00000320: 8e20 b7bc 1e64 4bbc 4f43 b7bd 8b51 32bd
00000330: 9d04 c5bb 1f05 b23d 4150 903c 6f82 39bd
00000340: 43df a53d 2ded 0d3d 7fa4 1b3c 4691 44bd
00000350: d4ae c13a 22c3 f23d e6eb b9bc 59c9 da3c
00000360: 899b a6bd 015e 8d3b 7e04 5bbd eebd 99ba
00000370: 1804 be3c 5b01 0cbe 8463 7abc 192d 63bd
00000380: be67 ebbc f5bb c33b b355 e23d 2462 d8bd
00000390: 69b7 483d 5399 22be 85ed 8cbd d2a5 2c3d
000003a0: 7f01 9dbd 2bd7 153e 29a3 c43c f0b8 323b
000003b0: 755c c0bb 4856 813d 7de8 0c3d a0e2 18bd
000003c0: 6090 073d af44 bcbd 8120 1bbd 93ee 01bc
000003d0: ac38 103c 56a5 733d 1c01 65bd 7834 a8bd
000003e0: b792 a9bd 23f9 f8bd 47fb 91bd e104 1e3e
000003f0: 2194 613c bedd 0d3d fcf3 593d 3113 9abc
0.04078434 -0.079037875 -0.13998418 -0.099212684 0.11684701 0.053673405 -0.058933105 -0.024758635
0.060250774 -0.040507175 0.037844483 -0.1601912 0.020124502 0.0058807703 0.024112947 0.05958532
6.772705e-05 -0.01624069 -0.13244775 -0.14782532 -0.0660396 0.028693082 -0.114895396 -0.025410503
0.010957887 0.03614316 -0.080538064 0.05380094 0.10522607 -0.09940303 -0.106271744 -0.08596354
0.056144964 0.19338042 0.014201273 -0.11063223 -0.0783448 -0.104253225 -0.04459367 -0.005104404
-0.033670872 0.020603409 -0.010991079 -0.08125925 0.1738896 0.022972668 0.09571897 0.05943234
-0.06693731 -0.09049978 -0.06880378 -0.023212912 -0.12829304 -0.103277914 0.049952634 0.014990136
0.07768093 0.05667154 0.07816982 -0.005457004 0.04672212 0.03503872 0.10882568 0.04225243
0.08300128 -0.017443985 -0.04235325 0.09271025 0.0018372687 0.109281965 -0.06852168 0.0047441036
0.08568096 0.010435156 0.04015077 -0.04083401 -0.091359735 -0.030104896 -0.101658404 0.00901896
0.09021473 -0.1585342 0.063585766 0.060097475 0.07640378 0.021736046 0.055516984 0.022750933
-0.089579575 0.16098607 -0.12380655 -0.0777297 -0.07809611 -0.011974921 -0.118800685 0.049007237
-0.005172773 0.024597777 0.1473593 0.006592633 0.10407196 -0.12534142 -0.0027829532 -0.11798783
-0.06620523 0.017165333 0.06292953 -0.088677965 0.15535001 -0.092839085 -0.048085958 -0.07359648
0.03138827 0.1983608 0.03869689 -0.041318674 -0.14461233 -0.024400674 -0.016786572 -0.079227924
0.051219966 -0.033168636 -0.014660542 0.03438797 -0.12109379 -0.0146916015 0.010609438 0.04717355
0.03932451 0.11620131 0.08833845 -0.04971903 -0.018224183 -0.20096286 -0.0013396575 0.008653623
0.06554438 0.022093019 -0.11693885 0.011147418 0.030763263 0.031560156 0.07262714 0.047370844
0.06378089 -0.024956899 -0.01113397 0.12257079 -0.01684581 -0.051651277 -0.02217111 0.028420383
0.12927152 -0.120919466 0.011658771 -0.051158357 -0.037931714 0.092693515 -0.104171254 -0.10889606
-0.053984318 0.009752148 0.052426845 -0.052114863 -0.06367355 -0.10136234 0.033319794 0.077774994
-0.060422838 0.04251201 0.08702845 -0.071721815 0.02271113 -0.0952031 0.066319436 -0.111058705
-0.029174583 0.0042281374 0.076830946 0.027632907 0.04023245 0.03271852 -0.023673845 -0.14547174
-0.024395952 0.024341853 0.020499902 0.017214881 -0.07922838 -0.053339995 -0.035752926 -0.007659521
-0.065082416 -0.07656055 0.13281448 0.16357008 0.010138709 -0.015799535 0.015625607 -0.08646336
-0.02235439 -0.0124140065 -0.08948385 -0.043534797 -0.006012513 0.08692383 0.017616393 -0.045290407
0.080992244 0.034650017 0.009499668 -0.047990106 0.0014776834 0.11853625 -0.022695493 0.026707338
-0.08135135 0.0043141847 -0.05347108 -0.0011729577 0.023195311 -0.13672392 -0.015282515 -0.05546293
-0.028735992 0.005973334 0.11051502 -0.10565594 0.04900304 -0.15878801 -0.06881241 0.042150326
-0.07666301 0.14632861 0.024003582 0.0027270876 -0.0058703967 0.06315285 0.034401406 -0.0373255
0.03309667 -0.09192788 -0.037872795 -0.007930416 0.008802574 0.05948385 -0.05590926 -0.082131326
-0.08279937 -0.12156894 -0.071280055 0.15431549 0.013768227 0.034635298 0.053211197 -0.01880798
