Assets/Networks/self1/AgentHulkGreen.onnx (onnx, 238908 bytes, 9 tensors)

action_model._continuous_distribution.log_sigma f4 [1, 3]
0	0xbd276d37	-0.04087564
1	0xbd55766e	-0.052114896
2	0xbd642d4a	-0.055707254

action_model._continuous_distribution.mu.bias f4 [3]
0	0x3c2c224b	0.010506223
1	0xbc879b0a	-0.01655342
2	0xbb515720	-0.00319428

action_model._continuous_distribution.mu.weight f4 [3, 200]
0	0x3c59fba5	0.013304626
1	0xbd36ae76	-0.044599973
2	0x3c8f0fd1	0.017463597
3	0xbc56180b	-0.013067256
4	0x3c0f44b6	0.008744409
5	0xbbc8f89a	-0.0061331512
6	0xbc915f91	-0.017745765
7	0xbc7009dc	-0.014650788
8	0x3ae8a328	0.001774882
9	0x3c616287	0.013756401
10	0xbd0f81d4	-0.035035923
11	0x3d6d3087	0.057907607
12	0x3b959d4d	0.004565871
13	0xbbdac700	-0.0066765547
14	0xbcba98bc	-0.022777908
15	0xbbd67f83	-0.0065459623
16	0xbcf83271	-0.03029749
17	0xbcbe30f3	-0.0232167
18	0x3c2fbc36	0.010726025
19	0x3d5184f1	0.051152173
20	0xbcc348e8	-0.023838475
21	0x3c53a3a4	0.012917433
22	0xbd1c4a0b	-0.03815655
23	0xbbfa294a	-0.0076343166
24	0x3c96254b	0.01832833
25	0x3d26c8bd	0.040718783
26	0xb98b4b01	-0.00026568028
27	0x3d12a189	0.035798583
28	0xbcb3f7b0	-0.021968693
29	0xbb42120c	-0.0029612808
30	0x3c52d9d7	0.01286932
31	0xbd1c025b	-0.038088184
32	0x3c0d0d1f	0.008609085
33	0xbc4be0f5	-0.012443771
34	0xbca91b65	-0.020642946
35	0x3c448143	0.011993709
36	0x3ccb81de	0.024842199
37	0xbc8e3ead	-0.01736387
38	0x3bb7465f	0.0055931057
39	0xbd21e003	-0.039520275
40	0xbcb904b0	-0.022585243
41	0xbd180632	-0.037115283
42	0x3c095218	0.008381389
43	0x3c2c3bb1	0.010512278
44	0xbc596f26	-0.013271129
45	0x3b656987	0.0035005526
46	0xbc825880	-0.01591134
47	0xbb52db2d	-0.0032174096
48	0x3b08f4d6	0.0020897887
49	0xbd4ff3ab	-0.05076949
50	0xbca0f7b1	-0.019649358
51	0x3ca1c1a9	0.019745665
52	0x3d892f23	0.06698444
53	0xbd52cda3	-0.05146564
54	0x3cef4a13	0.029210126
55	0x3bda072e	0.006653688
56	0xbcade114	-0.02122549
57	0xbc9ca91c	-0.019123606
58	0xbb510f5f	-0.003190003
59	0xbc892b62	-0.01674432
60	0x3c2416af	0.010015174
61	0xbb98bd38	-0.0046612285
62	0x3cf67c54	0.030088581
63	0xbbcd9be5	-0.0062746876
64	0x3b85f325	0.004087823
65	0x3b59de05	0.0033243906
66	0xbc16b6d7	-0.009198866
67	0x3c2bd3d2	0.010487514
68	0xbbdcbd23	-0.006736414
69	0xbd4b27a8	-0.049598366
70	0xbcaa5ff3	-0.020797705
71	0x3c7247d1	0.01478763
72	0x3c94b26b	0.018151483
73	0x3cb7e53d	0.022448177
74	0xbc672c35	-0.014109661
75	0x3b49c145	0.0030785364
76	0x3ca53adb	0.020169666
77	0xbd76c1b4	-0.060243323
78	0xbb368651	-0.0027851055
79	0xbd05d474	-0.032673314
80	0x3ce599ed	0.0280275
81	0x3bea6be0	0.007153973
82	0xbc465d03	-0.012107137
83	0xb9ee510e	-0.00045455288
84	0x3b55405e	0.0032539587
85	0xbbf43b8a	-0.0074533867
86	0xba0ed296	-0.000544825
87	0xba447105	-0.0007493648
88	0x3d241b82	0.040065296
89	0xbc317a06	-0.010832315
90	0xbb49fdee	-0.003082152
91	0x3b847c1a	0.0040431144
92	0xbb67c299	-0.0035363792
93	0x3d1525d7	0.03641304
94	0x3d360fe7	0.04444876
95	0x3bc32f05	0.005956533
96	0x3a6b6c92	0.0008980717
97	0xbc168ee2	-0.009189339
98	0x3b9c4d8e	0.0047699874
99	0x3c848a20	0.016179144
100	0xbc6e58c7	-0.014547533
101	0xbbdc6840	-0.0067262948
102	0xbc488aad	-0.012240094
103	0xbd15233d	-0.03641056
104	0x3c271ee6	0.010200238
105	0xbcc1e0c3	-0.023666745
106	0xbb9f60d8	-0.0048638396
107	0x3cadba85	0.021207104
108	0xbc8edca1	-0.017439188
109	0x3c294411	0.01033117
110	0x3b3d87a1	0.0028919952
111	0x3c80d808	0.015728012
112	0x3d25090a	0.040291823
113	0xbc923563	-0.017847722
114	0xbcb0119d	-0.021492774
115	0xbd1b9aba	-0.037989356
116	0xbb9cb3a9	-0.0047821593
117	0x3cb5de08	0.0222006
118	0xbcbf887e	-0.023380514
119	0xbd0e7887	-0.034782913
120	0xbc8ea90c	-0.017414592
121	0x3a8058ac	0.0009792051
122	0xbb9bdbef	-0.0047564427
123	0xbca26bbd	-0.019826764
124	0xbd3dfb2c	-0.046382114
125	0x3c7485b2	0.014924454
126	0xbc89320c	-0.016747497
127	0x3cc017e7	0.023448898
128	0xbca5cb6a	-0.020238597
129	0x3ca792d3	0.020455753
130	0x3c88d408	0.016702667
131	0xbc22576e	-0.00990854
132	0xbb53ea68	-0.0032335762
133	0x3c986243	0.018601542
134	0x3b90142c	0.004396936
135	0x3cbbb8f9	0.02291535
136	0x3c7eacf3	0.015544164
137	0xbcd6ab21	-0.026204647
138	0x3b5e2674	0.0033897432
139	0x3b0a45e8	0.0021098796
140	0x3c864ee3	0.016395038
141	0xbc8a2c58	-0.016866848
142	0x3cef433d	0.029206866
143	0x3d3d2454	0.046177223
144	0x3b117b71	0.002219882
145	0xbb9f093f	-0.004853397
146	0xbc0128ba	-0.007883245
147	0xbd572e55	-0.05253442
148	0x3cced273	0.025246834
149	0xbc6e80e1	-0.014557094
150	0xbce4d8a4	-0.027935334
151	0xbcc263af	-0.023729173
152	0xbb2281d3	-0.002479662
153	0x3c438ae6	0.011934971
154	0xbbe73a5d	-0.007056518
155	0xbd3cb16f	-0.04606765
156	0x3c65f1a9	0.014034667
157	0xbc26c9be	-0.010179935
158	0xbb6f164e	-0.00364818
159	0x3d127ace	0.035761647
160	0xbbcaf017	-0.0061931717
161	0x3d00f0ee	0.03147977
162	0xbc854d04	-0.016272075
163	0xbb42b9e9	-0.0029712862
164	0xbb6ed831	-0.0036444778
165	0x3c8a9007	0.01691438
166	0x3d9767bc	0.07392833
167	0xbbc3fde4	-0.005981194
168	0x3ce70b43	0.028203612
169	0x3be9f752	0.0071400786
170	0x3d0ecc56	0.03486284
171	0xbcb047e7	-0.02151866
172	0x3ce68dcb	0.028143784
173	0x3c5460a0	0.01296249
174	0x3c1d313c	0.009594258
175	0xbd381b41	-0.044947866
176	0x3b34af31	0.0027570243
177	0x3bf418b2	0.007449233
178	0xbb9eb420	-0.00484325
179	0xbbf14e26	-0.0073640523
180	0xbc836e8b	-0.016043922
181	0x3b4c393b	0.0031162042
182	0xbca8e1f3	-0.020615553
183	0x3d19a9c9	0.037515435
184	0x3bb664e4	0.0055662263
185	0x3cf3edc7	0.029776467
186	0xbc705e18	-0.014670871
187	0xbd1485f5	-0.036260564
188	0x3bafadcc	0.0053612944
189	0xbd381b82	-0.04494811
190	0x3bbd3a65	0.0057747834
191	0xbc9908cf	-0.018680958
192	0x3cb7ac0f	0.022420911
193	0x3bb72581	0.0055891876
194	0x3c2ad186	0.010425931
195	0xbc01460a	-0.007890234
196	0x3b35fde8	0.0027769748
197	0xbc582842	-0.013193192
198	0x3ce16e08	0.027518287
199	0x3d4cc5e6	0.04999342
200	0x3bafaffe	0.005361556
201	0x3d39e626	0.045385502
202	0xbc10a396	-0.008828064
203	0xbc577330	-0.013150021
204	0xbdbaff0c	-0.091306776
205	0x3c7425ef	0.014901622
206	0x3cd253bd	0.025674695
207	0x3cc850f7	0.02445267
208	0x3c5106c8	0.012757964
209	0x3c3fa144	0.011696164
210	0x3b817fb5	0.0039519914
211	0x3cc0b13f	0.023522018
212	0x3d212fe7	0.039352324
213	0x3d1b93f9	0.037982915
214	0xbc8ed69d	-0.01743632
215	0x3cbd7b37	0.023130042
216	0xbcbcd9ac	-0.023053013
217	0x3c373467	0.011181927
218	0xbc389957	-0.011267028
219	0xbc2b6361	-0.0104607055
220	0x3d202fb3	0.03910799
221	0xbca4230b	-0.020036241
222	0xbcd13270	-0.025536746
223	0x3bbe6424	0.0058102775
224	0x3d40f5ab	0.047109287
225	0xbcbc72e9	-0.023004012
226	0x3cf1fd3d	0.029539699
227	0xbb1cbcab	-0.0023916166
228	0xbce26557	-0.027636213
229	0xbce5509d	-0.027992541
230	0x3c4a09a8	0.012331404
231	0x3a4eb65d	0.00078854506
232	0x3cab88f7	0.020939333
233	0xbcf24634	-0.029574491
234	0x3ca7c504	0.020479687
235	0xb86719ce	-5.5098724e-05
236	0xbc8bac67	-0.017049981
237	0xba6177fe	-0.0008600949
238	0xbd47afa8	-0.048751503
239	0x3bb8acf2	0.005635851
240	0x3c28eea5	0.010310804
241	0xbcdc0080	-0.026855707
242	0x3c44359e	0.011975674
243	0xbc17e2d7	-0.009270391
244	0x3c407d4d	0.011748624
245	0x3c14e153	0.009086925
246	0xbd1f1f4e	-0.038848214
247	0x3c4693f2	0.012120234
248	0xbd436e2a	-0.047712483
249	0xbcc2c1a9	-0.023773985
250	0x3b243abb	0.002505942
251	0xbca024b6	-0.019548755
252	0x3bab0e35	0.0052201995
253	0x3b5ddc47	0.003385322
254	0xbd038423	-0.032108437
255	0xbce56db9	-0.028006421

action_model._discrete_distribution.branches.0.bias f4 [2]
0	0x3bc1915d	0.005907221
1	0xbbc19162	-0.0059072236

action_model._discrete_distribution.branches.0.weight f4 [2, 200]
0	0xbc1ca208	-0.009560116
1	0xbb4cfffd	-0.003128051
2	0xbba33edd	-0.004981859
3	0xb9fefcc8	-0.00048634992
4	0x3b928b37	0.004472162
5	0xbbc6b1fc	-0.006063698
6	0x3c1ddb3c	0.009634789
7	0x3c813aa8	0.01577504
8	0x3bc46d88	0.0059945025
9	0x3bdc4c58	0.006722968
10	0xb9936162	-0.0002811058
11	0xbc064655	-0.008195479
12	0x3b05df27	0.0020427199
13	0xbb53af6a	-0.00323006
14	0xbb1b197d	-0.0023666315
15	0x3b88f6ec	0.004179826
16	0xbbe02092	-0.00683982
17	0x3c055007	0.008136756
18	0x3cb0eba4	0.021596737
19	0x3ae2b3e8	0.0017296048
20	0x3bbdbc8b	0.0057902983
21	0x393ee981	0.00018206799
22	0xbc77e997	-0.015131376
23	0x3be9564e	0.007120884
24	0xbc54a34c	-0.012978386
25	0x3c5c202c	0.013435405
26	0xbc082a90	-0.008310929
27	0x3af4faac	0.0018690429
28	0xbb7e3e8a	-0.00387946
29	0x3bfe8fec	0.0077686217
30	0x39ada1d4	0.00033117703
31	0x3c0959a1	0.008383186
32	0x3c1446fe	0.009050129
33	0x3b9cef1b	0.004789246
34	0xb9a157c4	-0.00030773703
35	0xbbfdebec	-0.0077490713
36	0xba757853	-0.0009363938
37	0x3c33a23f	0.010963975
38	0xbbe4f0f1	-0.0069867303
39	0x3c61d5ea	0.013783911
40	0xb9dc0960	-0.00041968655
41	0x3c6c30ed	0.014415962
42	0xbbc29916	-0.0059386594
43	0x3b5a9fc0	0.0033359379
44	0xbc43691f	-0.011926918
45	0xbbaa4883	-0.0051966324
46	0x3c10c5c4	0.0088362135
47	0x3c94a527	0.018145157
48	0x3c05d4db	0.0081684245
49	0x3abf9961	0.0014617854
50	0x3ab9fbf2	0.0014189465
51	0xbb1517b2	-0.002274972
52	0x3c84ffec	0.016235314
53	0x3b08d388	0.0020878036
54	0xbbdb2ff0	-0.006689064
55	0x3b4231ff	0.002963185
56	0x3c28d15f	0.010303824
57	0xbbf2e38d	-0.00741238
58	0x3b22cd21	0.0024841505
59	0x39379c9b	0.0001751058
60	0x3bc85add	0.0061143474
61	0x3c6321ff	0.013863086
62	0xbbda9f85	-0.0066718482
63	0xbb937b39	-0.0045007733
64	0xbc2e6ce4	-0.010646079
65	0x3c212209	0.009834775
66	0x3bdf9cd1	0.006824114
67	0x3cdf4f70	0.027259558
68	0x3b5d8a4c	0.0033804355
69	0x3ab0cb41	0.0013488309
70	0x3c2416cf	0.010015204
71	0xb989420a	-0.0002617988
72	0x3c1356ec	0.008992892
73	0xbbc0a6d5	-0.005879263
74	0xbb9f56a0	-0.0048626214
75	0x3bfb00c4	0.0076600034
76	0x39ddd44a	0.00042310572
77	0x3bde838a	0.006790583
78	0xbc222c84	-0.009898309
79	0xbbba99dc	-0.005694611
80	0x3a76e4a2	0.0009418224
81	0x3c516b7d	0.012781975
82	0xbc42552f	-0.01186113
83	0x3bd8db60	0.0066179484
84	0xbc22ccce	-0.009936525
85	0x3b5c90ca	0.0033655637
86	0xbac6b896	-0.0015161212
87	0xbbfa7116	-0.0076428754
88	0xbc75e496	-0.015008112
89	0x3c52849a	0.0128489975
90	0x3c19b1dc	0.009380784
91	0xbc46877e	-0.012117265
92	0xbc10fbcd	-0.0088490965
93	0xbb660f81	-0.0035104456
94	0xbc15bdf0	-0.009139523
95	0xbb6658ad	-0.003514807
96	0x3b7eec95	0.0038898338
97	0xbafae35d	-0.0019141246
98	0x3b62d1d9	0.0034609942
99	0xbc92751b	-0.017878106
100	0x3c24c975	0.010057797
101	0x3b29b209	0.002589347
102	0x3b403c57	0.002933284
103	0xbc8ac651	-0.016940268
104	0x3c954d52	0.018225346
105	0xbc12bbce	-0.008955909
106	0x3b94bcd9	0.004539114
107	0xbc1e1897	-0.009649417
108	0xbbbfa900	-0.005849004
109	0x3bd5ce4c	0.0065248366
110	0xbc370c24	-0.011172328
111	0x3c03949d	0.008031038
112	0x3c8962ae	0.016770687
113	0xbc8249bc	-0.0159043
114	0x3bc8ecf0	0.006131761
115	0xbbb4457f	-0.0055014486
116	0xbb9afff7	-0.0047302204
117	0xbc97b24f	-0.018517641
118	0x3c569cd9	0.013098919
119	0xbbd182d2	-0.006393769
120	0xbc0aec3d	-0.008479175
121	0xbb03517a	-0.0020037577
122	0x3b48d1f0	0.003064271
123	0x3bc332a0	0.0059569627
124	0xbc3391fa	-0.0109600965
125	0xbc84515e	-0.01615208
126	0x3c6239e2	0.013807746
127	0x3c54b399	0.012982273
128	0xbc6ba47b	-0.014382477
129	0x3c805a77	0.015668137
130	0xba4abbb6	-0.00077336596
131	0x3af86715	0.0018951619
132	0x390213bf	0.00012405122
133	0x3a30e3c7	0.00067478087
134	0x3ca75254	0.020425
135	0x3c348397	0.011017702
136	0xbc9e2a66	-0.019307327
137	0xbba93292	-0.005163499
138	0x3bd8e956	0.0066196127
139	0xbb8c3609	-0.0042789024
140	0xba908054	-0.0011024573
141	0x3b36bfb7	0.0027885267
142	0x3c86f446	0.0164739
143	0x3bd16bca	0.0063910233
144	0x3c162379	0.009163731
145	0x3c0dd1ad	0.008655948
146	0x3b0afeba	0.0021208958
147	0xbc0d6b37	-0.008631519
148	0xbb94c6fc	-0.0045403223
149	0x3ad50fd0	0.0016255323
150	0xba233c36	-0.00062269287
151	0x3c02f1e5	0.007992242
152	0xba22f249	-0.0006215913
153	0x3c318043	0.010833803
154	0x3b710f54	0.0036782818
155	0xbbaf7b24	-0.0053552557
156	0xbbdc5686	-0.0067241816
157	0x3c12e5a0	0.00896588
158	0x39910495	0.0002765997
159	0x3aded905	0.0017001933
160	0xbbc17819	-0.0059042093
161	0xbbb9cffb	-0.005670545
162	0xbca3effc	-0.020011894
163	0x3bc03e05	0.0058667683
164	0x3c797aa4	0.015226994
165	0x3b5a4742	0.0033306633
166	0x3c8a676e	0.016895022
167	0x3c847cf2	0.01617286
168	0x3b92d274	0.0044806544
169	0x3c19d130	0.009388253
170	0x3c0404a6	0.008057749
171	0xbc75b25b	-0.014996137
172	0xbb24f607	-0.0025171058
173	0x3bd3ec67	0.0064673903
174	0xbc389629	-0.01126627
175	0xbc0f5305	-0.008747821
176	0xbb3ce3d4	-0.002882232
177	0xbc3bdbca	-0.011465976
178	0x3b4e1f29	0.0031451678
179	0x3bf1033b	0.0073551214
180	0xbc2e8401	-0.010651589
181	0xb8cd3087	-9.784201e-05
182	0x39a3623a	0.00031162967
183	0xb9c4b61f	-0.00037519724
184	0x3c3f18bf	0.011663615
185	0xbb6f366c	-0.0036500944
186	0x3bf8c64e	0.007591999
187	0x3aa4fcda	0.0012587563
188	0xbb91515b	-0.004434747
189	0xbb8fb2ce	-0.004385329
190	0x3c0c3776	0.008558145
191	0xbcb06f94	-0.02153758
192	0x3bb7f8e4	0.005614387
193	0x3bb57609	0.0055377525
194	0xbb1c43c6	-0.0023844107
195	0xbbd9c6ca	-0.006646012
196	0xbcb79ad2	-0.022412691
197	0x3ba13e73	0.0049207746
198	0x3bc06444	0.0058713276
199	0xbc66c3b0	-0.0140847415
200	0x3c8fbf4e	0.017547276
201	0xbbbae06c	-0.0057030227
202	0x3be3904e	0.0069446927
203	0xba9f8c23	-0.0012172501
204	0xbbbe20b8	-0.00580224
205	0xba6f2d4a	-0.0009123875
206	0x3bd75557	0.0065714526
207	0xbb081947	-0.002076702
208	0x3b0d31a4	0.002154448
209	0x3b0696b5	0.0020536606
210	0xbc0391bd	-0.008030352
211	0x3b87f198	0.0041486733
212	0x3c190152	0.009338694
213	0x3b191e39	0.0023363961
214	0x3c81382f	0.01577386
215	0x3c73b18a	0.014873872
216	0x3c441ca0	0.011969715
217	0xbcb10bdd	-0.021612102
218	0xbc97b509	-0.018518941
219	0x3c32593c	0.010885533
220	0xbadc0fd5	-0.0016789386
221	0x3bc370df	0.005964383
222	0x3ca28be0	0.019842088
223	0xbbad7aca	-0.0052941786
224	0x3c8e7f36	0.017394643
225	0xbc6f1d05	-0.014594321
226	0xbbb53b36	-0.00553074
227	0x3c8817e9	0.016612964
228	0x38be6af1	9.0798254e-05
229	0x3b2ee512	0.002668683
230	0x3b488884	0.0030598948
231	0x3bde15d0	0.0067775026
232	0xbaa8a0dd	-0.0012865324
233	0xbc28278b	-0.010263334
234	0x3bcdcee2	0.006280766
235	0x3cf30a7c	0.029668085
236	0xb9df68a1	-0.0004261183
237	0xbc242f5a	-0.010021055
238	0xbbe9c08c	-0.007133549
239	0xbae5d794	-0.0017535561
240	0x3aebcc76	0.0017990011
241	0x3b97c7dd	0.00463198
242	0xba3cb512	-0.00071986124
243	0xbb3575b3	-0.0027688562
244	0x3bf7d115	0.0075627663
245	0x3c53e5f5	0.012933244
246	0xbc11a297	-0.008888862
247	0xbbf582ac	-0.007492384
248	0x3c1b6fd8	0.009487115
249	0xbc2758a0	-0.010214001
250	0x3c8b6990	0.01701811
251	0x3aec621d	0.0018034611
252	0x3c8a9d4a	0.016920704
253	0x3c4124a6	0.011788523
254	0x3c94673d	0.018115634
255	0x3ba3406e	0.004982046

network_body.linear_encoder.seq_layers.0.bias f4 [200]
0	0xba712000	-0.0009198189
1	0x3c8c856d	0.017153466
2	0x3c949046	0.018135201
3	0x3ca2ccd1	0.019873055
4	0x3c2b7787	0.010465509
5	0x3c95b087	0.018272651
6	0x3d18f3ef	0.03734201
7	0x3c826523	0.015917366
8	0x3be69866	0.0070372103
9	0x3be7ca7d	0.007073699
10	0xbc6164b4	-0.01375692
11	0xbcf17ef9	-0.02947949
12	0xbbab5e93	-0.00522978
13	0xbbf0fe37	-0.0073545235
14	0x3cadd12d	0.021217907
15	0xbd2be3eb	-0.041965406
16	0xbbdc4d1b	-0.006723059
17	0x3cf474aa	0.029840786
18	0xbb182b81	-0.002321929
19	0x3c59f6ca	0.013303468
20	0xbc400c30	-0.011721656
21	0xbc9c9b8e	-0.019117143
22	0x3c1342f2	0.008988129
23	0x3d159683	0.036520492
24	0x3cb6b2fd	0.022302145
25	0x3c1c6c06	0.009547239
26	0xbb9cb6b6	-0.004782523
27	0x3c179d9e	0.009253887
28	0x3b28221b	0.0025655094
29	0xbb074d55	-0.0020645459
30	0x3d13d9fc	0.036096558
31	0x3c94ff53	0.018188154
32	0x3c7b1313	0.015324372
33	0xba202e5d	-0.00061104243
34	0xbbb21a5f	-0.0054352726
35	0x3acce269	0.001563144
36	0x3c6a2f73	0.014293539
37	0xbc865b04	-0.016400822
38	0x3d009875	0.031395394
39	0x3c9a6e89	0.018851535
40	0x3c4b453e	0.012406645
41	0xbcaac52c	-0.020845972
42	0xbc46caa7	-0.012133277
43	0x3cdb896a	0.026798923
44	0x3c465b43	0.012106719
45	0x3c8a8b6d	0.016912187
46	0x3cd1690f	0.025562791
47	0x3d100189	0.035157714
48	0xbba7a1fe	-0.0051157465
49	0x3b5e9cbc	0.0033967933
50	0x391b54b4	0.00014813506
51	0x3b1d66d1	0.0024017582
52	0xbc63560a	-0.013875494
53	0xbc20d65f	-0.009816735
54	0xbb3a4997	-0.002842521
55	0x3c391b84	0.011298064
56	0x3c901317	0.017587228
57	0x3cd012d8	0.02539961
58	0x39cc9a7d	0.00039025015
59	0xb841d6a8	-4.62147e-05
60	0x3ca278e9	0.019833045
61	0x3cd112a2	0.02552158
62	0x3c06520d	0.008198273
63	0x3c38d6c5	0.011281674
64	0xbb8c8994	-0.0042888615
65	0x3b9df7c6	0.0048207967
66	0x3c40c596	0.011765858
67	0x3cee0b91	0.02905825
68	0x3c70bd4f	0.014693572
69	0xbb870c3a	-0.0041213306
70	0x3c441b4a	0.011969397
71	0x3cb9cf7a	0.02268194
72	0xbc5c9861	-0.013464064
73	0xbac447c7	-0.0014975005
74	0xbc604810	-0.013689056
75	0x3c8121de	0.01576322
76	0xbaaeb1f7	-0.0013328184
77	0x3bf7954e	0.0075556403
78	0xbb7ee1d7	-0.0038891935
79	0x3bac2db2	0.0052544707
80	0x3c4f7343	0.012661758
81	0x396c8f35	0.00022560063
82	0x3c40ad70	0.011760101
83	0x3d0ac8d3	0.033882927
84	0xbc3f01fe	-0.01165819
85	0x3c90485f	0.017612634
86	0x3c38e0f0	0.011284098
87	0x3ca3688a	0.019947309
88	0xbc658cdc	-0.014010634
89	0xbc2c37a9	-0.010511317
90	0x3c96e9e8	0.018422082
91	0x3c2af684	0.0104347505
92	0x3ce45a4b	0.027875086
93	0xbc0affb0	-0.008483812
94	0x3cd2b549	0.02572121
95	0xbce404be	-0.027834293
96	0x3c816b5d	0.015798265
97	0x3caa8949	0.020817416
98	0x3c8f3975	0.017483452
99	0xbc641f44	-0.01392347
100	0xbbef0415	-0.007294188
101	0xbc947440	-0.018121839
102	0x3c06cfb8	0.008228235
103	0xbbbbde4d	-0.0057332874
104	0x3ca6a453	0.020342028
105	0x3ccfa905	0.02534915
106	0xbc3180f0	-0.010833964
107	0xbc116a8d	-0.008875501
108	0xbb651262	-0.0034953584
109	0x3c9c7ec9	0.019103425
110	0xbc959b9b	-0.018262675
111	0x3a614df9	0.00085946877
112	0xbc854064	-0.016266055
113	0x3c841a7a	0.016125906
114	0xbc83e0f9	-0.016098486
115	0xbcf63bbf	-0.030057786
116	0x3c88d6f5	0.016704062
117	0x3c10c747	0.008836574
118	0xbc81ffad	-0.015868986
119	0xbb010216	-0.0019685081
120	0xbc70ad99	-0.014689826
121	0xbb8692ed	-0.0041068704
122	0xbad42474	-0.001618518
123	0x3c1270f0	0.008938059
124	0x3d04cb98	0.032420725
125	0x3b7d0d82	0.0038612788
126	0x3c92329d	0.0178464
127	0xbbd14135	-0.006385947
128	0x3cd3ec09	0.025869386
129	0x3c7594ac	0.014989059
130	0x3c26ba03	0.010176185
131	0xbb64ca20	-0.0034910515
132	0xba024266	-0.00049690006
133	0xbbb692eb	-0.005571713
134	0x3c8d4e70	0.017249316
135	0x3cf2c2f1	0.02963397
136	0xbc5074df	-0.012723177
137	0x3c662d45	0.014048879
138	0x3c4c4659	0.012467944
139	0xbcf16083	-0.029464966
140	0xbc6ec8af	-0.014574214
141	0x3bed3fd9	0.0072402772
142	0xbb5c6970	-0.0033632182
143	0x3b694663	0.0035594932
144	0x3ccf44b6	0.025301319
145	0x3c898d60	0.016791046
146	0x3c5898d9	0.0132200355
147	0xbc4b2df4	-0.012401093
148	0x3c6c1cab	0.014411132
149	0xbb9e1c3a	-0.004825142
150	0x3ce58fdd	0.0280227
151	0x3c8488ab	0.01617845
152	0x3c0c8725	0.008577143
153	0xba01c70b	-0.0004950619
154	0x3cb2f82f	0.021846859
155	0x3c4fbf26	0.012679851
156	0x3c8e79bf	0.017392037
157	0xbc19e1d6	-0.009392222
158	0x3c7a9f52	0.015296774
159	0xb9993b9e	-0.00029226852
160	0x3beb2c6c	0.0071769264
161	0x3b3540f3	0.002765712
162	0x3cef2367	0.029191686
163	0x3c0a2cdd	0.008433548
164	0xbc939404	-0.018014915
165	0xb9c266e0	-0.0003707921
166	0x3c6b6024	0.014366183
167	0x3cd17f3e	0.02557337
168	0x3cf28057	0.029602213
169	0x3cdde18c	0.027085088
170	0xbc065bb1	-0.008200572
171	0x3d18df5d	0.03732239
172	0x3d039bf3	0.032131147
173	0x3bf751c5	0.0075475895
174	0x3c3a40a0	0.011367947
175	0xbba493f3	-0.0050225197
176	0x3d015eb0	0.03158444
177	0x3bfa7fcf	0.0076446305
178	0x3d241afd	0.0400648
179	0xbc20be72	-0.009811031
180	0xbbd5517c	-0.006509958
181	0x3c9bdcf6	0.01902626
182	0x3b6dae0a	0.0036267065
183	0x3c80037b	0.01562666
184	0xbcb46ef7	-0.022025568
185	0xbac03dc3	-0.0014666844
186	0x3cb976d9	0.022639679
187	0x3d15699a	0.036477663
188	0x3bd83a03	0.0065987124
189	0x3cb7f516	0.022455733
190	0xbbe36fe6	-0.0069408296
191	0x3bc91afa	0.006137249
192	0xbbcee493	-0.0063138693
193	0xbc821e35	-0.015883544
194	0x3c916aab	0.017751059
195	0x3c8238ba	0.01589619
196	0xbc6258b3	-0.013815093
197	0x39405935	0.00018343779
198	0xbc514da4	-0.012774859
199	0x3cd39af3	0.025830721

network_body.linear_encoder.seq_layers.0.weight f4 [200, 88]
0	0xbdf23e8a	-0.11828335
1	0xbdfa13ae	-0.12210785
2	0xbd3dc82f	-0.046333488
3	0xbd529122	-0.05140794
4	0xbe1471b8	-0.14496505
5	0xbdf133d6	-0.11777465
6	0x3dd460fa	0.10370059
7	0xbe0e4c51	-0.138963
8	0xbd1b9e8b	-0.037992995
9	0xbc96b809	-0.018398302
10	0xbd9e1295	-0.07718388
11	0x3d4c8994	0.049935892
12	0x3dc55ba7	0.09636622
13	0x3e4e543a	0.20149317
14	0xbd648b13	-0.055796694
15	0x3db6f865	0.08934096
16	0x3c5742a5	0.013138448
17	0x3d8ec908	0.069719374
18	0xbe2f5673	-0.17122822
19	0xbdd85763	-0.10563543
20	0xbe025c36	-0.12730488
21	0x3e24b217	0.16083561
22	0xbdde7e66	-0.10863952
23	0x3d0f56ba	0.03499482
24	0x3cbdca4a	0.023167748
25	0xbd083125	-0.033249993
26	0xbe41a6ee	-0.18911335
27	0x3d1ebbf8	0.03875348
28	0xbdc4054e	-0.09571324
29	0x3dc34c2d	0.09536014
30	0xbddb9ded	-0.10723481
31	0x3d2a6037	0.041595664
32	0x3b667b7d	0.003516882
33	0xbe44a33f	-0.19202898
34	0xbcd8a5fa	-0.026446331
35	0x3e176abc	0.1478681
36	0x3c5b8286	0.013397818
37	0x3d029e47	0.031889226
38	0x3ce98c60	0.028509319
39	0xbddbe5c2	-0.10737182
40	0xbd8fe958	-0.07026929
41	0x3d8f1292	0.06985964
42	0x3c48495c	0.0122245215
43	0xbe32477f	-0.17410086
44	0x3d86523d	0.065586545
45	0xbcc8c23d	-0.024506683
46	0x3cdba187	0.02681042
47	0x3d0bcbe6	0.03413
48	0xbd93a2f0	-0.07208812
49	0x3c9532b4	0.018212654
50	0x3ceb12f3	0.02869556
51	0x3d77ba84	0.06048061
52	0xbde814ef	-0.11332118
53	0xbca001a4	-0.019532032
54	0xbd985d74	-0.074397
55	0xbe18e5f5	-0.14931472
56	0x3e022ebe	0.12713143
57	0xbc174db1	-0.009234832
58	0x3de06037	0.109558515
59	0x3d3306ac	0.043707535
60	0xbcc2cd1d	-0.023779446
61	0xbd46ee41	-0.04856706
62	0xbe1c1450	-0.15242124
63	0xbd637dab	-0.05553977
64	0xbdddcae3	-0.10829713
65	0xbca5a00e	-0.020217922
66	0xbde063bd	-0.109565236
67	0x3e07a93c	0.13248152
68	0xbd899656	-0.067181274
69	0xbe04a6df	-0.12954281
70	0x3cffbdea	0.031218488
71	0x3e63f5af	0.2226169
72	0x3d97a14e	0.07403813
73	0xbdaf7504	-0.08567241
74	0x3d84b2e1	0.06479431
75	0x3e601ade	0.21885249
76	0xbe792a56	-0.24332556
77	0x3d2e8fef	0.042617735
78	0xbe48f8bc	-0.19626135
79	0x3d6b3b19	0.057429407
80	0xbd4ed960	-0.050500274
81	0x3c86de73	0.016463494
82	0x3d03722b	0.0320913
83	0xbdc247d6	-0.09486358
84	0x3e850d7b	0.25986847
85	0xbc915cd7	-0.017744465
86	0x3e266cfa	0.16252509
87	0x3c943183	0.018090015
88	0xbc38fa37	-0.011290125
89	0xbce02f2a	-0.02736624
90	0xbdf2d1eb	-0.11856445
91	0x3e2272a3	0.15864043
92	0xbd868a99	-0.06569404
93	0xbd0dcaa1	-0.03461707
94	0x3e0b1f7e	0.13586232
95	0x3cf0fdba	0.029417861
96	0xbdc69f62	-0.096983686
97	0xbcd83356	-0.026391666
98	0x3daf7a58	0.08568257
99	0x3e0f3bf0	0.13987708
100	0xbb3352fe	-0.00273627
101	0x3bc9dc3f	0.0061602886
102	0x3e455f40	0.19274616
103	0x3d8c928e	0.068638906
104	0xbdba4225	-0.09094647
105	0x3d446ba3	0.047954213
106	0x3c6090f6	0.013706436
107	0xbe0fcdcf	-0.14043353
108	0xbd2ea28d	-0.04263549
109	0x3d543a9d	0.05181371
110	0x3de3f770	0.11131179
111	0xbdbd49f1	-0.09242619
112	0x3dd16aff	0.10225486
113	0xbc2fe51b	-0.010735775
114	0x3bed2112	0.0072366083
115	0xbda25209	-0.07925803
116	0x3e3455e7	0.17610894
117	0xbdffdd74	-0.12493411
118	0x3d8ed893	0.06974902
119	0x3e34df00	0.17663193
120	0x3d386835	0.045021255
121	0x3d862820	0.06550622
122	0xbd300277	-0.0429711
123	0xbdd467bd	-0.10371349
124	0xbe2a02d1	-0.16602637
125	0x3e8f0f94	0.27941573
126	0x3c96df22	0.018416945
127	0xbcddaf4b	-0.027061125
128	0xbcc6762a	-0.024226267
129	0xbe34e68e	-0.17666075
130	0x3cc90b0e	0.024541404
131	0x3d0c78f2	0.03429503
132	0x3d8bf65c	0.06834099
133	0x3c598e7e	0.013278602
134	0xbe2271e9	-0.15863766
135	0x3d294c47	0.04133251
136	0xbc4995ad	-0.012303752
137	0xbd2507cb	-0.040290635
138	0xbc0c2efb	-0.008556123
139	0xbe3972dd	-0.18110223
140	0x3d89f1b2	0.06735553
141	0x3d277550	0.040883362
142	0xbe0bb010	-0.13641381
143	0xbded2101	-0.115785606
144	0x3e3ce476	0.18446526
145	0xbdad728a	-0.08469112
146	0x3cec1940	0.028820634
147	0x3d8fa0db	0.070131026
148	0xbd6a48e7	-0.05719843
149	0xbde73fd5	-0.11291472
150	0x3c8f2ce3	0.017477458
151	0xbd722689	-0.05911878
152	0x3e0eaf30	0.13934016
153	0x3cc5a4d9	0.024126457
154	0xbc89c78a	-0.01681878
155	0xbd869020	-0.065704584
156	0x3e4b3fb9	0.19848527
157	0xbd9ebd73	-0.07750978
158	0x3dd75066	0.10513382
159	0x3e5f93f7	0.21833788
160	0xbc55ceb8	-0.013049774
161	0xbe783c52	-0.2424176
162	0xbe377aa6	-0.1791788
163	0xbc5db703	-0.013532403
164	0xbd4f0dab	-0.050550144
165	0x3d2b5a1b	0.04183398
166	0x3db9d96b	0.09074672
167	0xbcf84c6b	-0.030309876
168	0x3dce1ad4	0.10063711
169	0x3e609438	0.21931541
170	0xbe14a551	-0.14516188
171	0x3de0ae70	0.10970771
172	0x3c041dea	0.008063773
173	0xbd65a0f2	-0.056061693
174	0xbe0282b8	-0.12745178
175	0x3cd03df9	0.025420176
176	0xbd916c86	-0.07100777
177	0x3e2d2f4d	0.16912575
178	0x3d1ff7a1	0.039054517
179	0xbdacb293	-0.08432498
180	0x3e883e83	0.26610193
181	0xbdc922e7	-0.0982111
182	0x3e176cff	0.14787672
183	0x3e524d56	0.20537314
184	0xbd33c142	-0.043885477
185	0xbcd2ec14	-0.025747336
186	0x3dd2aff1	0.102874644
187	0x3d839ca1	0.06426359
188	0xbde3bc21	-0.11119867
189	0x3d3a3d3b	0.04546855
190	0xbbc122d2	-0.0058940435
191	0xbc8c3bb5	-0.017118314
192	0xbdb69f82	-0.089171425
193	0x3e111f2f	0.14172052
194	0x3d28e3a1	0.04123271
195	0xbddbaafa	-0.107259706
196	0xbd85747c	-0.06516358
197	0x3d97028a	0.07373531
198	0x3dac1bbf	0.0840373
199	0x3dd60356	0.10449855
200	0x3d095fe0	0.0335387
201	0x3dae510b	0.085115515
202	0x3cc958d0	0.024578482
203	0x3cee5e1b	0.029097607
204	0x3e0932d6	0.13398299
205	0xbc261201	-0.010136128
206	0x3d203ca0	0.039120317
207	0xbd710431	-0.058841888
208	0x3c96b531	0.018396946
209	0xbd387e84	-0.04504253
210	0xbd8a1e67	-0.0674408
211	0xbc544448	-0.012955733
212	0x3d34004b	0.043945592
213	0x3e6b4b8e	0.2297804
214	0xbe0ca85f	-0.13736103
215	0x3df96d09	0.12179
216	0x3af3c603	0.0018598441
217	0xbe8e7163	-0.27820882
218	0xbdc35d9c	-0.09539339
219	0xbe53ee9c	-0.20696491
220	0x3e4abddc	0.19798988
221	0xbd4c0f24	-0.049819127
222	0x3c15ffcb	0.009155224
223	0xbc8f3261	-0.017480077
224	0x3dec1ac6	0.11528544
225	0xbdd0d260	-0.10196376
226	0x3daf1c4b	0.08550318
227	0x3d6f22cf	0.058382805
228	0x3e3e8610	0.18605828
229	0xbe1164e7	-0.14198647
230	0x3cc2012b	0.023682198
231	0xbd8ee65b	-0.069775306
232	0xbcf96837	-0.030445201
233	0x3ad30ff0	0.0016102772
234	0x3dbb52a1	0.091466196
235	0xbe92938d	-0.28628197
236	0x3cebd90b	0.028790018
237	0x3e1b8ca1	0.15190364
238	0xbe2d11c6	-0.16901311
239	0xbbf1566d	-0.007365039
240	0x3e1af4ec	0.15132493
241	0xbd93e9b2	-0.07222308
242	0x3e5a9104	0.21344382
243	0xbc5df2e7	-0.013546682
244	0xbdc48fc0	-0.09597731
245	0xbe53e762	-0.20693734
246	0xbccca750	-0.024982125
247	0xbd45eabc	-0.048319563
248	0x3d496cf9	0.04917619
249	0xbc32de0a	-0.010917196
250	0xbe3d567f	-0.18490027
251	0x3dccd5aa	0.10001691
252	0x3c364224	0.011124168
253	0xbd53ff23	-0.05175699
254	0x3d095a71	0.033533517
255	0xbdbd74b3	-0.09250774

network_body.linear_encoder.seq_layers.2.bias f4 [200]
0	0x3b18e2e6	0.0023328601
1	0x39d0f433	0.00039854794
2	0x3c9a51bd	0.018837804
3	0x3a4bde8a	0.00077769964
4	0x3d0e8481	0.034794334
5	0xbbacb597	-0.0052706706
6	0xb91b37e5	-0.00014802774
7	0xbb28197e	-0.002564996
8	0xbc02df84	-0.007987861
9	0x3c7124ee	0.014718277
10	0xbbb10cb7	-0.005403127
11	0x3cb49c40	0.022047162
12	0x3b81831f	0.0039523984
13	0xbbdccf89	-0.0067386073
14	0x3c2aeca9	0.010432401
15	0xbc2a2d1e	-0.010386733
16	0x3bcf34f8	0.006323453
17	0xbb961efd	-0.004581331
18	0x3cd9d9f7	0.026593192
19	0x3cc371d6	0.023857992
20	0xbba8aa1f	-0.005147233
21	0x3c35544a	0.011067459
22	0x3c8049fe	0.015660282
23	0x3b42b4f3	0.0029709905
24	0x3ca859a1	0.02055055
25	0x3d26cf3c	0.040724978
26	0xbbe8dbbe	-0.0071062734
27	0x3caa0565	0.020754525
28	0x3c291444	0.010319773
29	0x3c70287c	0.01465809
30	0x3c276758	0.01021751
31	0x3b1a831b	0.002357668
32	0x3c2f1e39	0.010688358
33	0x3c94108c	0.018074296
34	0x3c129809	0.008947381
35	0x3cac7617	0.021052403
36	0x3c56c588	0.013108619
37	0x3c2372ac	0.00997607
38	0x3cea6cc4	0.028616317
39	0xba61c584	-0.0008612501
40	0x3baaf179	0.005216774
41	0x3c5f8e2e	0.013644738
42	0x3ba9031c	0.0051578414
43	0x3c97e4c7	0.018541707
44	0x3cd6c1a5	0.026215384
45	0xbc20f29d	-0.0098234685
46	0x3ca095ed	0.01960274
47	0x3c7aef22	0.015315803
48	0x3ce372fb	0.027764788
49	0x3a5cc274	0.000842131
50	0x3c567e22	0.013091596
51	0x3c736ef1	0.014857993
52	0x3cdfc065	0.02731342
53	0xbbbd45ee	-0.0057761585
54	0x3cdae6d2	0.026721392
55	0x3cd43868	0.025905803
56	0x38b25d79	8.505112e-05
57	0xbc104be2	-0.008807154
58	0xbb981c9d	-0.004642083
59	0x3c7eb77d	0.015546677
60	0x3cb08c0a	0.02155115
61	0xbbbc0520	-0.0057379156
62	0x3ca0e1d0	0.019638926
63	0xbc17c8ee	-0.009264214
64	0xb9707824	-0.0002293294
65	0x3aca2ea7	0.001542528
66	0xbbe4cd39	-0.0069824723
67	0xbb16a617	-0.002298718
68	0x3c958e9a	0.018256474
69	0xbb3e887c	-0.002907305
70	0x3c05e95a	0.008173311
71	0x3c561e56	0.013068756
72	0x3bd4e8b3	0.0064974665
73	0x3c8428e3	0.016132778
74	0xbb3ec94b	-0.002911168
75	0xbc2e1e62	-0.010627361
76	0x3cd633a8	0.026147678
77	0x3c1c0ff9	0.009525293
78	0x3c86599b	0.01640015
79	0x3c3afe37	0.011413149
80	0x3c3f8feb	0.011692028
81	0x3cc0b875	0.023525456
82	0x3c38cdad	0.011279506
83	0x3a655e7a	0.0008749735
84	0xbbd6f240	-0.00655964
85	0x3bee5e8f	0.007274456
86	0x3ce87879	0.028377758
87	0x3bfbe8bd	0.0076876567
88	0x3c9f163d	0.019419784
89	0x3b07d76e	0.0020727771
90	0x3c0315fb	0.008000846
91	0x3baed5c8	0.0053355433
92	0x3bef24ee	0.0072981035
93	0x3c903590	0.017603666
94	0x3cdc9c75	0.026930073
95	0x3c167cb5	0.009185006
96	0x3cc1e5cd	0.023669148
97	0x3b0715a0	0.0020612255
98	0x3c83fea7	0.016112639
99	0x3c54e168	0.012993194
100	0x3c81167e	0.015757795
101	0x3c5d6d6b	0.013514857
102	0xbb8818e5	-0.0041533583
103	0x3cab0543	0.020876532
104	0x3c040e49	0.0080600465
105	0x3c31ddf6	0.010856142
106	0x3b6c87ad	0.0036091611
107	0x3c149702	0.009069206
108	0x3c47f190	0.012203589
109	0x3c455910	0.01204516
110	0x3c8324d4	0.016008772
111	0x3c218c9c	0.009860184
112	0x3c904a83	0.017613655
113	0x3ab78624	0.0014001769
114	0xbc8514ad	-0.01624521
115	0x3b76636e	0.0037595886
116	0xbc1e5d75	-0.009665837
117	0x3c8c5637	0.017130954
118	0xbc13cee4	-0.009021495
119	0xbb83c718	-0.0040215366
120	0x3c072762	0.008249136
121	0xbc740204	-0.014893059
122	0x39d91cc6	0.00041410903
123	0xbc1b96ad	-0.009496373
124	0x3a99b7af	0.0011727716
125	0x3c675146	0.014118498
126	0xbc8c4ddd	-0.017126972
127	0x3c5efb08	0.013609655
128	0x3c576923	0.013147625
129	0x3cbb5c43	0.022871142
130	0x3c0a41a4	0.0084385015
131	0x39c599a1	0.0003768923
132	0xbb09daa7	-0.0021034868
133	0xbc74a96a	-0.01493297
134	0x3b8dda0b	0.0043289713
135	0x3bbac1e0	0.005699381
136	0x3c45f3c0	0.01208204
137	0x3c585cc9	0.013205715
138	0x3c0cc7a7	0.008592523
139	0x3cb8b600	0.022547722
140	0x3c79cf9e	0.015247254
141	0xbc81aaf3	-0.015828585
142	0x3c77da7a	0.015127772
143	0x3cb834bf	0.022486089
144	0x3c6fe70e	0.01464249
145	0x3d02feef	0.031981405
146	0x3c885687	0.016642822
147	0x3c93e389	0.018052833
148	0x3c84bcb2	0.016203258
149	0xbc5de863	-0.013544175
150	0x3b4929de	0.003069512
151	0xbb77bc4c	-0.0037801443
152	0xbaffc803	-0.0019514564
153	0x3c321b17	0.010870717
154	0x3c33283d	0.0109348865
155	0xbb4cefcc	-0.003127086
156	0x3cf85c8a	0.030317564
157	0xbbe80221	-0.007080332
158	0x3c6e07cf	0.014528229
159	0x3c2bc11e	0.010483054
160	0x3ca50a1b	0.02014642
161	0x3c10db24	0.00884131
162	0x3cb9d134	0.022682764
163	0x3bf2129f	0.0073874737
164	0x3c7e3b65	0.01551709
165	0x3c6e931e	0.014561443
166	0x3c95a9e0	0.01826948
167	0x3c336c01	0.010951043
168	0x3c848cb5	0.016180376
169	0x3cb5eb87	0.022207035
170	0x3c933e57	0.017974062
171	0x3c0b965b	0.008519734
172	0x3bc7b16c	0.0060941484
173	0x3c72c503	0.014817479
174	0x3d08cec6	0.03340032
175	0xbb7fe4fe	-0.0039046402
176	0xbc3e4751	-0.011613683
177	0x3ac18136	0.0014763239
178	0xbb1eb530	-0.0024216883
179	0x3c62a3b3	0.013832974
180	0xbbdcf917	-0.006743561
181	0xbc315046	-0.010822361
182	0x39e77b9a	0.00044151844
183	0x3ce6c8fa	0.028172005
184	0x3b6ef817	0.003646379
185	0x3cadd40b	0.021219274
186	0x3c45fa2e	0.012083573
187	0x3b553181	0.0032530727
188	0x3c99df9a	0.01878338
189	0xbbe56dcf	-0.0070016156
190	0x3ca65aa1	0.020306887
191	0x3c71e9cd	0.014765215
192	0x3cdea89b	0.027180007
193	0x3bfeaf6b	0.0077723763
194	0x3c63f7b7	0.01391404
195	0xbbf7f247	-0.0075667235
196	0x3ca4264a	0.020037789
197	0x3c80ca64	0.015721507
198	0x3d00e87e	0.03147172
199	0x3cb73e6b	0.02236863

network_body.linear_encoder.seq_layers.2.weight f4 [200, 200]
0	0xbb8a25f8	-0.004215952
1	0x3cbca694	0.02302865
2	0xbde9b128	-0.11410743
3	0x3d0a7bab	0.033809345
4	0x3d58b108	0.052903205
5	0xbd62c519	-0.05536375
6	0xba16b49b	-0.0005748958
7	0xbd67bc5f	-0.05657613
8	0xbc981788	-0.018565908
9	0x3d867a4a	0.065662935
10	0xbdf8fc4a	-0.12157495
11	0x3cf292a1	0.029610934
12	0xbd5a5ab5	-0.05330916
13	0xbbab6744	-0.005230816
14	0xbbb4e27c	-0.005520163
15	0xbd73416f	-0.059388574
16	0x3cad31f8	0.021141991
17	0x3d31a2fb	0.04336832
18	0xbd6f4c57	-0.058422413
19	0x3da113dc	0.07865116
20	0x3d8c39e7	0.068469815
21	0xbdc45936	-0.09587328
22	0x3d58cbd4	0.05292876
23	0xbce88bae	-0.028386917
24	0x3c310cab	0.010806243
25	0xbc87ba9c	-0.016568474
26	0x3d95439f	0.07288288
27	0xbd5e7780	-0.054313183
28	0x3d60c8cf	0.054879006
29	0x3d840c81	0.064476974
30	0x3d9d3660	0.07676387
31	0x3de9dc9e	0.114190325
32	0x3c81b15f	0.015831647
33	0x3d8e93d4	0.0696179
34	0xbc1c690f	-0.009546532
35	0xbafd0f6e	-0.0019306967
36	0x3e084a01	0.1330948
37	0x3d2ef7c0	0.04271674
38	0xbb2b619b	-0.0026150707
39	0x3d388719	0.045050714
40	0xbe00dd43	-0.12584405
41	0xbdf64836	-0.12025492
42	0xbd0cd9b9	-0.034387324
43	0xbda02e66	-0.0782135
44	0xbd0c8dd3	-0.03431494
45	0xbd3e9d32	-0.046536632
46	0x3ccca972	0.024983142
47	0x3d63fe26	0.055662297
48	0xbbcc1bca	-0.0062288987
49	0x3d4bd59d	0.049764264
50	0xbda9741d	-0.082741
51	0x3c76c2f0	0.015061125
52	0x3d8833b1	0.06650484
53	0xbd18d54a	-0.037312783
54	0xbd5537b9	-0.052055094
55	0xbe0c42ce	-0.13697359
56	0x3dead9fa	0.11467357
57	0xbc75bd4a	-0.014998743
58	0xbd86d6b2	-0.06583919
59	0x3c47627f	0.012169479
60	0xbbe14f49	-0.0068759066
61	0xb7e2e979	-2.7050019e-05
62	0x3c88bd16	0.016691726
63	0xbd6903bb	-0.056888323
64	0xbd891870	-0.06694114
65	0x3e118a75	0.14212973
66	0x3d7d380e	0.061821036
67	0xbd4d183a	-0.050071932
68	0xbd895b70	-0.067068934
69	0x3db36d76	0.087611124
70	0x3d7d84f8	0.061894387
71	0xbd74fdc5	-0.059812326
72	0xbd628948	-0.055306703
73	0x3d48b4df	0.049000617
74	0x3d3f69b1	0.046731655
75	0x3dac35ab	0.08408674
76	0x3b6c2911	0.003603522
77	0xbe19dfff	-0.15026854
78	0xbccf2907	-0.025288118
79	0xbdcf7768	-0.10130197
80	0xbcbfda5f	-0.023419557
81	0x3caa061d	0.020754868
82	0xbb972f66	-0.0046138046
83	0x3d9106e3	0.07081392
84	0xbd116695	-0.03549822
85	0x3dcb5f14	0.09930244
86	0x3d4a0302	0.049319275
87	0x3b37f41f	0.0028069091
88	0x3d4ef043	0.0505221
89	0xbd69f2ea	-0.057116427
90	0x3c956bdc	0.018239908
91	0x3dae0bf6	0.08498375
92	0xbdbe098d	-0.092791654
93	0x3c2eb30a	0.010662803
94	0xbc2b3529	-0.010449686
95	0xbe294b8e	-0.16532728
96	0x3d012831	0.03153247
97	0xbd357b52	-0.04430706
98	0xbd1c60e7	-0.03817835
99	0xbdbe4838	-0.092911184
100	0x3d809998	0.06279296
101	0x3d5b9ddb	0.05361734
102	0x3be6b0ec	0.0070401337
103	0xbc3fb8b1	-0.011701749
104	0x3e179feb	0.14807098
105	0x3c204d37	0.009784034
106	0xbcaf1225	-0.021370957
107	0xbe13205d	-0.14367814
108	0xbbc85eb4	-0.006114805
109	0xbe2e5474	-0.17024404
110	0x3d2e4845	0.04254939
111	0x3e2dd18c	0.16974467
112	0x3c3c2b98	0.011485003
113	0xbc9ef33c	-0.019403093
114	0x3bc8e81e	0.006131186
115	0xbe49f13b	-0.19720928
116	0xbd9a9aac	-0.075490326
117	0x3c6ac984	0.014330272
118	0xbe2b3893	-0.167208
119	0x3cfec051	0.031097563
120	0xbc9692c7	-0.018380536
121	0x3d50a99d	0.050943006
122	0x3daa4570	0.083140254
123	0x3d7e6007	0.062103298
124	0xbd2bf450	-0.04198104
125	0xbc6bbdf6	-0.014388552
126	0x3e0a9316	0.13532671
127	0x3cd9336f	0.026513783
128	0xbddc2ac9	-0.10750348
129	0xbd781040	-0.060562372
130	0x3c64900f	0.013950362
131	0xbdad306c	-0.08456501
132	0xbe01b8a7	-0.12668096
133	0xbd8c8959	-0.068621345
134	0xbdae3119	-0.085054584
135	0xbd74ad1b	-0.0597354
136	0x3d01ed59	0.031720493
137	0x3d75eff6	0.060043298
138	0xbc9afbec	-0.018918954
139	0xbd800c58	-0.062523544
140	0x3cba335f	0.022729574
141	0x3db23436	0.08701365
142	0x3dd9a634	0.10627404
143	0x3c96d479	0.018411862
144	0xbdaa4e27	-0.083156876
145	0x3d748d20	0.0597049
146	0x3da2929b	0.07938119
147	0x3de9405a	0.11389227
148	0xbac71caf	-0.0015191043
149	0x3dacc9e1	0.08436943
150	0x3d0b12c0	0.03395343
151	0xbd7a5e0e	-0.061124854
152	0x3bbcee20	0.0057656914
153	0xbc74fc88	-0.014952786
154	0x3d1e0921	0.038582925
155	0x3dcfc209	0.10144431
156	0x3d3c473e	0.04596638
157	0xbdab5f80	-0.083678246
158	0x3c5238b0	0.012830898
159	0x3d339297	0.04384097
160	0xbdd776e9	-0.10520727
161	0xbc701bab	-0.014655034
162	0xbbfa3ce0	-0.0076366514
163	0xbd61328a	-0.05497984
164	0xbe395fa3	-0.18102889
165	0x3de78342	0.11304332
166	0x3e29ad70	0.16570067
167	0x3da3a5e8	0.079906285
168	0x3c61ccfd	0.013781783
169	0x3d99e980	0.0751524
170	0x3d59cf1c	0.05317603
171	0x3e06eb73	0.13175754
172	0xbd69c0fc	-0.05706881
173	0x3d27a9f3	0.04093356
174	0x3d8bbd8c	0.068232626
175	0x3d1ed531	0.038777534
176	0x3dd79d52	0.10528053
177	0x3d6804c5	0.056645174
178	0xbda5641b	-0.08075734
179	0x3ceb8143	0.02874816
180	0xbdd00c7e	-0.10158633
181	0xbca65348	-0.020303383
182	0xbdfbe073	-0.1229867
183	0x3ce2f454	0.027704395
184	0xbd7fe1d4	-0.062471226
185	0xbd17e25e	-0.037081115
186	0xbe252e4f	-0.16130947
187	0xbcbfd055	-0.02341477
188	0x3d8a5091	0.06753648
189	0x3d765451	0.060139004
190	0xbd81c761	-0.06336857
191	0xbc79cb75	-0.015246262
192	0xbddb1c47	-0.10698753
193	0xbd1c3810	-0.038139403
194	0xbd3cd6c8	-0.04610327
195	0xbc5b1505	-0.013371711
196	0x3c7bf536	0.015378287
197	0x3d81231b	0.06305524
198	0x3d08239b	0.03323708
199	0x3d60446f	0.054752763
200	0xbcaa2960	-0.020771682
201	0xbdc019df	-0.093799345
202	0xbd2547b2	-0.040351577
203	0x3e05664c	0.13027304
204	0x3d9780ee	0.07397638
205	0xbcc439a7	-0.023953272
206	0x3d169ea7	0.036772396
207	0xbd9b2c33	-0.0757679
208	0x3cc16015	0.023605386
209	0xbdc06fad	-0.093963005
210	0x3e01ad28	0.1266371
211	0xbd893fcb	-0.06701621
212	0x3d9fe2cd	0.07806931
213	0x3d93e78d	0.07221899
214	0xbd409037	-0.047012534
215	0x3d29fc86	0.04150059
216	0x3d97c103	0.07409861
217	0x3d20a955	0.039223988
218	0xbd5063b5	-0.050876338
219	0xbdd6abed	-0.10482011
220	0xbce01b66	-0.027356815
221	0xbd9ed712	-0.07755865
222	0x3cf16258	0.02946584
223	0xbcfd2d71	-0.030905457
224	0xbc9cc64b	-0.019137522
225	0x3d13b479	0.036060784
226	0x3da6ec35	0.08150522
227	0xbd3344a4	-0.043766633
228	0x3cb87f5b	0.022521665
229	0x3d89186b	0.066941105
230	0xbddafdfa	-0.106929734
231	0xbde8f35b	-0.11374541
232	0x3c0ceb2c	0.008600991
233	0xbd84b01d	-0.064789034
234	0x3a12379a	0.0005577743
235	0x3ddb192e	0.10698162
236	0x3d1e5bf0	0.038661897
237	0xbcf55db3	-0.029951906
238	0xbbb88062	-0.005630539
239	0x3d99aa6c	0.075032085
240	0x3cfaa8d6	0.030598085
241	0x3d98f3db	0.07468387
242	0x370a692c	8.249928e-06
243	0xbba5a367	-0.0050548795
244	0x3d66d5c3	0.056356203
245	0xbd3f1571	-0.046651307
246	0x3d419fc4	0.047271505
247	0xbd7db96b	-0.061944406
248	0xbdf561b9	-0.1198153
249	0xbe104f35	-0.14092715
250	0x3b1b8825	0.0023732272
251	0x3d41df9f	0.047332402
252	0xbd34d5ff	-0.044149395
253	0x3d57159b	0.05251084
254	0x3e17f4f1	0.14839531
255	0x3e04267c	0.12905306
