Assets/Networks/self1/AgentFastRed.onnx (onnx, 238908 bytes, 9 tensors)

action_model._continuous_distribution.log_sigma f4 [1, 3]
0	0xbc69e28b	-0.014275203
1	0xbc9cd70e	-0.019145515
2	0xbda491b2	-0.08035602

action_model._continuous_distribution.mu.bias f4 [3]
0	0x3ba5170c	0.005038148
1	0xb9dbef54	-0.00041949248
2	0xbaeac54a	-0.001791158

action_model._continuous_distribution.mu.weight f4 [3, 200]
0	0xb91f851b	-0.00015213007
1	0x3b873db8	0.0041272305
2	0xbcca612c	-0.024704538
3	0xbc26f27e	-0.010189651
4	0xbc0568d2	-0.008142667
5	0xbccf399d	-0.025296027
6	0xbb9cc265	-0.004783916
7	0xbc338e66	-0.010959243
8	0xbce7008e	-0.028198507
9	0xbcf87143	-0.030327445
10	0xbb451968	-0.0030074958
11	0xbd145a82	-0.036219127
12	0x3ca241b1	0.019806715
13	0xbc922f68	-0.01784487
14	0x3c711445	0.014714305
15	0x3cb4afaa	0.02205642
16	0xbb8f2497	-0.0043683755
17	0x3ceced80	0.028921843
18	0x3d353e11	0.044248644
19	0x39cac2a0	0.0003867345
20	0xbd1cc7cd	-0.038276482
21	0xbbcd0df5	-0.0062577673
22	0xbcb5f4a2	-0.022211377
23	0xbc84f470	-0.016229838
24	0x3cba223a	0.022721399
25	0xbd0aad3a	-0.033856608
26	0xbade1b4a	-0.0016945389
27	0xbd5a7481	-0.053333763
28	0xbb4a52ac	-0.003087203
29	0xbb9382eb	-0.0045016906
30	0xbd014f33	-0.03156967
31	0xbaa84657	-0.0012838346
32	0xbce78034	-0.028259374
33	0xbce8ed48	-0.028433457
34	0xbc5587d7	-0.013032875
35	0xbc3493eb	-0.0110215945
36	0x3d16547a	0.036701657
37	0xbc54fab7	-0.012999228
38	0x3c383621	0.011243374
39	0xbd127b2d	-0.035762
40	0xbc1c8554	-0.009553272
41	0x3c746826	0.014917409
42	0xbcd03459	-0.025415586
43	0x3c631805	0.013860707
44	0xbc963537	-0.018335922
45	0x3c1d3fca	0.009597728
46	0x3c345ed9	0.011008942
47	0xbc63fa09	-0.0139145935
48	0x3bd01d76	0.0063511683
49	0xbbae6111	-0.00532163
50	0x3cb32c3b	0.021871677
51	0x3cc515e3	0.024058288
52	0xbc9c993b	-0.019116035
53	0x3bcf037c	0.006317554
54	0xbc26b400	-0.010174751
55	0x3c871f76	0.016494494
56	0x3bbf1862	0.005831764
57	0xbd3629da	-0.044473507
58	0x3c451a93	0.012030262
59	0xbcb25878	-0.0217707
60	0xbd52c77c	-0.051459774
61	0xbc26a51d	-0.010171202
62	0xbc677b4c	-0.014128517
63	0x3d206136	0.039155208
64	0xbc6d4059	-0.014480674
65	0x3cd024ab	0.02540811
66	0xbca3c2e7	-0.019990398
67	0x3b8a68e0	0.004223928
68	0x3b0b49df	0.0021253747
69	0xbcbc8534	-0.023012735
70	0xbb2856d8	-0.0025686529
71	0xbc98fd16	-0.018675368
72	0xba0a6d60	-0.00052805804
73	0xbba0781c	-0.0048971307
74	0xba89739b	-0.0010486724
75	0x3cbdcfa1	0.023170294
76	0xbd22b35e	-0.03972184
77	0xbc5f9eab	-0.013648669
78	0xbaa4794c	-0.0012548356
79	0xbd11e140	-0.035615206
80	0x3c96df4e	0.018417027
81	0xbbe7f96f	-0.0070792953
82	0xbc9921ad	-0.018692816
83	0xbd1e2612	-0.038610525
84	0x3c4adaaa	0.012381235
85	0x3a700b7f	0.00091569865
86	0xbc3dcc0b	-0.011584292
87	0xbc92be6d	-0.017913068
88	0x3cf371a6	0.029717278
89	0xbba3d96f	-0.0050002853
90	0x3c309849	0.010778495
91	0x3ccca86a	0.02498265
92	0xbbb10e7b	-0.0054033375
93	0x3c7b3612	0.015332716
94	0x3c2b086d	0.010439021
95	0x3c45b894	0.012067933
96	0x3b0ce5d9	0.0021499305
97	0xbcb94135	-0.022614101
98	0x3c7b853f	0.015351593
99	0xbccefc8d	-0.02526691
100	0xbb621fd3	-0.0034503832
101	0xbbb5cf3c	-0.005548386
102	0x3c3c204f	0.011482312
103	0xbbf5c8f9	-0.0075007644
104	0xbc7c56e3	-0.015401575
105	0xbc5aa982	-0.013346078
106	0x3b827c5d	0.0039821104
107	0xbc53776f	-0.012906893
108	0x3c60d9b7	0.013723782
109	0xbc2fe45e	-0.010735599
110	0x3be3bb90	0.0069498494
111	0xbc7c9625	-0.015416657
112	0xbc8de766	-0.017322253
113	0xbc4a3ad5	-0.012343128
114	0xbc4d2733	-0.012521553
115	0x3d260f0d	0.040541697
116	0x3ce81861	0.028331937
117	0xbca7902f	-0.020454494
118	0xbc961974	-0.018322684
119	0x3c3d7852	0.011564331
120	0x3c08aa6a	0.008341411
121	0x3b1fb13b	0.0024367112
122	0xbd00c585	-0.03143837
123	0xbbbf83d9	-0.005844575
124	0x3c67c981	0.014147163
125	0x3c44a091	0.012001173
126	0xbb2d208f	-0.0026417112
127	0xbb83c394	-0.0040211175
128	0x3acdefeb	0.001571176
129	0x3b4e84de	0.00315123
130	0x3b8cfb42	0.004302413
131	0xbcdae07b	-0.026718369
132	0x3bacc1c4	0.005272122
133	0xbcdbda4d	-0.026837492
134	0xbc0d549f	-0.008626132
135	0xbd2d64e4	-0.042332545
136	0x3c4a9639	0.012364917
137	0xbcfbb524	-0.030726023
138	0x3c2a6a48	0.010401316
139	0xbce8bf15	-0.028411428
140	0x3c3f8c59	0.011691176
141	0xbc44db8d	-0.012015236
142	0xbc6b9828	-0.014379539
143	0xbb3686d4	-0.002785136
144	0xbc2e90f5	-0.010654678
145	0xbcf6aef5	-0.030112723
146	0x3bd5a42a	0.006519814
147	0xbca52ab5	-0.020161966
148	0xbcc432ef	-0.023950068
149	0xbc003a79	-0.007826441
150	0xbc27c3c2	-0.010239543
151	0xbc914490	-0.017732888
152	0x3c95fc02	0.018308643
153	0xbc24f8f2	-0.010069119
154	0xbb206128	-0.0024471972
155	0x3c88c966	0.016697597
156	0x39d3446d	0.00040296037
157	0xbd2baf08	-0.04191497
158	0x397dbd47	0.00024198472
159	0x3ce00110	0.027344257
160	0x3c4ef735	0.012632181
161	0xbc2d7539	-0.01058703
162	0x3cd497dd	0.02595132
163	0xbb8e0bbc	-0.004334895
164	0x3ac0cfce	0.0014710368
165	0x3c504895	0.012712617
166	0x3afb5bc5	0.001917713
167	0x3cfc1217	0.030770345
168	0x3bee39ab	0.007270058
169	0xbb36f760	-0.0027918443
170	0x3ca24e3e	0.0198127
171	0xbc91d6cb	-0.017802617
172	0xbc5a1f60	-0.013313144
173	0x3c247cc6	0.010039514
174	0x3bb3b93a	0.005484727
175	0x3c9b23d6	0.018937986
176	0x3cea2a9f	0.028584776
177	0xbb301879	-0.0026870056
178	0x39bacd98	0.00035629864
179	0x3b433ca0	0.0029790774
180	0x3c32c53a	0.01091128
181	0xbca96ec8	-0.020682707
182	0xbc37bb66	-0.011214113
183	0xbbd94106	-0.006630066
184	0x3c337af4	0.010954607
185	0xbcaa6d5a	-0.020804096
186	0x3d8cc84a	0.068741396
187	0xbbabc302	-0.0052417526
188	0xbc73068a	-0.014833102
189	0xbc9d8904	-0.019230373
190	0xbc4491b3	-0.011997628
191	0xbcfd8a91	-0.030949863
192	0xbc659948	-0.014013596
193	0xbccecbbc	-0.025243632
194	0xbd362247	-0.044466283
195	0x3bf49c44	0.0074649174
196	0x3c33fc51	0.01098545
197	0xbca8eeae	-0.020621624
198	0xbc993c89	-0.018705623
199	0xbc80a491	-0.015703471
200	0x3cda81c4	0.026673205
201	0xbd1bfdfb	-0.03808401
202	0x3c446443	0.011986795
203	0xbbed274a	-0.0072373496
204	0xbbbeec2e	-0.0058264947
205	0x3c6a782e	0.01431088
206	0xbcca8839	-0.02472316
207	0x3b820a12	0.0039684856
208	0x3c172c9b	0.009226943
209	0x3c92bd33	0.017912483
210	0xbbfd0664	-0.007721709
211	0x3b1ca826	0.0023903935
212	0x3ca7a105	0.020462522
213	0xbb892366	-0.004185128
214	0x3b9b5e3a	0.0047414573
215	0xbcc383e7	-0.023866607
216	0x3cf15ad8	0.029462263
217	0x3d1dcb13	0.038523745
218	0x3b099d3d	0.0020998262
219	0xbd0dcc22	-0.034618504
220	0x3b0ce8a9	0.002150098
221	0xbca97430	-0.020685285
222	0xbb2d9457	-0.0026486123
223	0xba3d3259	-0.000721728
224	0x3be054ba	0.0068460377
225	0x3c6d39f4	0.014479149
226	0x3cf8457e	0.030306574
227	0x3c4107ff	0.011781692
228	0x3c663ae1	0.014052124
229	0x39ced745	0.0003945177
230	0xbb21ba00	-0.0024677515
231	0x3d42a0bf	0.04751658
232	0x3adf5533	0.0017038941
233	0xbb9ec5f6	-0.004845376
234	0x3c03db81	0.008047939
235	0x3d54cbbd	0.051952112
236	0xbc9b301a	-0.018943835
237	0xbcd17941	-0.025570514
238	0xbc330c7c	-0.0109282695
239	0x3ce7a3c7	0.028276337
240	0xbd3d89e6	-0.04627409
241	0xbcc01583	-0.023447758
242	0xbc138f4e	-0.0090063345
243	0xbcafa3e7	-0.02144046
244	0x3bba2766	0.005680966
245	0xbcd0542c	-0.025430761
246	0xbd0b7afc	-0.034052834
247	0x3cd3defa	0.02586316
248	0xbc4aa30a	-0.012367973
249	0xbcb9d977	-0.022686703
250	0xbbdaf1b4	-0.0066816453
251	0x3d0dac78	0.034588307
252	0xbc09e4f5	-0.008416404
253	0xbadbeb47	-0.0016778492
254	0x3c44ff74	0.012023795
255	0xbb3a0ac3	-0.0028387762

action_model._discrete_distribution.branches.0.bias f4 [2]
0	0x3c97bcf0	0.01852271
1	0xbc97bced	-0.018522704

action_model._discrete_distribution.branches.0.weight f4 [2, 200]
0	0x3b273a0c	0.0025516776
1	0x3b31761b	0.0027078453
2	0xbc3a07f2	-0.011354433
3	0xbc603d70	-0.013686523
4	0x3c9865ab	0.018603167
5	0x3cc6c024	0.024261542
6	0x3cde33a3	0.027124232
7	0xbc09c1b5	-0.008408
8	0x3bde2568	0.0067793615
9	0x3c57de06	0.013175493
10	0xbc5b953d	-0.01340228
11	0xbcda625d	-0.026658231
12	0xbcf2a9bd	-0.029621953
13	0xbca1264d	-0.019671584
14	0x3c420cd7	0.011843882
15	0xbbfaeae3	-0.007657395
16	0xbccd1271	-0.025033208
17	0xbb4e7871	-0.0031504894
18	0x3c793b60	0.01521191
19	0xbbbfa8b1	-0.005848967
20	0x399961c7	0.00029255284
21	0x3c8efc42	0.01745427
22	0x3b9d8774	0.004807407
23	0x3c348ea9	0.011020341
24	0xbd170a8d	-0.036875296
25	0x3ba0251a	0.0048872354
26	0xbce52150	-0.027969986
27	0xbcc3f4e5	-0.023920486
28	0xbc314f5d	-0.010822144
29	0xbc1a2707	-0.009408719
30	0xbc1f9644	-0.009740416
31	0x3c5dfeb0	0.013549492
32	0xbca67f20	-0.02032429
33	0x3c06d84e	0.008230282
34	0xbb875223	-0.0041296645
35	0xbbc9cbcf	-0.006158329
36	0xbc08073c	-0.008302506
37	0xbc478ba2	-0.012179287
38	0xbb6583c4	-0.0035021165
39	0xbaf69548	-0.00188128
40	0xba5c1640	-0.00083956495
41	0xbc091f1d	-0.008369234
42	0x3c0af3c3	0.008480969
43	0xbc3125f7	-0.010812274
44	0x3c4e76b5	0.012601544
45	0xbcd0f59f	-0.025507746
46	0x3b63ea09	0.0034776947
47	0xbc706ae4	-0.014673922
48	0x3bcd96b5	0.006274069
49	0x3b88c601	0.0041739945
50	0xbcc7afdf	-0.024375854
51	0x3b6ac0a3	0.0035820387
52	0x3ced3e47	0.02896036
53	0xba1e141e	-0.00060302194
54	0xbbb32615	-0.005467186
55	0xbd24da6e	-0.040247373
56	0xbb2166c1	-0.0024627896
57	0xbc23a6af	-0.009988471
58	0xbd08d531	-0.03340644
59	0x3d04c1c0	0.032411337
60	0xbb71f165	-0.0036917564
61	0xbc588318	-0.013214849
62	0x3b671721	0.0035261589
63	0x3cac4810	0.021030456
64	0x3c5e4f23	0.013568672
65	0x3c9d6d90	0.019217283
66	0x3ccd4f10	0.025062114
67	0x3bb8017c	0.0056154113
68	0x3cbb77b7	0.022884233
69	0xbbef8928	-0.0073100515
70	0x3c54b664	0.012982938
71	0xbbe6f22a	-0.007047911
72	0xbb2101c6	-0.0024567707
73	0x3d0b1e2e	0.03396433
74	0xba3bf69e	-0.0007170233
75	0x3c1f8d46	0.009738272
76	0x3b73bea5	0.003719249
77	0x3b42d027	0.002972612
78	0x3c13df89	0.009025463
79	0xbccaa064	-0.024734683
80	0xbca996dc	-0.020701818
81	0xbb8c1096	-0.004274438
82	0xbb020b46	-0.0019843145
83	0x3c8d4ea7	0.017249418
84	0xbcc928e9	-0.02455564
85	0x3cbe9ec1	0.02326906
86	0xbc1a7f7f	-0.0094298115
87	0xbb128d9c	-0.0022362238
88	0xbc2071a6	-0.009792721
89	0x3c1f3956	0.00971826
90	0xbc722791	-0.014779941
91	0x3c76a922	0.015054973
92	0xbbd6d7cb	-0.0065564862
93	0xbd0030a2	-0.03129638
94	0xbcb90be4	-0.022588678
95	0x394e0232	0.00019646509
96	0xbaa4310f	-0.0012526828
97	0x3c1d8ab2	0.009615587
98	0xbbd1d23c	-0.0064032357
99	0xbc436190	-0.011925116
100	0x3ccb792c	0.024838053
101	0x3d1c8409	0.038211856
102	0x3c14c6d8	0.009080611
103	0x3c81935c	0.015817337
104	0x3c43aa1f	0.0119424155
105	0x3aaa616d	0.0012999006
106	0x3c27a844	0.010232989
107	0x3cdecbc3	0.02719677
108	0x3c95e004	0.018295296
109	0x3bda2983	0.0066577806
110	0x3b537977	0.0032268444
111	0x3bdf4875	0.0068140575
112	0xbc24e38c	-0.010064017
113	0xbca78928	-0.020451143
114	0x3b2f4486	0.0026743724
115	0x3c7c226c	0.015389066
116	0x3c64ce76	0.01396524
117	0xbb8c9677	-0.0042903977
118	0x3d0581d3	0.032594513
119	0x3a1d873d	0.0006009227
120	0xbc16b42e	-0.009198232
121	0x3c98424e	0.018586304
122	0x3bdefb15	0.0068048337
123	0x3c43e4a0	0.011956364
124	0xbca76d8a	-0.020437974
125	0xbc2412e8	-0.010014273
126	0x3bfe6353	0.007763305
127	0xbbcbd483	-0.0062204017
128	0xbd09a198	-0.033601373
129	0xb9e175a0	-0.00043002982
130	0x3bd97e19	0.0066373465
131	0xbbf245e5	-0.007393586
132	0x3cd4a911	0.025959523
133	0x3d01af3b	0.031661253
134	0xba9d4350	-0.001199821
135	0xbc95950a	-0.018259544
136	0xbc724f8f	-0.014789476
137	0x3cd6132b	0.026132187
138	0x3c512391	0.012764827
139	0x3ccc8ab2	0.024968479
140	0x3cccf00d	0.025016809
141	0x3be9354f	0.0071169506
142	0xbb4132e1	-0.002947979
143	0xbb9f2987	-0.0048572454
144	0x3b56c210	0.003276948
145	0x3c7ef2c0	0.015560806
146	0xbc043465	-0.008069132
147	0xbbd2275b	-0.006413383
148	0xbbf17c46	-0.007369551
149	0xb9bbd6ae	-0.00035827368
150	0xbca34a5d	-0.01993292
151	0x3c58b379	0.013226383
152	0x3d0a340b	0.03374104
153	0x3b4c4d28	0.0031173918
154	0xbc5bd06d	-0.013416392
155	0x3c99e636	0.018786531
156	0xbc65e439	-0.014031463
157	0x3bf23895	0.007391999
158	0xbcf9f2d2	-0.030511294
159	0x3c5a534d	0.0133255245
160	0xbc71b4f5	-0.014752616
161	0x3cb47859	0.022030042
162	0x3b9b59ec	0.004740944
163	0xbcd63515	-0.026148358
164	0xbd0c2b51	-0.034220997
165	0x3c2c4da8	0.010516562
166	0xbc66a6d0	-0.014077857
167	0x3b8892ae	0.004167876
168	0x3c9c112f	0.019051163
169	0xbcc55759	-0.024089502
170	0x3cb2107a	0.021736372
171	0x3ca80905	0.020512113
172	0xbca6a882	-0.020344023
173	0xbcb27dfa	-0.021788586
174	0xbc6c506d	-0.014423472
175	0x3c056f2a	0.008144179
176	0x3caa17c2	0.020763282
177	0x3b0c7382	0.0021431153
178	0xbbe5abee	-0.007009021
179	0xbae95055	-0.001780043
180	0xbcb2883b	-0.021793475
181	0xbbf99227	-0.0076162997
182	0xbc3ac8ca	-0.011400411
183	0x3aa15004	0.0012307172
184	0x3b3339b9	0.0027347638
185	0xbcbac065	-0.022796819
186	0xbc1dab6e	-0.009623392
187	0x3c9cb0bc	0.019127242
188	0x3ad7a682	0.0016452821
189	0x3cc37241	0.023858191
190	0xba2d1d59	-0.00066037994
191	0xbb7bc285	-0.0038415503
192	0x3a51fcf0	0.0008010408
193	0x3c200d70	0.009768829
194	0x3c8263a2	0.01591665
195	0x3cad8927	0.021183563
196	0xbc1e910e	-0.009678138
197	0xba4d01cd	-0.0007820398
198	0x3c39f352	0.011349516
199	0xba3762dc	-0.0006995627
200	0xbb63f4d3	-0.0034783378
201	0xbab97fa1	-0.0014152416
202	0x3b7ad871	0.0038275982
203	0x3ce8dd90	0.028425962
204	0xbc985abb	-0.018597951
205	0xbcad6442	-0.02116597
206	0xbd083fd7	-0.033264007
207	0x3c4bfda5	0.01245061
208	0x3b0136a3	0.0019716404
209	0x3a2910b6	0.00064493285
210	0x3c3674ee	0.011136277
211	0x3c3d2f27	0.0115468865
212	0x3cbd1987	0.023083461
213	0xbb879a63	-0.0041382774
214	0xbbf02765	-0.007328915
215	0x3cdbfd0f	0.026854066
216	0x3d1b8870	0.037971914
217	0xbc59d204	-0.0132947005
218	0xbc22a8fe	-0.009927986
219	0x3cb55410	0.02213481
220	0x3b6d443a	0.0036203996
221	0xbc2c6d85	-0.010524158
222	0xbc438c21	-0.011935265
223	0xb9c4fddd	-0.00037573176
224	0x3c118f8f	0.008884325
225	0xbbafb004	-0.005361559
226	0x3d0d7fe7	0.034545805
227	0x3cec7b50	0.028867394
228	0x3bf9f2d8	0.007627826
229	0x3c18a36e	0.009316308
230	0x3b7322dd	0.0037099638
231	0x3c281cac	0.010260742
232	0x3c90eaaa	0.017690022
233	0xbc33cfab	-0.010974805
234	0xbbe7b854	-0.007071534
235	0x3b139b65	0.0022523042
236	0x3a8b6956	0.0010636251
237	0x3a5c3488	0.0008400162
238	0x3b126340	0.002233699
239	0xbaad3140	-0.001321353
240	0xb9b287cf	-0.0003405199
241	0x3b52256b	0.003206576
242	0xbc1c686a	-0.009546379
243	0x3cc08b4e	0.023503926
244	0xba8b68a3	-0.0010636043
245	0x3d2a2648	0.041540414
246	0xbb750930	-0.003738951
247	0x3c62f73e	0.013852892
248	0xbce54557	-0.027987165
249	0x3b829d01	0.0039860015
250	0x3c870702	0.016482834
251	0x3bba6f02	0.0056895027
252	0xbd01231b	-0.03152762
253	0x3c333d08	0.010939844
254	0xbac764a6	-0.0015212491
255	0x3d195438	0.037433833

network_body.linear_encoder.seq_layers.0.bias f4 [200]
0	0x3a934a29	0.0011237311
1	0x3c62daf2	0.013846146
2	0xbc1fae72	-0.009746181
3	0xbb55ad90	-0.0032604672
4	0x3ca1818a	0.01971509
5	0x3bdc2766	0.006718564
6	0x3bc9e96d	0.0061618597
7	0x3c6c555a	0.014424646
8	0xbbdb17b5	-0.0066861757
9	0xbc528e2f	-0.012851282
10	0x3b103bee	0.0022008377
11	0x3ca71788	0.020396963
12	0x3c89288d	0.016742969
13	0xbb027162	-0.0019904007
14	0x3c9098d9	0.017651008
15	0xbbf61a17	-0.0075104344
16	0x3c84fce4	0.016233869
17	0xbc957b36	-0.018247228
18	0x3cd41667	0.025889589
19	0xbb292528	-0.00258095
20	0xbc0bb096	-0.008525988
21	0x3ca7af86	0.020469438
22	0x3b24c6d6	0.002514293
23	0x3c6ba800	0.014383316
24	0x3cac9ed8	0.021071836
25	0xbc287d16	-0.010283729
26	0x3bcd91ab	0.0062734685
27	0x3bea1d73	0.007144624
28	0x3cfcbe1b	0.030852368
29	0x39fa0392	0.00047686376
30	0x3c5ea3a0	0.013588816
31	0x3c2bcffc	0.010486599
32	0x3caa4c72	0.020788405
33	0xbbefbb6f	-0.007316045
34	0xbc0b2f02	-0.008495094
35	0x3c895c6c	0.016767703
36	0xbc34063f	-0.010987817
37	0xbad22109	-0.0016031574
38	0x37d41cff	2.5285872e-05
39	0xbb1dc016	-0.002407079
40	0x3bc52c79	0.0060172644
41	0x3cc38485	0.023866901
42	0x3ba5bf1f	0.005058184
43	0x39026f15	0.00012439147
44	0x3b0c5c77	0.0021417418
45	0x3c0d7a4d	0.008635116
46	0x3a5d43a2	0.0008440559
47	0x3c6b6d57	0.01436933
48	0x3d051d8a	0.032498874
49	0x3cab71d0	0.020928293
50	0x3d0f3ab4	0.034968093
51	0x3bb84dcb	0.005624508
52	0x3a39ab3e	0.0007082707
53	0x3a8f6edb	0.0010943072
54	0x3c3a5919	0.011373782
55	0x3c858626	0.016299319
56	0x3c97e277	0.018540604
57	0xbc26c1ed	-0.010178071
58	0x3ceab4cc	0.028650664
59	0x3c9a3fba	0.018829215
60	0x3c2bf7d5	0.0104960995
61	0x3cb81518	0.022470996
62	0x3bb527b0	0.0055284128
63	0x3c674665	0.014115904
64	0x3c70998d	0.014685047
65	0x3bc4b3c7	0.0060028764
66	0x3bd2eeb9	0.0064371494
67	0xbc24b633	-0.010053205
68	0x3ba7e183	0.0051233186
69	0x3bd417f3	0.0064725815
70	0xbb806760	-0.0039185733
71	0x3cca27df	0.024677215
72	0x3ba6c6a4	0.005089598
73	0x3b923ebe	0.004463046
74	0x3bfae879	0.0076571074
75	0xba1bf154	-0.00059487415
76	0x3c1e15b4	0.009648729
77	0xbb100083	-0.0021972961
78	0xbcc52ca2	-0.024069134
79	0x3ca19691	0.019725116
80	0x3bf46c0a	0.0074591683
81	0xb8d4c02b	-0.00010144742
82	0x3c90e644	0.017687924
83	0xba2a71ba	-0.0006501932
84	0x3ab7b92f	0.0014016981
85	0x3ca3a318	0.01997523
86	0xba9d9d96	-0.0012025114
87	0xba83ab8f	-0.0010045635
88	0xbae39fd3	-0.0017366357
89	0x3a178c65	0.0005781113
90	0x3c6a7de0	0.0143122375
91	0x3c5a33e5	0.013318037
92	0x3cdc0e7f	0.026862381
93	0x3ca71005	0.02039338
94	0x3b10e714	0.002211039
95	0x3c1a3e58	0.009414278
96	0x3c219729	0.0098627
97	0x3c524056	0.012832722
98	0x3ca7da4b	0.020489832
99	0xbca9b355	-0.020715395
100	0x3cb796ce	0.022410776
101	0xbb862bfd	-0.0040945993
102	0x3bcac0bf	0.006187528
103	0xbc0d4b54	-0.008623917
104	0x3c3b59d9	0.011434996
105	0xbc9e148a	-0.019296903
106	0x3cf4e706	0.029895317
107	0x3caac6ed	0.020846808
108	0x3c70a6c1	0.014688195
109	0xbab62b29	-0.0013898361
110	0x3ba392f8	0.0049918853
111	0x3c31f355	0.0108612375
112	0xbb90fba3	-0.0044245287
113	0x3a83ec1c	0.0010064873
114	0x3c75346e	0.0149661135
115	0x3a190d10	0.0005838433
116	0x3c769a9f	0.015051513
117	0x3c0e03cf	0.0086679
118	0x3c35aaf2	0.01108812
119	0xbaaff70a	-0.0013425064
120	0x3c4c7f10	0.012481466
121	0x3aa5ad17	0.0012640086
122	0x3b923458	0.0044618063
123	0x3c60c954	0.013719875
124	0x3c494328	0.012284078
125	0x3b2c35a0	0.002627708
126	0x3c10b31e	0.008831767
127	0x3c507fdc	0.012725797
128	0x3c9b7728	0.018977717
129	0xbce8dce8	-0.028425649
130	0x3c0cb59f	0.008588224
131	0x3ccd4bc1	0.025060536
132	0x3c4c95c2	0.012486877
133	0x3ac03bff	0.0014666318
134	0xbca635d8	-0.020289347
135	0x3c390c72	0.011294471
136	0x3cce16bc	0.025157325
137	0x3c3d1898	0.011541508
138	0x3cb38ccc	0.021917723
139	0xbb74d991	-0.0037361125
140	0xbc5877ef	-0.013212188
141	0xbc9b99ed	-0.018994296
142	0xba9e74be	-0.0012089235
143	0xbc0b0c46	-0.008486813
144	0x3c8d36b5	0.017238
145	0x3c5006a6	0.012696898
146	0x3cdd7d76	0.027037363
147	0x3cc58047	0.024109019
148	0x3c38b357	0.011273227
149	0x3c6dcdd5	0.014514406
150	0x3cb76979	0.02238916
151	0xbbbe8292	-0.005813905
152	0x3c29657e	0.010339139
153	0x3c99966d	0.018748486
154	0x3c874b21	0.016515316
155	0x3ccbfbc7	0.02490033
156	0xbc09d801	-0.008413316
157	0xbc4e65a6	-0.012597477
158	0x3c526b69	0.012842991
159	0xbacd430b	-0.0015660239
160	0x3bb551bb	0.0055334247
161	0x3b10b5eb	0.0022081088
162	0xbc6dc689	-0.0145126665
163	0xbb57075d	-0.0032810785
164	0x3ce5fd53	0.028074896
165	0x3cb911fb	0.022591582
166	0x3bad4619	0.0052878973
167	0xbbb2e550	-0.005459465
168	0xbc3d1da4	-0.011542711
169	0x3bcdc894	0.0062800143
170	0x3ccac068	0.02474995
171	0xbc1471b9	-0.009060317
172	0x3c330acd	0.010927868
173	0x3c95f3a2	0.01830465
174	0xb9bb01cc	-0.00035668758
175	0x3cc3cfea	0.023902852
176	0x3c95c117	0.018280549
177	0x3bd83f24	0.006599324
178	0xbacba266	-0.0015536069
179	0x3c25bcd6	0.010115823
180	0x3c660497	0.01403918
181	0xbc7b1cfe	-0.0153267365
182	0x3bdfdfc2	0.006832094
183	0x3bc901cb	0.006134247
184	0x3c51f6fa	0.012815231
185	0xbb30d723	-0.00269837
186	0xbb20126b	-0.002442504
187	0xbc749593	-0.014928239
188	0x3a863d8d	0.0010241732
189	0x3c4083e2	0.011750193
190	0x3a444595	0.0007487175
191	0x3aa29794	0.0012404793
192	0x3cd9e29b	0.026597312
193	0x3ae21c3a	0.0017250844
194	0x3c3f3e6d	0.011672598
195	0x3ce75ab5	0.028241495
196	0x3c8c4391	0.017122062
197	0x3c6e69d7	0.014551601
198	0x3c6b7737	0.014371685
199	0xbb99de4a	-0.0046956884

network_body.linear_encoder.seq_layers.0.weight f4 [200, 88]
0	0x3d5bec3b	0.053692084
1	0x3dbcdf62	0.092222944
2	0x3dca2411	0.0987016
3	0xbe2255c5	-0.15853031
4	0x3bacbd01	0.0052715545
5	0xbe20444a	-0.1565105
6	0xbde2500c	-0.11050424
7	0x3b891271	0.0041831066
8	0xbd232c42	-0.03983713
9	0xbc12b066	-0.0089531895
10	0x3e5884a3	0.21144347
11	0x3db21cac	0.08696875
12	0xbe407b56	-0.18797049
13	0x3badec91	0.005307742
14	0xbe12e5b1	-0.14345433
15	0xbd846396	-0.06464307
16	0xbda2e57a	-0.079539254
17	0x3d01aaff	0.031657215
18	0x3df4e56d	0.11957822
19	0xbdb7f1cf	-0.08981668
20	0x3c1675e1	0.009183378
21	0xbd8cee24	-0.06881359
22	0x3da1504d	0.07876644
23	0xbe9bbb6f	-0.30416438
24	0x3dff3350	0.12460959
25	0xbe49f751	-0.1972325
26	0xbceee457	-0.029161615
27	0x3d7daba0	0.061931252
28	0x3cb09131	0.021553608
29	0xbe132cde	-0.14372584
30	0xbe3ceee4	-0.18450505
31	0xbb9a9579	-0.0047175256
32	0xbd28088f	-0.041023787
33	0x3e3281f8	0.17432392
34	0xbe417b0c	-0.18894595
35	0x3d1abc2e	0.03777712
36	0x3e142e3e	0.14470765
37	0xbe5ade85	-0.21373947
38	0xbd9df055	-0.07711855
39	0xbd95c4fc	-0.073129624
40	0xbd29cdfc	-0.041456208
41	0x3e5618e0	0.20907927
42	0xbd0204a9	-0.031742726
43	0x3e0cf647	0.13765822
44	0xbc132c28	-0.008982696
45	0x3d4bf3f8	0.049793214
46	0xbdb7f700	-0.089826584
47	0xbe7a3c63	-0.24437098
48	0xbd80cae7	-0.062887006
49	0x3dfec05c	0.124390334
50	0xbe152b41	-0.14567281
51	0x3e0c1086	0.13678178
52	0x3c871dfb	0.016493788
53	0xbd8a968a	-0.06766994
54	0x3c7ec31a	0.0155494455
55	0xbe099b00	-0.13438034
56	0xbba09855	-0.004900972
57	0x3d61e748	0.055152208
58	0xbdd78435	-0.10523263
59	0x3d602e41	0.05473161
60	0xbd14d00e	-0.03633123
61	0xbdb813f9	-0.089881845
62	0x3d8d2d9c	0.06893465
63	0x3d3a7989	0.04552606
64	0xbd3413b6	-0.04396411
65	0xbcd02acb	-0.02541103
66	0x3db1eb6f	0.086874835
67	0x3e4e7c7b	0.20164673
68	0xbd870618	-0.06592959
69	0xbdb6abbe	-0.08919476
70	0x3d7d47ea	0.06183616
71	0x3e3441c3	0.17603211
72	0xbb5b6e5f	-0.0033482534
73	0x3d8c7ed9	0.06860132
74	0x3dcfa7f9	0.1013946
75	0x3cf38637	0.029727085
76	0xbe28ebaa	-0.16496149
77	0xbd6a6f2e	-0.057234935
78	0xbd6e3c43	-0.05816294
79	0xbdfd4c25	-0.12368039
80	0x3d7fec20	0.062481046
81	0xbd839b33	-0.06426086
82	0xbe30d084	-0.17267042
83	0xbba4226d	-0.0050089867
84	0xbbf9889e	-0.007615163
85	0xbe3571b6	-0.17719159
86	0x3c511cd7	0.012763224
87	0x3d06bd8e	0.032895617
88	0xbd469f3d	-0.048491705
89	0x3d173ed8	0.036925167
90	0x3e62e65e	0.2215819
91	0x3e42eb96	0.19035181
92	0x3daa620f	0.083194844
93	0x3dd51890	0.104050756
94	0x3e48954f	0.19588207
95	0xbc0034ee	-0.007825119
96	0xbe0a81c5	-0.13526066
97	0xbda36eda	-0.07980128
98	0xbd869e5c	-0.065731734
99	0x3c9653ba	0.01835047
100	0xbcee1896	-0.029064458
101	0x3d98af7c	0.07455346
102	0x3c84731c	0.01616817
103	0x3e28cbd4	0.16484004
104	0x3dc172d8	0.09445733
105	0x3dc1206b	0.09430011
106	0x3db4bea3	0.088254236
107	0x3e356dcf	0.1771767
108	0x3d8333a9	0.06406338
109	0xbce42ad8	-0.02785246
110	0xbdd8dba0	-0.10588765
111	0x3e04a2c6	0.12952718
112	0xbd91ee7c	-0.071255654
113	0xbc79ab2a	-0.015238563
114	0x3dd596a3	0.10429122
115	0x3da68881	0.08131505
116	0x3df121de	0.11774038
117	0xbc708c26	-0.0146818515
118	0xbe2af7b2	-0.16696051
119	0x3b938e44	0.0045030434
120	0x3d97be8a	0.07409389
121	0x3d2289f8	0.03968236
122	0xbe2553fd	-0.1614532
123	0x3e227fa7	0.15869008
124	0xbd899c7e	-0.06719302
125	0x3e49076b	0.19631736
126	0x3e2a6382	0.16639522
127	0xbdd4afcb	-0.10385092
128	0xbd523d06	-0.051327728
129	0xbc0731c8	-0.008251615
130	0xbc054a69	-0.008135417
131	0x3d9259e0	0.071460485
132	0x3c615b3f	0.013754665
133	0x3d94c46e	0.072640285
134	0xbd2b5ce5	-0.041836638
135	0xbc90ac04	-0.017660148
136	0x3d00ee5b	0.031477313
137	0x3c8d2ec6	0.017234217
138	0xbbadb9a5	-0.0053016716
139	0x3e4b8a47	0.19876967
140	0x3d27820a	0.0408955
141	0xbd8b59c2	-0.06804229
142	0x3d89db29	0.067312546
143	0x3d5a8822	0.053352483
144	0x3d94cbbc	0.07265422
145	0x3e4380bd	0.19092079
146	0xbc3d37e3	-0.011548969
147	0x3e13fb33	0.14451294
148	0x3c94cf85	0.01816536
149	0x3d50e4dc	0.050999507
150	0x3e5c3863	0.21505885
151	0xbd3a6d28	-0.045514256
152	0xbe5efd3b	-0.21776287
153	0xbd98f769	-0.07469065
154	0x3e0718a4	0.13192993
155	0xbd8f8d73	-0.07009401
156	0x3df5fd3e	0.12011193
157	0x3c83ceb1	0.01608977
158	0xbdd55f2a	-0.10418542
159	0xbdd8c241	-0.10583926
160	0x3c358a91	0.0110804
161	0x3d937e91	0.07201875
162	0x3e0c235f	0.13685368
163	0x3cbe6cd9	0.023245262
164	0x3d032f80	0.03202772
165	0xbced0119	-0.028931187
166	0x3da49b81	0.080374725
167	0xbdd61d29	-0.104547806
168	0xbd20b334	-0.0392334
169	0xbe6c9e6a	-0.23107305
170	0xbc7dd541	-0.015492738
171	0xbd65f012	-0.056137152
172	0x3e682dab	0.22673671
173	0xbd6f7a50	-0.058466256
174	0x3df20eda	0.11819239
175	0x3b6f0dd3	0.0036476746
176	0x3ace897a	0.0015757524
177	0xbd7460b9	-0.059662554
178	0xbdc668b3	-0.096879385
179	0xbd5deb25	-0.05417933
180	0xbd857830	-0.065170646
181	0x3d1b7884	0.03795673
182	0x3cbea0ed	0.023270095
183	0xbc7d530a	-0.015461693
184	0xbd04a12a	-0.03238026
185	0x3ce5a4c5	0.02803267
186	0xbd5015ca	-0.05080203
187	0x3d223867	0.03960457
188	0x3e42db6d	0.19029017
189	0xbce874d4	-0.02837602
190	0x3e492b3d	0.196454
191	0x3df1d7a1	0.11808706
192	0x3d200c9a	0.039074518
193	0xbe4b2b49	-0.1984073
194	0xbdc553ca	-0.09635122
195	0x3d094da5	0.033521313
196	0xbe6e0b1b	-0.23246424
197	0xbe1af320	-0.15131807
198	0x3e2bd5d2	0.16780785
199	0xbe6d2171	-0.23157288
200	0xbd821bac	-0.06352934
201	0xbd177769	-0.036979113
202	0xbd014321	-0.03155816
203	0x3e06f92b	0.13180988
204	0x3e11da72	0.14243487
205	0x3d9fd006	0.07803349
206	0x3d84a5a0	0.06476903
207	0x3d8f12fb	0.06986042
208	0x3c7a894f	0.015291526
209	0x3e395cd7	0.18101822
210	0x3c753636	0.014966538
211	0x3e2a0835	0.16604693
212	0x3d794bb7	0.060863223
213	0xbc82ce75	-0.015967587
214	0xbd8db3f3	-0.06919088
215	0xbe456bbd	-0.1927938
216	0xbc100820	-0.008791
217	0xbdb3ee91	-0.08785737
218	0xbd725e81	-0.059172157
219	0x3e2c9281	0.16852762
220	0x3c94b20a	0.018151302
221	0xbd987275	-0.07443706
222	0x3c657450	0.014004782
223	0xbe88969b	-0.26677403
224	0xbc40972e	-0.011754794
225	0x3e54e8eb	0.20791976
226	0x3d2aab04	0.041667
227	0xbcb7b5fc	-0.022425644
228	0x3cdffe27	0.027342869
229	0x3d9f18bc	0.077683896
230	0xbdb61f75	-0.08892719
231	0xbca4b8e1	-0.020107688
232	0xbe0eeb48	-0.1395694
233	0xbc3161f4	-0.0108265765
234	0xbd648403	-0.05578996
235	0xbdd6637e	-0.104681954
236	0x3dae69c8	0.0851627
237	0xbe78e359	-0.24305476
238	0x3d808bc1	0.06276656
239	0xbd83347b	-0.06406494
240	0x3db2a031	0.0872196
241	0x3ce337f1	0.027736636
242	0xbdb781e0	-0.089603186
243	0xbd028602	-0.03186608
244	0x3d013538	0.031544894
245	0xbd526163	-0.051362406
246	0x3de43b43	0.11144116
247	0x3e13fd5f	0.14452122
248	0x3df37b1e	0.11888717
249	0xbd905b4d	-0.07048664
250	0xbd8ffdc6	-0.07030825
251	0xbe30acea	-0.17253461
252	0xbda43208	-0.08017355
253	0xbe435825	-0.19076593
254	0xbe4b1259	-0.19831218
255	0xbe124bd2	-0.14286736

network_body.linear_encoder.seq_layers.2.bias f4 [200]
0	0x3bb6c170	0.0055772588
1	0x3ca45cbe	0.020063754
2	0x3c8664e7	0.016405536
3	0xbb0157a2	-0.001973607
4	0x39b131aa	0.00033797073
5	0x3c0ee7ee	0.0087222885
6	0x3caa46f6	0.02078579
7	0xbc20b5de	-0.0098089855
8	0xbb44e90d	-0.0030046136
9	0x3b3a5bc6	0.002843605
10	0xbb1bee65	-0.0023793217
11	0xbbd9473e	-0.006630807
12	0x3b6adf3e	0.003583863
13	0xbad3f0fd	-0.0016169843
14	0x3c1d651c	0.009606626
15	0x3c8b53a9	0.017007666
16	0x3c096b1b	0.008387352
17	0x3c3034c4	0.010754768
18	0x3a86fa98	0.0010298071
19	0xba6662a6	-0.00087885035
20	0x3b8aa93a	0.004231599
21	0x3a2c7ac7	0.00065795745
22	0x3b4e553c	0.003148391
23	0x3b230bb6	0.0024878806
24	0x38f83614	0.00011835634
25	0xbb62ebdd	-0.0034625449
26	0x3c2b779e	0.010465531
27	0x3c2990ee	0.010349495
28	0x3b38c8d0	0.0028195865
29	0x3c9caac6	0.0191244
30	0x3ad181fa	0.0015984171
31	0x3c523c69	0.012831786
32	0xbb6a1ae7	-0.0035721601
33	0xbb0ce611	-0.0021499435
34	0xbc1ec8a5	-0.009691392
35	0x3c7c1068	0.015384771
36	0x3c435a40	0.011923373
37	0x3c94d3dc	0.018167429
38	0x3b5bdb16	0.0033547333
39	0xba740344	-0.0009308348
40	0x3c5d6494	0.013512749
41	0x3c6340fb	0.013870473
42	0x3c0e283d	0.008676586
43	0x3a85ea7d	0.0010216978
44	0x3ba2cf35	0.0049685487
45	0x3c23067f	0.009950279
46	0x3be4c335	0.0069812783
47	0xba7c9222	-0.00096348126
48	0x3bfa46f9	0.007637855
49	0x3bf2af73	0.007406169
50	0x3ce13863	0.027492708
51	0x3bca3bc0	0.0061716735
52	0x3c9bdb7a	0.019025553
53	0x3b819531	0.0039545526
54	0xbb4e52c5	-0.003148244
55	0x3b88a766	0.004170346
56	0x3ba045d2	0.0048911357
57	0x3ad5d04f	0.0016312691
58	0x3c05a9f0	0.008158192
59	0x3c69061b	0.014222647
60	0x3c0289b3	0.0079674
61	0xbc3710ff	-0.011173486
62	0xbb4b94ec	-0.0031064106
63	0x3c9af270	0.018914431
64	0x3c3f4f7e	0.011676667
65	0x3c16fa06	0.009214884
66	0x3be217e5	0.006899821
67	0xbbbc2d9d	-0.005742742
68	0x3c99cf54	0.01877562
69	0x3bc69bd0	0.0060610548
70	0x3ca17e4e	0.019713547
71	0xbc714726	-0.014726436
72	0x3bc7bd51	0.0060955663
73	0x3c1e6405	0.009667401
74	0x3c84e610	0.016222984
75	0x3b1622e2	0.0022908975
76	0xba30a43b	-0.00067383394
77	0xbb461202	-0.0030223136
78	0xba5d1127	-0.0008433037
79	0x3c19871c	0.0093705915
80	0x3b945ede	0.0045279106
81	0xbb91598e	-0.0044357246
82	0x3be2961a	0.006914866
83	0x3b1622c4	0.0022908906
84	0x3c29821c	0.010345962
85	0x3ba17cc0	0.0049282014
86	0xbc3adcb7	-0.011405162
87	0x3a637dfa	0.0008678135
88	0x3c38d726	0.011281764
89	0xbaa8ae97	-0.0012869415
90	0xbba4bbe9	-0.0050272834
91	0x3c87a686	0.016558897
92	0x3b8c44c3	0.004280658
93	0x3c2ec732	0.010667609
94	0xbb2e9486	-0.002663882
95	0x3bdc09ca	0.006715034
96	0xbc1d1320	-0.009587079
97	0x3b8248b6	0.003975953
98	0x3c99bd79	0.018767105
99	0xbb0a9f6e	-0.0021152156
100	0x3c62094e	0.013796164
101	0x3c8d93fb	0.017282477
102	0x3c3ef53a	0.011655146
103	0x3c0cd914	0.008596677
104	0x3c4839c4	0.012220804
105	0x3bfae165	0.0076562637
106	0x3be5352b	0.0069948635
107	0x3c44ab11	0.012003676
108	0x3c293b87	0.010329134
109	0x3b269f7d	0.0025424652
110	0x3b4d8d2f	0.003136467
111	0x3c5945be	0.013261257
112	0x3a8b0d69	0.0010608855
113	0x3bcf7b5b	0.006331844
114	0x3bb5e458	0.0055509023
115	0x3c96c7f4	0.018405892
116	0x3c8b58c8	0.017010108
117	0x389f3b99	7.592812e-05
118	0xbb2dd5c6	-0.0026525124
119	0x3bf47ec8	0.0074614026
120	0xbc124875	-0.008928408
121	0x3bdaf165	0.0066816085
122	0x3b9ba1cb	0.004749512
123	0x3cc2f8e3	0.023800319
124	0xbc05e413	-0.008172053
125	0xbc04e9fc	-0.008112427
126	0x3bb0157f	0.0053736563
127	0x3b809aae	0.0039246893
128	0xbc16291d	-0.009165076
129	0x3cf9d573	0.030497288
130	0x3b909103	0.004411818
131	0xbb5ded72	-0.0033863452
132	0x3c536f37	0.012904934
133	0x3c89ddf0	0.01682946
134	0xbb1c4857	-0.002384683
135	0x3a94ffc6	0.001136773
136	0x3be14dda	0.0068757357
137	0x3c7b0bfd	0.015322682
138	0x3c68b333	0.014202881
139	0x3c8b3f1e	0.01699787
140	0x3b922c36	0.0044608368
141	0x3bdbdd1d	0.0067097084
142	0xbc49fb81	-0.01232803
143	0xbc0ac434	-0.00846963
144	0x3b1b413c	0.0023690006
145	0x3c1f36bf	0.009717642
146	0x3c43ec75	0.011958231
147	0x3c2a927e	0.010410903
148	0x3b256591	0.002523754
149	0x3bbe5e63	0.0058095916
150	0xbc379cba	-0.0112068
151	0x3bea02e4	0.007141458
152	0x3cad4c9e	0.021154698
153	0x3b6389a4	0.0034719491
154	0xbafcc4d2	-0.0019284731
155	0x3be9a880	0.0071306825
156	0x3a859df2	0.0010194166
157	0x3a917b1e	0.0011099314
158	0x3b054118	0.0020332988
159	0x3c82f584	0.015986212
160	0x3bfc1c40	0.0076937973
161	0x3c39a266	0.011330223
162	0x3cae28d7	0.021259708
163	0xbc30fd92	-0.010802643
164	0x3ade770c	0.0016972735
165	0x3c2546d7	0.01008769
166	0x3b7c0d8d	0.0038460225
167	0x3c2a15f9	0.010381215
168	0x3bf2d482	0.007410587
169	0x3b1175d0	0.0022195466
170	0x3bd557ed	0.0065107257
171	0x3b6df4c1	0.0036309215
172	0x3b01e8d4	0.0019822614
173	0x3c5682ba	0.013092691
174	0x3c938982	0.018009905
175	0x3c5262f4	0.012840975
176	0x3c67b112	0.014141338
177	0xbb15f5af	-0.0022882035
178	0x3c7422cf	0.014900877
179	0x3c158dbe	0.009128032
180	0x3b5bf689	0.0033563694
181	0x3c7046a7	0.014665282
182	0xbbae8fa6	-0.005327183
183	0x39d12ce7	0.0003989704
184	0x3bcc7e83	0.0062406673
185	0x3b4c18b0	0.0031142645
186	0x3cabad7f	0.020956753
187	0x3b5d9721	0.0033812004
188	0x3c581407	0.013188369
189	0x3c34c146	0.011032408
190	0xbc188011	-0.009307877
191	0x3ad6a0e0	0.0016374849
192	0x3a8cceb7	0.0010742758
193	0x3c2acd77	0.010424963
194	0x3c58d384	0.013234023
195	0x3c911592	0.01771048
196	0x3c8b9d79	0.017042862
197	0x3bd76ff3	0.0065746247
198	0x3b83f7e3	0.004027353
199	0x3be3d460	0.0069528073

network_body.linear_encoder.seq_layers.2.weight f4 [200, 200]
0	0x3d455c14	0.048183516
1	0x3ccc7315	0.02495722
2	0x3cd48893	0.02594403
3	0x3d414785	0.047187347
4	0xbdd28679	-0.10279555
5	0xbce4d696	-0.027934354
6	0xbd0db361	-0.034594897
7	0x3d621597	0.05519637
8	0xbcfb71c2	-0.030693892
9	0x3d19e92f	0.037575897
10	0x3d01def1	0.031706754
11	0xbe047fc5	-0.12939365
12	0xbd3e2772	-0.046424337
13	0x3d24d7c9	0.04024485
14	0x3c7e25f7	0.015511981
15	0xbcab438a	-0.020906229
16	0x3c0df052	0.008663254
17	0x3bc67cc4	0.0060573537
18	0xbc8b3c57	-0.016996546
19	0x3db07763	0.08616521
20	0x3e0edc89	0.13951315
21	0xbdb3a6db	-0.087720595
22	0x3bbccd09	0.005761747
23	0xbd52e037	-0.05148336
24	0xbb57e1c8	-0.0032940973
25	0xbd09409e	-0.03350889
26	0x3c89f32c	0.016839586
27	0x3dab0463	0.08350446
28	0xbcae05fb	-0.021243086
29	0x3c26c9c6	0.0101799425
30	0x3ce62ca4	0.028097458
31	0x3b1a56b6	0.002355022
32	0xbce196fe	-0.027537819
33	0xbc2c35a6	-0.010510838
34	0xbdab006f	-0.08349692
35	0xbdbaa684	-0.091137916
36	0x3ce6d815	0.028179208
37	0xbd6eb92d	-0.058282066
38	0xbd8db0ce	-0.069184884
39	0x3cc841b0	0.024445385
40	0x3d29a8fe	0.04142093
41	0xbc9f3702	-0.01943541
42	0xbb0af66d	-0.002120401
43	0xbd3dbe8a	-0.04632429
44	0x3d4efae5	0.05053224
45	0x3df27201	0.11838151
46	0x3d0a160d	0.033712436
47	0xbcddda50	-0.027081639
48	0x3db045bc	0.08607051
49	0xbd9b59d0	-0.0758549
50	0xbc52e782	-0.012872579
51	0xbc47cf6f	-0.012195452
52	0x3ce3c673	0.027804589
53	0x3cc89c25	0.024488518
54	0xbcca0c1d	-0.02466398
55	0x3df58319	0.119878955
56	0x3ca23686	0.01980139
57	0xbd99489b	-0.074845515
58	0xbb6a79b9	-0.0035778119
59	0x3cf1178f	0.029430179
60	0xbdd01aca	-0.101613596
61	0xbd1fb5f3	-0.03899188
62	0xbcf19850	-0.029491574
63	0xbda5a871	-0.08088768
64	0xbd0aaa2e	-0.033853702
65	0xba5f9efc	-0.00085304654
66	0x3da04ea0	0.078274965
67	0xbd794edf	-0.060866233
68	0xbdbeef2d	-0.09322963
69	0x3d6f7cf5	0.058468778
70	0xbdd0cae2	-0.10194947
71	0xbc0668e4	-0.008203719
72	0x3c3c1e83	0.011481884
73	0x3d639350	0.05556041
74	0xbd3c0c1f	-0.045909997
75	0x3ccfd581	0.025370361
76	0x3d12938d	0.035785247
77	0xbab4d57c	-0.0013796533
78	0xbd453f2b	-0.048155945
79	0xbb56fe45	-0.0032805365
80	0xbd327855	-0.04357179
81	0xbcaa60ea	-0.020798165
82	0xbce4faa0	-0.027951539
83	0x3d2d17e9	0.04225913
84	0x3dba6a1a	0.091022685
85	0x3df6ce85	0.12051109
86	0x3d4793f8	0.0487251
87	0xbdcd076d	-0.10011182
88	0xbe0d3bb9	-0.13792314
89	0xbddd597c	-0.108080834
90	0x3d511513	0.05104549
91	0xbcd90ca7	-0.02649529
92	0xbd56b46c	-0.052418157
93	0xbda0010e	-0.07812701
94	0xbbcc11bf	-0.0062277014
95	0x3bde14b8	0.006777372
96	0x3c188224	0.009308372
97	0x3d27d33e	0.04097294
98	0x3b2aa1c7	0.0026036368
99	0x3c81ce76	0.015845519
100	0xbd220c46	-0.039562486
101	0x3d184d2e	0.03718298
102	0xbe35a82a	-0.17739931
103	0x3cc144ca	0.023592371
104	0xbdc14a60	-0.09438014
105	0xbd05f02d	-0.032699753
106	0xbdc20a93	-0.09474673
107	0x3cb01c2b	0.021497807
108	0xbda25559	-0.07926435
109	0x3d27dad2	0.040980168
110	0x3da25961	0.07927204
111	0x3d9a1b62	0.07524754
112	0xbc54d9b1	-0.012991355
113	0x3d9202a9	0.07129414
114	0x3c881d47	0.016615523
115	0xbd271207	-0.040788677
116	0xbca10d40	-0.019659638
117	0xbbf6d99e	-0.007533266
118	0x3dae6374	0.08515063
119	0x3d1bc373	0.03802819
120	0xbcb3effe	-0.021965023
121	0xbd98c85a	-0.07460089
122	0x3d6e1047	0.058120992
123	0xbd7b9875	-0.06142469
124	0xbd9aa00a	-0.07550056
125	0x3cf096eb	0.029368838
126	0xbd113a18	-0.035455793
127	0xbb05ea29	-0.002043376
128	0xbc9ed00f	-0.01938632
129	0xbcb2732a	-0.02178343
130	0x3dc6b22d	0.09701953
131	0xbd8a8b3b	-0.06764837
132	0x3dc4bc90	0.09606278
133	0xbbeaaa5e	-0.0071614226
134	0x3c4c2e4e	0.012462212
135	0xbbae90ee	-0.0053273356
136	0xbe4a82fc	-0.19776529
137	0xbcd3c9bc	-0.02585303
138	0xbd2f37b0	-0.042777717
139	0x3d079e2b	0.033109825
140	0xbd337bdb	-0.04381929
141	0x3c178f3b	0.009250457
142	0x3bb6bb9b	0.0055765635
143	0xbd8c0f98	-0.06838912
144	0xbdedf0b3	-0.11618175
145	0xbddc8d75	-0.10769168
146	0x3cef32dd	0.029199058
147	0xbc1eecb2	-0.009699987
148	0x3c3c4ea4	0.011493359
149	0xbd93894b	-0.07203921
150	0x3c1e5f2f	0.009666248
151	0x3d13182e	0.03591173
152	0xbd11d601	-0.03560448
153	0xbc942183	-0.018082386
154	0xbca80dc8	-0.020514384
155	0xbdbd3060	-0.092377424
156	0xbc281cd2	-0.010260778
157	0x3bab296d	0.005223444
158	0xbdb905b7	-0.09034293
159	0xb9766929	-0.00023499563
160	0xbd6d8fde	-0.05799853
161	0xbd2e4899	-0.042549703
162	0xbde18678	-0.11011976
163	0x3b87c357	0.0041431594
164	0xbd45162a	-0.04811684
165	0xbdd9b0e9	-0.10629446
166	0x3dc25d37	0.094904356
167	0x3d5074c1	0.050892595
168	0xbc947fe6	-0.018127393
169	0xbe1c1e36	-0.152459
170	0xbd21b8a3	-0.039482724
171	0x3db7d258	0.08975667
172	0xbca06e8a	-0.01958396
173	0xbdb607b1	-0.08888186
174	0x3d9d36d9	0.07676477
175	0x3cd101a5	0.02551348
176	0x3dea46b2	0.11439265
177	0x3ddb52c5	0.107091464
178	0x3b9c2851	0.0047655483
179	0x3cbe2f38	0.023215875
180	0x3b1d3cd9	0.0023992567
181	0x3d6f3a22	0.05840505
182	0x3d68ec3f	0.056865927
183	0xbcaa2364	-0.020768829
184	0x3dc29b67	0.09502297
185	0x3d6aeb35	0.057353217
186	0x3c28ee17	0.010310671
187	0xbd8fff7b	-0.07031151
188	0x3ce214a9	0.027597742
189	0x3d790926	0.06079974
190	0x3d2de1cd	0.04245167
191	0x3cf5e66d	0.030017102
192	0x3c51cfbf	0.012805878
193	0xbc26699f	-0.010157018
194	0xbda6d014	-0.081451565
195	0xbd41d1f5	-0.04731937
196	0x3da5dfe9	0.08099348
197	0x3d99962c	0.07499346
198	0x3d02e53e	0.031956904
199	0xbd60fd2a	-0.054928936
200	0xbe02a64f	-0.12758754
201	0xbc393653	-0.011304456
202	0xbe30cd8e	-0.17265913
203	0xbd45e75a	-0.048316337
204	0xbc93aa6b	-0.018025598
205	0xbde7a4a1	-0.11310697
206	0xbc7ea9ef	-0.015543445
207	0xbce1f8b2	-0.027584407
208	0xbce857c8	-0.02836217
209	0xbe392cbd	-0.18083473
210	0x3a7194b4	0.0009215579
211	0x3d5f3322	0.054492123
212	0xbd2f712e	-0.042832546
213	0x3d3386a3	0.04382957
214	0x3dce65a6	0.10077982
215	0x3dbc4168	0.09192163
216	0x3d85a043	0.06524708
217	0x3d8e6ba7	0.06954127
218	0xbdd85c0f	-0.10564434
219	0xbc489e90	-0.0122448355
220	0xbc81801d	-0.01580816
221	0x3e245448	0.16047776
222	0xbdb1bcf6	-0.086786196
223	0xbcbea150	-0.02327028
224	0x3d15c004	0.036560073
225	0xb93c78ee	-0.00017974127
226	0xbcffbb38	-0.031217203
227	0x3dcce709	0.10005004
228	0xbd94453d	-0.07239769
229	0x3c81e11a	0.015854407
230	0x3d4625e5	0.048375983
231	0x3bfba982	0.007680119
232	0x3cc36812	0.023853336
233	0xbd6a5796	-0.057212435
234	0x3c26a0f5	0.010170211
235	0xbd43e295	-0.047823507
236	0xbd6c7c9c	-0.057736024
237	0xbd580938	-0.052743167
238	0xbd9cc0ce	-0.07653962
239	0x3bf5f18c	0.0075056013
240	0xbd15a1d3	-0.03653128
241	0xbdbe58a3	-0.0929425
242	0xbd664c18	-0.056224912
243	0xbd83b05e	-0.06430124
244	0x3c33e213	0.010979193
245	0x3d067ec5	0.03283574
246	0x3e32fd06	0.17479333
247	0x3d8fa7bf	0.07014417
248	0xbe06808b	-0.13134973
249	0xbd678e42	-0.056532152
250	0xbdaeb164	-0.08529928
251	0xbd8d157f	-0.06888866
252	0x3d1910e3	0.03736962
253	0x3c02ea14	0.007990379
254	0x3cafe03e	0.021469232
255	0xbd1c7559	-0.03819785
