Assets/Networks/self1/AgentPowerYellow.onnx (onnx, 238908 bytes, 9 tensors)

action_model._continuous_distribution.log_sigma f4 [1, 3]
-0.00077118294 -0.016137125 -0.12571564
00000000: 3629 4aba 0132 84bc 9abb 00be

action_model._continuous_distribution.mu.bias f4 [3]
0.009440907 -0.004570902 -0.010066828
00000000: 09ae 1a3c 81c7 95bb 56ef 24bc

action_model._continuous_distribution.mu.weight f4 [3, 200]
-0.01833248 -0.024876224 -0.028001921 -0.0029566286 0.0076492634 -0.022768151 -0.016940776 0.0044962377
-0.0053811986 -0.0095489705 -0.002722374 0.00044840196 0.0060023014 0.005185895 -0.013826674 0.009705826
0.0050736675 -0.00883486 -0.0010508326 -0.007875992 -0.0065031145 -0.012881261 0.013474297 0.0053114966
-0.021789784 0.0054165656 0.018540611 0.048739754 0.0068698386 -0.018664023 0.0021760163 0.005220445
0.0036605196 0.0011178827 -0.022959815 0.007988681 0.0075022792 0.0043976186 -0.016645271 -0.02815988
0.014289358 -0.00439773 -0.0011532925 0.0182177 -0.012578281 0.018954314 0.021728944 0.007640548
-0.008363598 0.021396466 -0.0046697585 0.010663094 -0.007980181 0.0077873887 -0.016029533 -0.011599572
0.013096471 -0.0025586353 -0.01719162 -0.009435065 0.01724104 -0.008468323 0.0080104405 -0.031929273
0.018080777 0.008151728 0.00094568846 0.030787086 0.009064118 0.008743524 0.0024901058 -0.005918913
0.0033484262 -0.022338293 0.0040071304 -0.006365777 -0.008538006 -0.003928823 0.0100399805 0.018565172
-0.0013601417 -0.018145168 0.005323962 0.01349777 -0.00050401874 0.008338146 -0.0021040956 -0.004073086
0.018712364 0.028847767 0.03385055 0.01918849 0.0052529294 0.013719704 -0.012794368 0.0005071456
0.009335286 0.004191937 -0.012369933 -0.0018115718 -0.0030444162 -0.0050458484 -0.006401354 -0.0056472425
0.002687449 -0.030514324 -0.0018009406 0.02025136 0.014239245 0.005704557 0.01859683 0.005392332
0.010142846 0.0065514953 0.003131366 0.035244755 -0.015587873 -0.006712399 0.01591109 -0.0133850975
0.017513935 0.0010119772 0.015991606 0.0033555862 -0.022742823 0.0031782798 0.006565515 0.032243725
-0.014066722 -0.008240572 -0.0061683543 -0.007739016 0.00326689 0.005712561 -0.009340469 0.016026506
0.022246737 -0.0009544664 0.017083319 -0.024432926 0.014508652 0.0043921922 0.005550394 0.009080522
-0.012086572 0.015493759 0.007365556 0.027888412 0.015109049 -0.010200206 -0.011751807 -0.021009982
0.010041557 -0.008382383 -0.011018052 0.010230745 0.010150545 -0.009592024 -0.00019019302 0.0019527517
-0.028486177 -0.028128872 -0.0057362798 -0.0110706845 -0.0011494464 -0.009113278 0.0050723967 -0.01574839
0.0019326827 0.019615138 0.0027981987 -0.015036366 -0.019730061 -0.029689053 -0.004693315 0.022954004
0.0055586426 -0.010065038 0.003252666 -0.014739322 -0.023499643 -0.0015058371 0.0017529269 -0.0038686378
-0.021015769 -0.027607046 -0.019680357 -0.019015262 0.0089983875 0.025944296 -0.012462279 0.010790421
-0.024549618 -0.013944234 0.04027386 -0.010989749 -0.003928731 0.019399427 -0.022925131 -0.012744259
-0.021141853 0.024793604 -0.011724046 -0.0002861272 0.018694077 -0.008730251 0.011457795 0.009839491
0.000995683 0.029657807 0.017355246 0.024323022 -0.03249237 -0.0004856102 0.00399434 -0.016397247
0.012487641 -0.033514217 0.007578327 -0.008974362 -0.0090068495 0.0011042423 -0.016975366 0.002695522
-0.05177879 0.020748489 0.02790048 -0.0062060114 0.006246703 -0.025428718 0.018298322 -0.024359584
0.027429381 -0.015670447 -0.002629331 -0.0022660445 -0.010566665 0.023331884 -0.03646334 0.02836705
-0.013786662 -0.0032283962 0.00042538674 0.011214714 0.0072323275 0.023849478 0.015872872 -0.00093331665
0.0033799706 0.0138495965 0.008351738 0.02796049 -0.007192624 0.026048733 -0.01603869 0.011063639
00000000: ff2d 96bc 39c9 cbbc 4964 e5bc ffc3 41bb
00000010: aca6 fa3b 4684 babc 62c7 8abc 2d55 933b
00000020: c454 b0bb 4973 1cbc db69 32bb 7e17 eb39
00000030: f4ae c43b 71ee a93b 4689 62bc 2f05 1f3c
00000040: 0241 a63b 17c0 10bc 17bc 89ba 4e0a 01bc
00000050: 1418 d5bb ed0b 53bc 4cc3 5c3c 100c ae3b
00000060: 7d80 b2bc 727d b13b 7be2 973c 56a3 473d
00000070: 621c e13b 4be5 98bc 7f9b 0e3b 4410 ab3b
00000080: 54e5 6f3b eb85 923a 3916 bcbc f5e2 023c
00000090: aed5 f53b e619 903b aa5b 88bc 8caf e6bc
000000a0: e91d 6a3c d51a 90bb 132a 97ba 493d 953c
000000b0: 2215 4ebc 1446 9b3c e600 b23c 905d fa3b
000000c0: 7907 09bc a447 af3c c604 99bb 42b4 2e3c
000000d0: 4ebf 02bc 5a2d ff3b 5e50 83bc 220c 3ebc
000000e0: 9592 563c c7ae 27bb 71d5 8cbc 8895 1abc
000000f0: 153d 8d3c b9be 0abc 393e 033c 45c8 02bd
00000100: 231e 943c d38e 053c 14e8 773a 3335 fc3c
00000110: ab81 143c ff40 0f3c 0b31 233b 71f3 c1bb
00000120: 4571 5b3b ccfe b6bc 3f4e 833b 0298 d0bb
00000130: fee2 0bbc 5bbd 80bb bb7e 243c fd15 983c
00000140: c846 b2ba 2da5 94bc a174 ae3b c025 5d3c
00000150: 2020 04ba b89c 083c dee4 09bb 8677 85bb
00000160: ac4a 993c 2752 ec3c e0a6 0a3d 2e31 9d3c
00000170: c420 ac3b 9cc8 603c 789f 51bc f7f1 043a
00000180: 07f3 183c 845c 893b 42ab 4abc 4372 edba
00000190: d484 47bb a557 a5bb 73c2 d1bb 810c b9bb
000001a0: ea1f 303b 2df9 f9bc 8a0d ecba 2ee6 a53c
000001b0: b94b 693c 4bed ba3b 6158 983c 29b2 b03b
000001c0: 2e2e 263c edad d63b 9b37 4d3b ce5c 103d
000001d0: 4764 7fbc aff3 dbbb f957 823c 2b4d 5bbc
000001e0: 6279 8f3c 52a4 843a d400 833c 65e9 5b3b
000001f0: 284f babc b04a 503b 8823 d73b ff11 043d
00000200: 1c78 66bc 7703 07bc e81f cabb 9297 fdbb
00000210: 5219 563b 6f30 bb3b c408 19bc 054a 833c
00000220: ca3e b63c 2835 7aba 51f2 8b3c 8f27 c8bc
00000230: b2b5 6d3c 61ec 8f3b 14e0 b53b 78c6 143c
00000240: c206 46bc 89d9 7d3c c35a f13b 3d76 e43c
00000250: f28b 773c c41e 27bc a78a 40bc 201d acbc
00000260: 5885 243c 4356 09bc 0f85 34bc db9e 273c
00000270: 794e 263c dd27 1dbc 8d6e 47b9 79f3 ff3a
00000280: d85b e9bc 856e e6bc 67f7 bbbb d161 35bc
00000290: 05a9 96ba dc4f 15bc 5936 a63b c502 81bc
000002a0: 1252 fd3a edaf a03c fc61 373b 175b 76bc
000002b0: f0a0 a1bc 7536 f3bc 61ca 99bb 090a bc3c
000002c0: 4625 b63b d4e7 24bc ae2a 553b 327d 71bc
000002d0: 5382 c0bc 825f c5ba 77c2 e53a f988 7dbb
000002e0: 4329 acbc 2c28 e2bc b338 a1bc e5c5 9bbc
000002f0: f96d 133c 2289 d43c 962e 4cbc 4eca 303c
00000300: 481c c9bc 5b76 64bc 34f6 243d 590e 34bc
00000310: 96bc 80bb 8ceb 9e3c 7ccd bbbc 4ccd 50bc
00000320: ae31 adbc f51b cb3c 3716 40bc 5803 96b9
00000330: 5224 993c 5409 0fbc 7ab9 3b3c d135 213c
00000340: 9481 823a eef4 f23c 972c 8e3c 1341 c73c
00000350: b816 05bd 7f99 feb9 f4e2 823b 8553 86bc
00000360: f698 4c3c 3446 09bd 9d53 f83b 3409 13bc
00000370: 7791 13bc 39bc 903a ec0f 8bbc 5ba7 303b
00000380: ff15 54bd bcf8 a93c 8c8f e43c cc5b cbbb
00000390: 25b1 cc3b e34f d0bc 5de6 953c c08d c7bc
000003a0: 95b3 e03c 4f5f 80bc db50 2cbb eb81 14bb
000003b0: ce1f 2dbc 8222 bf3c 955a 15bd 0462 e83c
000003c0: 74e1 61bc 8093 53bb 7106 df39 ebbd 373c
000003d0: 29fd ec3b fb5f c33c d307 823c d2a9 74ba
000003e0: 7f82 5d3b 6be9 623c bad5 083c 660d e53c
000003f0: 1ab0 ebbb 2764 d53c 9263 83bc 4444 353c

action_model._discrete_distribution.branches.0.bias f4 [2]
-0.026445603 0.02644561
00000000: 73a4 d8bc 77a4 d83c

action_model._discrete_distribution.branches.0.weight f4 [2, 200]
-0.010183961 0.01681197 0.013275656 0.00049630646 0.022087045 0.010742483 0.012696384 -0.0027075626
0.007779426 0.0056349775 -0.044551343 0.03268943 -0.02048836 0.0061173337 0.0064398604 -0.04740633
-0.025728438 -0.00010799689 0.014890353 0.0027689664 -0.00011885952 -0.008360869 0.009456908 0.08109118
-0.050786722 0.009876019 0.007985961 0.025410946 -0.004269119 -0.0074432488 0.017832495 -0.011261934
0.038149502 0.0013981446 0.00020209771 -0.002674978 0.0057219695 0.0056017316 -0.015237776 0.013379865
0.0055877264 0.009086535 0.011229082 -0.006583746 0.0024698183 -0.015377189 -0.006106707 0.0168381
0.05424381 0.012319422 0.06315673 -0.005021824 0.00014728206 0.009673937 0.022953544 -0.012879976
5.6300752e-05 0.05533049 -0.011969253 0.045133594 0.008927893 0.009952807 0.013597194 0.014932734
-0.0017434302 0.011759435 0.011413698 -0.01975138 0.011500102 -0.03441285 0.009524117 0.0059432588
-0.023828812 0.05100066 0.009606515 0.009065984 0.00964493 0.015264394 -0.008122661 -8.679405e-05
0.016518727 0.0051639997 -0.011991069 0.0035173376 0.004284999 0.0014031444 0.0042469474 0.011435754
0.01943991 -0.04945443 -0.055996418 -0.01337323 -0.0011438233 0.03733601 0.001332672 0.0101355715
0.026098572 -0.0034790772 -0.011674889 0.026765062 -0.0026370923 0.0034007337 0.018025612 0.013678051
4.0502775e-05 0.027147582 0.0072072526 -0.0106605245 0.000859405 -0.01701918 0.011723094 -0.011245988
0.0049481005 -0.0026232388 -0.0016033124 -0.013410424 0.015838286 -0.031190615 -0.021197734 -0.005100411
-0.01952672 0.00858925 0.010824485 -0.014413999 0.011242315 -0.004604216 0.016420964 -0.007859558
0.0037439365 -0.016337706 0.031019501 -0.0014066492 0.001118798 -0.00725437 0.003887304 0.0070398995
0.012662917 0.007507295 0.0019048622 -0.004705592 -0.019565202 0.04223677 0.026837047 0.0026733177
0.009858671 5.6325443e-05 0.0055290307 0.015222385 -0.010523854 -0.011705664 -0.0029605585 -0.009284577
-0.019079994 0.014563731 0.026358556 0.0039350716 0.008558948 0.037075743 -0.0116634155 0.0055748224
-0.040837213 0.006486651 -0.017101185 -0.022174094 -0.0023452989 0.008707503 -8.894868e-05 0.025315624
0.011325907 0.027024576 -0.010885816 0.029484777 -0.007955563 -0.031190587 0.01852727 0.039449845
-0.0065322984 0.03520082 0.0059748143 0.0074411766 -0.019829618 -0.018058939 0.008544232 0.002312495
-0.03773957 -0.022726206 0.023391346 0.009738975 0.024441453 -0.019686433 0.0068042898 0.007146526
-0.0151672205 0.018331522 -0.011111828 -0.006638524 -0.014858996 0.0149939535 0.014035871 -0.0037870319
0.0050358237 -0.019364437 -0.017647546 0.0026720895 -0.016305147 -0.0077852737 -0.013366494 0.011082923
0.008421409 -0.009284687 0.07380921 -0.01285761 0.030547207 -0.019269746 -0.0062450487 0.031397495
0.017755274 -0.0085043 -0.0013727978 -0.0055570574 0.01606026 0.027493142 -0.009384203 -0.06579492
0.0214733 0.0034749755 -0.0060560596 -0.037802063 -0.008578105 0.0043045017 -0.013015162 -0.013943934
-0.03557196 -0.002024692 -0.0051105404 -0.014528239 0.014293425 0.01638859 0.005445058 -0.028885432
-0.005134315 -0.011286692 -0.012186033 -0.012557231 0.002140764 0.0055803317 0.008299466 -0.009309381
-0.059751354 -0.010147898 -0.055863775 -0.0042925584 0.006872301 -0.009303546 -0.024040211 0.0031804566
00000000: a1da 26bc 42b9 893c 2382 593c 901a 023a
00000010: e4ef b43c 3d01 303c 7f04 503c 5d71 31bb
00000020: 8eea fe3b 9ea5 b83b 787b 36bd 5ae5 053d
00000030: 35d7 a7bc ea73 c83b 7705 d33b 242d 42bd
00000040: 72c4 d2bc 647c e2b8 abf6 733c 8c77 353b
00000050: 3844 f9b8 07fc 08bc 26f1 1a3c 2213 a63d
00000060: bd05 50bd 07cf 213c 8cd7 023c 9e2a d03c
00000070: f7e3 8bbb 7fe6 f3bb 7415 923c fa83 38bc
00000080: a742 1c3d f341 b73a 31ea 5339 af4e 2fbb
00000090: 5c7f bb3b bb8e b73b dda7 79bc 3937 5b3c
000000a0: 3f19 b73b b1df 143c 2ffa 373c 77bc d7bb
000000b0: addc 213b 9bf0 7bbc c51a c8bb 0ef0 893c
000000c0: c22e 5e3d 67d7 493c 5158 813d 1d8e a4bb
000000d0: ba6f 1a39 6f7f 1e3c 1209 bc3c 8906 53bc
000000e0: 7924 6c38 39a2 623d b01a 44bc 01de 383d
000000f0: 4c46 123c 1911 233c c4c6 5e3c 6da8 743c
00000100: cf83 e4ba a5aa 403c 8500 3b3c a5cd a1bc
00000110: ec6a 3c3c 7df4 0cbd 0b0b 1c3c abbf c23b
00000120: a434 c3bc 11e6 503d a564 1d3c 7e89 143c
00000130: c505 1e3c 8217 7a3c e914 05bc 3305 b6b8
00000140: 4852 873c c536 a93b 3076 44bc 2283 663b
00000150: 2d69 8c3b b7e9 b73a fa29 8b3b 075d 3b3c
00000160: 7240 9f3c ba90 4abd 805c 65bd 641b 5bbc
00000170: 57ec 95ba a5ed 183d 0dad ae3a ab0f 263c
00000180: accc d53c 3b01 64bb 0948 3fbc 6742 db3c
00000190: 11d3 2cbb d8de 5e3b 73aa 933c e719 603c
000001a0: 86e1 2938 9b64 de3c d12a ec3b 7ba9 2ebc
000001b0: b149 613a cf6b 8bbc 3812 403c 1841 38bc
000001c0: ad23 a23b a5ea 2bbb 3d26 d2ba 65b7 5bbc
000001d0: 4bbf 813c 7683 ffbc dfa6 adbc 5921 a7bb
000001e0: 80f6 9fbc edb9 0c3c 2e59 313c b228 6cbc
000001f0: b031 383c f7de 96bb 4285 863c 60c5 00bc
00000200: d55c 753b a7d6 85bc 9c1c fe3c 515f b8ba
00000210: a2a4 923a 11b6 edbb 24c2 7e3b f5ae e63b
00000220: 2078 4f3c c1ff f53b 92ac f93a 5e31 9abb
00000230: 3447 a0bc 7700 2d3d 5ed9 db3c d432 2f3b
00000240: 4386 213c fc3e 6c38 df2c b53b 4f67 793c
00000250: 3e6c 2cbc 1dc9 3fbc ee05 42bb 571e 18bc
00000260: a64d 9cbc b79c 6e3c e6ed d73c c6f1 803b
00000270: d43a 0c3c bcdc 173d e917 3fbc 00ad b63b
00000280: ec44 27bd f98d d43b c917 8cbc 72a6 b5bc
00000290: 96b3 19bb eaa9 0e3c f589 bab8 b662 cf3c
000002a0: 4c90 393c a562 dd3c 6c5a 32bc 0f8a f13c
000002b0: 0d58 02bc 6783 ffbc 80c6 973c 2996 213d
000002c0: e40c d6bb bc2e 103d 60c8 c33b 1dd5 f33b
000002d0: b971 a2bc 57f0 93bc 1bfd 0b3c 3a8d 173b
000002e0: cf94 1abd 4f2c babc 359f bf3c 3990 1f3c
000002f0: 7139 c83c 7145 a1bc 85f6 de3b 682d ea3b
00000300: ef7f 78bc fd2b 963c 620e 36bc fa87 d9bb
00000310: 2573 73bc 33a9 753c b6f6 653c da2f 78bb
00000320: 8d03 a53b 2ba2 9ebc 9691 90bc 391e 2f3b
00000330: 5f92 85bc 9c1b ffbb 24ff 5abc 2695 353c
00000340: f3f9 093c cd1e 18bc 4829 973d baa8 52bc
00000350: 233e fa3c 96db 9dbc 44a3 ccbb a99a 003d
00000360: 8273 913c 9f55 0bbc 73ef b3ba fa17 b6bb
00000370: ce90 833c 4c39 e13c 33c0 19bc 7dbf 86bd
00000380: c6e8 af3c 6abc 633b e971 c6bb 56d6 1abd
00000390: 2e8b 0cbc c70c 8d3b 8c3d 55bc 1975 64bc
000003a0: e7b3 11bd b2b0 04bb 5276 a7bb da07 6ebc
000003b0: f82e 6a3c 5d41 863c 756c b23b 24a1 ecbc
000003c0: c23d a8bb d1eb 38bc eda7 47bc d8bc 4dbc
000003d0: 0f4c 0c3b 37db b63b 7cfa 073c 6086 18bc
000003e0: d6bd 74bd 5f43 26bc 6ad1 64bd 97a8 8cbb
000003f0: 0a31 e13b e66d 18bc faef c4bc 356f 503b

network_body.linear_encoder.seq_layers.0.bias f4 [200]
-0.0068540196 0.0016419578 0.0095184045 0.0058858553 -0.01580466 -0.032843985 0.0063161007 0.028572796
0.061416972 0.006626609 0.026552098 0.0017430664 0.0023236822 0.02458842 0.0063693137 0.029461976
-0.005500988 -0.006339524 0.006878152 0.016320571 0.04132862 0.009475593 0.0070380648 -0.02035034
0.005014068 0.0077582994 0.026094342 0.0079560345 0.008711619 0.017672073 0.024324898 -0.00036329022
0.009452837 -0.00726797 0.015856465 0.005667406 0.03185613 0.012543737 -0.01174839 0.008672264
0.020600788 0.00966383 0.017879179 -0.008546659 0.013086712 0.0086901635 0.00239825 -0.014102874
0.014481398 0.002325816 0.009712835 0.02465255 0.0097084 -0.025763502 0.0057712384 -0.0035755278
0.027399328 0.023376519 0.0067390255 0.02396327 0.014411498 0.04371474 0.015504854 0.022311259
0.014614306 0.025054041 -0.008667091 0.01906256 -0.00029585263 0.008817994 0.0194697 0.008884962
-0.01056482 0.0004551796 -0.01900138 0.008358221 -0.02034823 -0.002154046 -0.0046495916 0.008322415
0.037016038 0.012227426 -0.009371351 0.018814832 -0.03191142 0.0047805714 0.007542962 -0.001115437
0.016321708 -0.008107658 0.028500473 -0.0008806131 0.012606701 0.017510645 -0.0065130573 0.024467003
-0.007519623 -0.010302511 0.02276402 0.025091324 -0.009314385 0.015580466 0.0022892565 -0.0017755174
0.010857495 -0.0031984 -0.015752655 0.0040272647 0.007869381 0.011500151 -0.0033496472 0.011244686
0.023311656 0.006509795 0.0046100235 -0.0016928832 0.026135739 0.017766515 0.032416582 0.0035778007
0.012548909 0.02348821 -0.0040844404 0.024258781 -0.0041476283 0.042644452 -0.0045323414 0.002390911
0.004131787 0.007051607 0.02958289 0.02260054 -0.0003102768 -0.008634017 0.00907792 0.014589582
-0.016708791 0.04350274 0.017687673 0.0022263261 0.022398617 -0.016836753 0.019210638 -0.00048306712
0.0024421813 0.023014966 -0.006903972 0.016866675 0.015888385 -0.008640629 -0.022424094 0.009949142
0.022582438 -6.852438e-05 0.023207247 -0.02478612 0.017396599 0.011111899 -0.0017555618 -0.013028279
0.014135754 0.0022830141 0.010854556 0.0059536733 0.012235101 0.01950235 0.024409149 0.0075000864
0.011124605 -0.007407667 0.019861247 0.006842056 0.011470375 0.0043828236 0.0051757297 0.024930391
-0.022033757 -0.0092814965 -0.0117368465 0.008977738 0.0043486874 -0.02380387 -0.003037287 -0.0035265791
-0.011199207 0.009622793 0.0050775306 0.0050525866 0.039739594 0.018121757 -0.0027779234 0.029815868
0.020464161 0.02584231 -0.0022129298 0.008059716 -0.013473533 0.026898922 -0.005974357 0.013217318
00000000: af97 e0bb f636 d73a 15f3 1b3c 22de c03b
00000010: c678 81bc 6a87 06bd 4bf7 ce3b 7f11 ea3c
00000020: 5d90 7b3d 0624 d93b c983 d93c 9a77 e43a
00000030: eb48 183b a76d c93c adb5 d03b 3e5a f13c
00000040: a241 b4bb c8bb cfbb 1f62 e13b b8b2 853c
00000050: 3348 293d 853f 1b3c 919f e63b c2b5 a6bc
00000060: 0d4d a43b 5539 fe3b cdc3 d53c 075a 023c
00000070: 2ebb 0e3c 06c5 903c 0245 c73c fd77 beb9
00000080: 12e0 1a3c 2728 eebb 6be5 813c a6b5 b93b
00000090: 937b 023d 3f84 4d3c 527c 40bc 1d16 0e3c
000000a0: fcc2 a83c 0a55 1e3c 5b77 923c 4907 0cbc
000000b0: a669 563c 3061 0e3c f52b 1d3b be0f 67bc
000000c0: 6343 6d3c b86c 183b 9522 1f3c 25f4 c93c
000000d0: fb0f 1f3c fb0d d3bc a81c bd3b 6753 6abb
000000e0: 8e74 e03c 1d80 bf3c 0bd3 dc3b 9f4e c43c
000000f0: 341e 6c3c 3a0e 333d 1208 7e3c 1ac6 b63c
00000100: d870 6f3c 223e cd3c 6a00 0ebc 1629 9c3c
00000110: ab1c 9bb9 5979 103c ec7e 9f3c 3b92 113c
00000120: 1118 2dbc 2ca5 ee39 c8a8 9bbc ebf0 083c
00000130: 55b1 a6bc e52a 0dbb 9a5b 98bb bd5a 083c
00000140: 219e 173d 8b55 483c 4c8a 19bc 9021 9a3c
00000150: 8db5 02bd 57a6 9c3b f42a f73b db33 92ba
00000160: 1ab5 853c fbd5 04bc d379 e93c f2d8 66ba
00000170: 568c 4e3c 7c72 8f3c 7c6b d5bb 066f c83c
00000180: 2b67 f6bb ddcb 28bc 9c7b ba3c 528c cd3c
00000190: 5d9b 18bc 3645 7f3c 5a07 163b 7ab8 e8ba
000001a0: a2e3 313c 3f9c 51bb b60b 81bc 25f7 833b
000001b0: 94ee 003c 216b 3c3c c185 5bbb a23b 383c
000001c0: 16f8 be3c 1e50 d53b ae0f 973b bce3 ddba
000001d0: 9e1a d63c 158b 913c 40c7 043d 8979 6a3b
000001e0: f099 4d3c 596a c03c c5d6 85bb 5aba c63c
000001f0: d4e8 87bb f3ab 2e3d 0984 94bb d5b0 1c3b
00000200: f163 873b 2b11 e73b d157 f23c c524 b93c
00000210: a6ac a2b9 b175 0dbc 8ebb 143c 2409 6f3c
00000220: e0e0 88bc ee2f 323d bde5 903c 8ee7 113b
00000230: 4e7d b73c 3bed 89bc a15f 9d3c 2c44 fdb9
00000240: 010d 203b e289 bc3c b73a e2bb fb2b 8a3c
00000250: 5c28 823c 6d91 0dbc bcb2 b7bc ba01 233c
00000260: cefe b83c bfb4 8fb8 201d be3c 430c cbbc
00000270: 5083 8e3c af0e 363c e11a e6ba 9074 55bc
00000280: a699 673c 9f9e 153b 4fd7 313c 0817 c33b
00000290: bc75 483c 64c3 9f3c b2f5 c73c 49c3 f53b
000002a0: fa43 363c 04bc f2bb 0eb4 a23c 5333 e03b
000002b0: 3dee 3b3c ca9d 8f3b 2b99 a93b d23a cc3c
000002c0: 2380 b4bc 6b11 18bc e74b 40bc 5d17 133c
000002d0: 6f7f 8e3b 5500 c3bc 380d 47bb 2e1e 67bb
000002e0: e17c 37bc eba8 1d3c 6a61 a63b 2b90 a53b
000002f0: fcc5 223d 1474 943c d20d 36bb 6840 f43c
00000300: 75a4 a73c 41b3 d33c cd06 11bb e60c 043c
00000310: 18c0 5cbc 215b dc3c 8ac4 c3bb 738d 583c

network_body.linear_encoder.seq_layers.0.weight f4 [200, 88]
0.093992785 0.09555923 -0.11946577 0.0049559264 0.13140605 0.023880647 0.042890314 -0.027033877
0.104663305 -0.029645206 0.18586646 0.022514168 -0.037331145 0.019001802 0.0076686987 -0.08429127
-0.15812165 -0.1100563 -0.11193696 -0.063713245 0.08497265 0.11842229 0.035530783 0.013220877
-0.21646172 0.086889006 -0.029480288 -0.10877143 0.01734191 0.04743897 -0.056645487 0.112632185
0.17915197 0.11576279 0.061242543 -0.120751016 -0.23097776 -0.093007274 0.20974132 0.030287532
0.0830852 0.022762667 0.22095835 -0.061561856 0.1515369 -0.022888407 0.08378458 -0.05583395
0.034732778 -0.06256641 -0.019925209 -0.10588431 -0.11899521 -0.046430796 0.068271995 0.008906386
0.13618523 0.0779222 -0.08831184 -0.06431326 -0.00836802 0.06481764 0.10256257 -0.14925633
-0.06148565 -0.115851685 0.11597543 -0.0056788693 0.07210256 0.07209861 0.14624421 0.010926967
0.046567526 0.055604246 -0.103419416 0.09361426 -0.04427212 -0.07431211 0.05065281 0.07682503
0.035278253 -0.073532544 0.062477846 0.18582556 0.0906699 -0.01753695 0.06363437 -0.1459046
-0.026870804 -0.056415167 -0.1753302 -0.051543973 -0.061238885 -0.021648487 -0.006397186 0.2305406
0.07551101 0.057207774 0.11079387 -0.11906365 0.19057277 0.04720617 -0.045606337 0.14906216
-0.20137101 -0.008008405 -0.19604757 0.1774262 0.001580846 0.05025101 -0.048046872 0.056581624
0.22296067 -0.022155557 0.043091197 -0.1745719 0.0067060674 0.04593798 -0.031290155 -0.07085396
-0.015034703 0.124918364 -0.09629808 -0.18535265 0.12855081 0.027507436 -0.15701236 0.06252453
0.21102731 0.1200459 -0.07916928 -0.027956584 0.26338083 -0.028166488 -0.031101193 0.17411843
0.04072805 0.06495387 -0.11993238 -0.1456702 -0.12554398 0.19819814 0.09816349 0.12212638
0.00064695324 0.039187018 -0.07439571 -0.011577807 0.108876616 0.118485965 0.008486008 0.039258406
0.05821842 0.03974284 0.00917554 0.008992999 -0.042301044 0.17262223 -0.008790854 0.049251497
0.07434916 -0.033449274 -0.08007628 -0.07101713 -0.013311262 0.12456239 -0.19297917 -0.10016374
-0.026420057 -0.010973163 -0.011332283 -0.08141423 -0.00034572146 -0.1649373 0.057819806 -0.10722084
-0.18577915 -0.049395885 -0.14931966 0.19197503 0.026249334 0.059476543 0.11757437 0.019221615
0.040587258 0.10299226 -0.008253058 0.07108329 0.111673675 -0.07440173 0.13447574 -0.039973143
-0.122335136 0.027600989 -0.049662735 0.08676156 -0.0797314 -0.045175206 -0.18304305 -0.06430228
-0.03298117 0.17043851 0.0001145114 -0.043084376 0.14262669 -0.06417246 0.0035674039 0.06672805
0.0021506837 -0.020931292 -0.018165339 0.10151451 0.10911531 0.01407093 0.048483454 -0.0701554
0.019704364 -0.18056874 0.1512273 0.13995227 0.034483816 0.13508774 0.08101716 0.032691896
-0.053352326 -0.022055335 0.050305262 0.03368092 0.041455425 0.082123175 0.036563173 0.24804509
-0.20510285 -0.06487918 0.031950943 -0.12688044 -0.03733055 -0.013488939 0.17747138 -0.18007351
0.23807497 -0.012075736 -0.047841422 -0.026700657 0.07512369 0.11562654 0.013891111 0.13873354
-0.05868411 0.09596983 0.1913093 0.09723469 -0.020551378 0.041010898 0.07269165 -0.017652864
00000000: 4a7f c03d 8fb4 c33d 78aa f4bd 5365 a23b
00000010: 4f8f 063e 59a1 c33c c1ad 2f3d 2676 ddbc
00000020: b759 d63d 81da f2bc c753 3e3e a26f b83c
00000030: 8be8 18bd aba9 9b3c b549 fb3b e7a0 acbd
00000040: a4ea 21be 3365 e1bd 343f e5bd 177c 82bd
00000050: 2406 ae3d 6387 f23d ba88 113d 619c 583c
00000060: 24a8 5dbe ddf2 b13d a580 f1bc 8ec3 debd
00000070: 9f10 8e3c 5e4f 423d 1905 68bd b4ab e63d
00000080: 9d73 373e 0b15 ed3d 76d9 7a3d 4f4c f7bd
00000090: 6f85 6cbe 997a bebd 6ec6 563e 8f1d f83c
000000a0: 9328 aa3d c678 ba3c e842 623e 4928 7cbd
000000b0: 7d2c 1b3e 7880 bbbc 4097 ab3d 24b2 64bd
000000c0: f543 0e3d d122 80bd 313a a3bc e0d9 d8bd
000000d0: c3b3 f3bd 382e 3ebd 30d2 8b3d 17ec 113c
000000e0: 2474 0b3e ad95 9f3d d7dc b4bd acb6 83bd
000000f0: 051a 09bc 1cbf 843d 530c d23d a7d6 18be
00000100: 60d8 7bbd a643 edbd 8784 ed3d cf15 babb
00000110: 82aa 933d 70a8 933d 0bc1 153e 0507 333c
00000120: 97bd 3e3d 47c1 633d 8fcd d3bd d5b8 bf3d
00000130: af56 35bd f330 98bd 5279 4f3d 7156 9d3d
00000140: ee7f 103d 3b98 96bd c5e8 7f3d 0e49 3e3e
00000150: 24b1 b93d a6a9 8fbc bd52 823d 0468 15be
00000160: 2920 dcbc 9713 67bd c389 33be c61f 53bd
00000170: a0d5 7abd 2b58 b1bc 7c9f d1bb d612 6c3e
00000180: 84a5 9a3d b352 6a3d e6e7 e23d a5d7 f3bd
00000190: 8225 433e 425b 413d b6cd 3abd c0a3 183e
000001a0: 3434 4ebe af35 03bc b2c0 48be 37af 353e
000001b0: 6434 cf3a 01d4 4d3d cccc 44bd 22c2 673d
000001c0: cd4f 643e 927f b5bc 6580 303d fac2 32be
000001d0: 92be db3b 7729 3c3d 1b2a 00bd e21b 91bd
000001e0: 1d54 76bc 33d5 ff3d ee37 c5bd 16cd 3dbe
000001f0: d3a2 033e 4657 e13c d9c7 20be dc0c 803d
00000200: 8b17 583e a0da f53d 8123 a2bd 3505 e5bc
00000210: dad9 863e 68bd e6bc eec7 febc 1a4c 323e
00000220: 75d2 263d 8906 853d 1c9f f5bd 922a 15be
00000230: 9a8e 00be 74f4 4a3e f109 c93d 651d fa3d
00000240: 4c98 293a 9182 203d c75c 98bd d8b0 3dbc
00000250: b4fa de3d c5a8 f23d e608 0b3c 6ccd 203d
00000260: 7076 6e3d 63c9 223d 0155 163c 5f57 133c
00000270: dc43 2dbd e2c3 303e 8407 10bc f0bb 493d
00000280: 5f44 983d 1b02 09bd 08ff a3bd 6e71 91bd
00000290: 7b17 5abc 911a ff3d 559c 45be a622 cdbd
000002a0: e06e d8bc c8c8 33bc 0aab 39bc 81bc a6bd
000002b0: f341 b5b9 53e5 28be 76d4 6c3d 9a96 dbbd
000002c0: e43c 3ebe 5753 4abd 41e7 18be 1a95 443e
000002d0: d808 d73c ad9d 733d d5ca f03d a676 9d3c
000002e0: d33e 263d 9bed d23d d637 07bc 1e94 913d
000002f0: 2bb5 e43d ef5f 98bd 02b4 093e e1ba 23bd
00000300: d88a fabd 781b e23c 276b 4bbd 0bb0 b13d
00000310: 374a a3bd a309 39bd a36f 3bbe eab0 83bd
00000320: 4317 07bd 6f87 2e3e d725 f038 3e79 30bd
00000330: bb0c 123e da6c 83bd 1bcb 693b b7a8 883d
00000340: 7cf2 0c3b 1a78 abbc 7acf 94bc d7e6 cf3d
00000350: d977 df3d c289 663c 9696 463d a2ad 8fbd
00000360: 0c6b a13c 03e7 38be 54db 1a3e a64f 0f3e
00000370: e73e 0d3d 7154 0a3e 53ec a53d f0e7 053d
00000380: f887 5abd 64ad b4bc e40c 4e3d 01f5 093d
00000390: 2acd 293d 3230 a83d 44c3 153d 88ff 7d3e
000003a0: 7b06 52be 60df 84bd fede 023d f2ec 01be
000003b0: ebe7 18bd b600 5dbc 0fbb 353e 3165 38be
000003c0: edc9 733e 4fd9 45bc 5ef5 43bd 56bb dabc
000003d0: 73da 993d 9bcd ec3d 8b97 633c 2a10 0e3e
000003e0: c05e 70bd d58b c43d 96e6 433e fb22 c73d
000003f0: 5d5b a8bc 0bfb 273d 5cdf 943d bd9c 90bc

network_body.linear_encoder.seq_layers.2.bias f4 [200]
-0.0043136813 -0.02037718 -0.014255395 0.027507747 -0.00041815022 -0.010271802 -0.010109445 0.025217216
0.0033120706 -0.01139134 0.035966534 -0.005912721 0.020517552 0.01883909 0.0010661469 0.035736527
0.010846021 0.00052352704 0.0028342549 0.006804207 -0.011949672 0.012060809 0.015551635 0.004077526
0.020012172 0.008845235 0.0034792696 0.013409023 0.0030200717 0.00401368 0.016039614 0.0029679162
0.002144357 0.0042209127 -0.0015009345 0.009261279 0.0067722085 0.003872163 0.0014959975 0.0009844959
-0.0029578179 -0.0032602837 0.017120719 0.0038515567 0.007524543 0.005494493 0.022440601 3.8967024e-05
0.0004998548 -0.007121444 0.0038297174 0.0069163176 0.0045851404 0.00023301221 0.005400998 0.018275041
0.016196867 0.0011416825 -0.00028853878 -0.0028393972 0.007752775 -0.007062606 0.0010791997 -0.0057818177
0.011918011 0.01669978 -0.00904485 0.02009031 -0.0064820102 0.035239708 -0.003798396 -0.0076752477
0.009290198 0.0066605983 0.015956366 -0.00096787995 0.009386075 0.0014752472 0.014645964 0.00067175494
-0.020155324 0.0017995992 0.014361612 -0.005666995 -0.0016437134 -0.0012526204 0.00023810418 0.00035845625
0.011557679 0.014104261 0.03585501 0.007641195 -0.01648063 0.021136245 -0.008902202 -0.010197057
-0.0021684933 -0.0031287083 -0.011367924 -0.001581995 0.019544039 -0.0039043422 -0.008114839 0.024013689
0.014229336 -0.0067204097 0.037888225 0.012914473 0.026151655 0.006848136 0.022352913 0.023896258
-0.017735533 -0.004879805 0.012958233 0.025404343 -0.0037829003 0.032763645 0.0069178888 -0.013034009
-0.00091214746 0.0039660917 0.0043612644 0.00038094042 -0.009179427 -0.0012773767 0.016306031 0.014664328
-0.0067491014 -0.004822737 0.005299955 0.010282598 0.0010228767 -0.0019630683 0.011839946 0.0030964676
0.020201309 0.022167284 0.0008078986 0.0059679444 0.0040814513 0.011050473 0.011395644 -0.000910614
-0.015498631 0.0028080207 0.008256373 0.0074358378 0.00590271 0.021029888 -0.0044436962 0.0010826696
0.021472732 0.0131446 0.012933255 0.008221803 0.0048980108 -0.001769988 -0.002248327 -0.0127824675
0.018044297 -0.016062098 0.04942023 0.003382873 0.023893552 -0.01483784 0.0025093355 0.0019618112
0.0010441019 0.006550023 -0.0075178277 0.00054784585 -0.005749039 -0.0029933795 -0.009592568 -2.3418212e-05
0.013638574 0.018415326 0.00069491175 0.0018801641 -0.0066119637 0.0014131796 -0.00661232 0.0012107409
0.023543462 0.040859833 0.0005555385 -0.014846698 0.00938554 0.012281173 -0.009903205 -0.0010263284
0.009039056 0.00424006 0.013996766 -0.01110458 0.0036291832 0.0082361 -0.021214522 -0.013549765
00000000: c859 8dbb 0bee a6bc 768f 69bc ed57 e13c
00000010: 2c3b dbb9 0f4b 28bc 16a2 25bc 5694 ce3c
00000020: 530f 593b bea2 3abc a551 133d 80bf c1bb
00000030: 6d14 a83c 6f54 9a3c f4bd 8b3a 7760 123d
00000040: 82b3 313c 4e3d 093a e8be 393b d3f5 de3b
00000050: 8fc8 43bc b39a 453c 49cc 7e3c c49c 853b
00000060: 91f0 a33c 9beb 103c 7504 643b 85b1 5b3c
00000070: 65ec 453b 3085 833b 8265 833c 5f81 423b
00000080: 5788 0c3b 954f 8a3b 01bb c4ba 9fbc 173c
00000090: 67e9 dd3b 1dc4 7d3b 5915 c43a 330a 813a
000000a0: f3d7 41bb 7caa 55bb c040 8c3c 666a 7c3b
000000b0: 7190 f63b 260b b43b 5ad5 b73c 8670 2338
000000c0: b008 033a 015b e9bb fffb 7a3b 47a2 e23b
000000d0: f23e 963b bd54 7439 dbfa b03b 8ab5 953c
000000e0: 4baf 843c 82a4 953a 0547 97b9 2e15 3abb
000000f0: fe0a fe3b 6f6d e7bb ef73 8d3a 6775 bdbb
00000100: c343 433c facd 883c da30 14bc 6f94 a43c
00000110: 0b67 d4bb 8357 103d 83ee 78bb a580 fbbb
00000120: ea35 183c 2641 da3b edb6 823c 53b9 7dba
00000130: 0dc8 193c 155d c13a a0f5 6f3c b618 303a
00000140: c71c a5bc 87e0 eb3a f74c 6b3c 33b2 b9bb
00000150: df71 d7ba f72e a4ba 9bab 7939 2fef bb39
00000160: 6b5c 3d3c 8f15 673c b4dc 123d fd62 fa3b
00000170: 6302 87bc eb25 ad3c 8bda 11bc 8f11 27bc
00000180: 481d 0ebb 040b 4dbb 8740 3abc f25a cfba
00000190: d21a a03c fedf 7fbb 1af4 04bc 5bb8 c43c
000001a0: 2922 693c e236 dcbb af30 1b3d 3a97 533c
000001b0: ff3b d63c 5466 e03b 751d b73c 16c2 c33c
000001c0: 1c4a 91bc c5e6 9fbb c54e 543c c51c d03c
000001d0: 89ea 77bb 2c33 063d 75af e23b 998c 55bc
000001e0: 2e1d 6fba fdf5 813b f0e8 8e3b f5b8 c739
000001f0: 4f65 16bc a66d a7ba 3a94 853c a642 703c
00000200: 9127 ddbb 0d08 9ebb 3fab ad3b 5878 283c
00000210: 0c12 863a d2a6 00bb 55fc 413c 1bee 4a3b
00000220: 377d a53c 2a98 b53c 28c9 533a bf8e c33b
00000230: b2bd 853b 0b0d 353c ccb4 3a3c 45b6 6eba
00000240: f8ed 7dbc c506 383b bd45 073c 54a8 f33b
00000250: 856b c13b df46 ac3c 6d9c 91bb 5de8 8d3a
00000260: 95e7 af3c 735c 573c 01e6 533c beb4 063c
00000270: 7e7f a03b f1fe e7ba ab58 13bb 8e6d 51bc
00000280: a2d1 933c a994 83bc de6c 4a3d 31b3 5d3b
00000290: 69bc c33c 691a 73bc aa73 243b bb91 003b
000002a0: 3fda 883a 93a1 d63b 1c58 f6bb 509d 0f3a
000002b0: 6f62 bcbb 932c 44bb 252a 1dbc 3a72 c4b7
000002c0: 5374 5f3c bddb 963c bd2a 363a d76f f63a
000002d0: 2ca9 d8bb 703a b93a 29ac d8bb b9b1 9e3a
000002e0: 38de c03c a45c 273d 8fa1 113a 913f 73bc
000002f0: cfc5 193c f936 493c 0d41 22bc de85 86ba
00000300: 8c18 143c 34f0 8a3b b152 653c fcef 35bc
00000310: 97d7 6d3b b5f0 063c 14ca adbc d5ff 5dbc

network_body.linear_encoder.seq_layers.2.weight f4 [200, 200]
-0.063631915 0.06916901 0.012060213 -0.08784938 -0.067742154 0.11774453 0.103816524 -0.059494995
0.06837392 -0.02803291 -0.034417994 -0.08272881 -0.049678568 -0.13482803 0.019500272 -0.04014255
-0.026029581 0.12485596 -0.05850722 0.04104668 -0.07330822 0.07205459 -0.009180228 -0.02903412
-0.015469352 -0.030712685 -0.01860827 0.020572646 0.00355827 -0.10646166 0.10723086 -0.039364614
-0.1079801 -0.04425722 -0.024813091 -0.155551 -0.06989628 0.02077787 0.0047412226 0.08306042
-0.06946926 -0.122902915 -0.13050318 -0.084035985 -0.023952762 -0.13423069 -0.035759453 0.07781783
-0.067998074 -0.032988433 -0.010753097 -0.056124926 -0.048884533 -0.0708536 -0.07095097 -0.033738375
0.100715324 0.09474086 0.09251881 -0.0022290023 0.0073220474 0.059849054 0.07207185 -0.07659494
0.011598662 0.03532822 -0.013660041 -0.08829268 0.006220126 0.06502882 -0.06578358 0.03031414
0.039320845 0.019689415 -0.00943168 0.03418522 0.019874416 0.037544947 0.004081818 -0.034701947
0.0027476947 -0.040388696 0.00041344995 0.032104775 0.06882511 0.058937088 -0.13489206 0.007247496
-0.08897858 0.048498884 -0.00024811842 0.0067290314 -0.037956767 -0.029291596 0.15053897 0.09406135
-0.15879098 0.17157198 0.09549955 0.10137602 -0.073488645 -0.1763811 0.037156142 0.061043143
0.0104313735 0.1374773 -0.050804246 0.00082661543 0.06677447 0.027522758 -0.09192767 -0.0129283145
-0.0016890712 -0.018708497 0.07206746 0.046855796 0.004897283 -0.03728764 -0.032638725 -0.019582992
-0.08336892 -0.0062859585 -0.022531696 0.016054984 -0.11448157 -0.04748263 -0.036791172 -0.033998393
0.011499071 -0.00012899154 -0.031968087 0.044385813 -0.004879372 -0.050742846 -0.05314391 -0.0012672653
0.091140695 -0.05967301 0.018044366 0.06926322 -0.045692384 -0.107401185 0.032983873 -0.016693456
-0.03036546 -0.014521972 0.036929782 0.06474581 0.05038676 -0.0026687793 -0.00698668 -0.01371203
-0.076085016 -0.074458405 -0.029006721 -0.02171265 -0.09789698 0.004292195 -0.0068240073 -0.07141839
-0.1437998 -0.12498432 0.15670827 -0.025916584 -0.076090425 -0.07164711 0.048360337 -0.033406332
0.007754795 -0.077357344 -0.04643925 -0.09665088 0.029748565 -0.040878486 0.008156883 -0.05963926
0.024208402 0.011040242 -0.02658504 -0.0025325792 0.09266558 0.07986542 0.1242245 -0.0014524508
-0.08519571 -0.08601292 -0.08653981 -0.025406916 -0.068535924 0.029223131 0.030678764 -0.07280436
0.138326 -0.06269434 0.022490619 0.104321904 -0.061716035 -0.09737744 -0.0033417332 0.16776124
-0.18280679 -0.10384755 0.07713576 -0.06633257 0.101139575 -0.059843946 -0.097848065 0.07548721
0.0010598439 0.014132744 0.06839179 -0.08219537 -0.019339783 0.051978078 -0.023883745 0.02220321
-0.034038458 0.0065789768 0.034692165 -0.05942778 0.01213308 -0.044806644 -0.0016572631 -0.050271135
-0.01049699 0.05598992 -0.057352986 0.07527065 -0.057990395 -0.052940518 -0.021366997 0.179801
0.09881058 0.022945324 0.05849939 0.05050833 0.0002894752 0.020427734 0.0976943 -0.01799235
0.037358757 0.05450148 -0.074252404 -0.08153368 0.09347745 0.07901669 0.031995624 -0.06413755
-0.026102336 0.0021440005 -0.07304504 0.013505667 -0.07879519 -0.070092194 0.08554184 0.049992453
00000000: 7351 82bd 7ba8 8d3d 3398 453c 60ea b3bd
00000010: 66bc 8abd 0b24 f13d c29d d43d 06b1 73bd
00000020: a007 8c3d 46a5 e5bc e2f9 0cbd b96d a9bd
00000030: c17b 4bbd 5c10 0abe 09bf 9f3c 846c 24bd
00000040: fd3b d5bc 7bb4 ff3d 44a5 6fbd 9020 283d
00000050: 9f22 96bd 5b91 933d ab68 16bc f6d8 edbc
00000060: 2a73 7dbc 2b99 fbbc 5f70 98bc f787 a83c
00000070: dd31 693b 9208 dabd da9b db3d ca3c 21bd
00000080: ac24 ddbd 0f47 35bd d344 cbbc c348 1fbe
00000090: c825 8fbd 5a36 aa3c 425c 9b3b 951b aa3d
000000a0: e645 8ebd 86b4 fbbd a0a2 05be 0f1b acbd
000000b0: 9538 c4bc c573 09be 8178 12bd f45e 9f3d
000000c0: 9342 8bbd e11e 07bd c22d 30bc 40e3 65bd
000000d0: 263b 48bd b11b 91bd be4e 91bd 4031 0abd
000000e0: d643 ce3d 7f07 c23d 807a bd3d 7414 12bb
000000f0: c9ed ef3b 4824 753d 689a 933d cfdd 9cbd
00000100: 5008 3e3c 53b4 103d 5dce 5fbc cbd2 b4bd
00000110: 33d2 cb3b d42d 853d 8bb9 86bd 5c55 f83c
00000120: e50e 213d b24b a13c 5587 1abc cd05 0c3d
00000130: accf a23c bbc8 193d c5c0 853b a123 0ebd
00000140: ab12 343b 9e6e 25bd 50c4 d839 4c80 033d
00000150: 2ef4 8c3d 0468 713d 2521 0abe 677c ed3b
00000160: 673a b6bd c4a6 463d e415 82b9 357f dc3b
00000170: 8e78 1bbd eef4 efbc e326 1a3e 3da3 c03d
00000180: 1a9a 22be 91b0 2f3e 4595 c33d 3b9e cf3d
00000190: 3781 96bd 3f9d 34be 0a31 183d 6008 7a3d
000001a0: 5ae8 2a3c d9c6 0c3e 1d18 50bd 39b1 583a
000001b0: 0ec1 883d 6877 e13c 9344 bcbd 48d1 53bc
000001c0: d363 ddba 9042 99bc 1b98 933d ddeb 3f3d
000001d0: 6379 a03b edba 18bd 2fb0 05bd 836c a0bc
000001e0: 53bd aabd 71fa cdbb 6494 b8bc be85 833c
000001f0: 5075 eabd 257d 42bd 57b2 16bd e641 0bbd
00000200: 9966 3c3c e741 07b9 f8f0 02bd e6cd 353d
00000210: 24e3 9fbb bbd7 4fbd 6ead 59bd 5e1a a6ba
00000220: f9a7 ba3d b06b 74bd c7d1 933c e0d9 8d3d
00000230: f027 3bbd 27f5 dbbd 191a 073d b7c0 88bc
00000240: fcc0 f8bc 91ed 6dbc af43 173d 7499 843d
00000250: 5962 4e3d b0e6 2ebb 85f0 e4bb 6ca8 60bc
00000260: 76d2 9bbd a67d 98bd 819f edbc bade b1bc
00000270: 367e c8bd 8ba5 8c3b ec9b dfbb ce43 92bd
00000280: 4140 13be c7f7 ffbd 2278 203e 044f d4bc
00000290: 4cd5 9bbd b8bb 92bd 7d15 463d 14d5 08bd
000002a0: ef1b fe3b 876d 9ebd 1537 3ebd e6f0 c5bd
000002b0: 43b3 f33c 3370 27bd 72a4 053c 4c48 74bd
000002c0: b350 c63c 22e2 343c dfc8 d9bc a1f9 25bb
000002d0: 74c7 bd3d 7b90 a33d 6a69 fe3d 2960 beba
000002e0: 177b aebd 8b27 b0bd c93b b1bd 2a22 d0bc
000002f0: 905c 8cbd 5965 ef3c 0852 fb3c 741a 95bd
00000300: 55a5 0d3e e465 80bd 3f3e b83c b9a6 d53d
00000310: f4c9 7cbd d36d c7bd fb00 5bbb 9ac9 2b3e
00000320: b431 3bbe 06ae d4bd 5af9 9d3d 5fd9 87bd
00000330: 4422 cf3d ed1e 75bd 9164 c8bd 0a99 9a3d
00000340: 76ea 8a3a 068d 673c ff10 8c3d 0c56 a8bd
00000350: 776e 9ebc f7e6 543d d8a7 c3bc 82e3 b53c
00000360: e96b 0bbd 7594 d73b 5f19 0e3d 8b6a 73bd
00000370: d3c9 463c 2c87 37bd 8638 d9ba 1be9 4dbd
00000380: 91fb 2bbc b055 653d f7ea 6abd 8027 9a3d
00000390: 5687 6dbd 28d8 58bd d709 afbc c11d 383e
000003a0: 345d ca3d d5f7 bb3c 0e9d 6f3d d3e1 4e3d
000003b0: b4c4 9739 1058 a73c f313 c83d b164 93bc
000003c0: 7f05 193d f23c 5f3d a511 98bd 21fb a6bd
000003d0: 1b71 bf3d 81d3 a13d d80d 033d 8c5a 83bd
000003e0: 91d4 d5bc 5c82 0c3b a398 95bd e046 5d3c
000003f0: 5f5f a1bd 7f8c 8fbd 8f30 af3d e3c4 4c3d
