Assets/Networks/Agent-999891.onnx (onnx, 107868 bytes, 9 tensors)

action_model._continuous_distribution.log_sigma f4 [1, 3]
00000000: 21e6 c5bd 97cc 0dbd af04 8cbd
-0.09663034 -0.03461894 -0.06836831

action_model._continuous_distribution.mu.bias f4 [3]
00000000: bfe6 11bd cc4e 2b3c 7785 4e3c
-0.035620447 0.010455798 0.012605063

action_model._continuous_distribution.mu.weight f4 [3, 128]
00000000: 3115 fdbb d4ec 0b3d 0211 adbc fa87 493d
00000010: 44f6 6abd 04bd 403d 6964 4e3d 1bb3 6f3d
00000020: 7492 b23c 37f3 0a3c 7d57 1abd 36f7 5bbd
00000030: cb6b 943c 2b04 14bd b591 823d 865a b23c
00000040: 066b 213c e8b8 13bd edd2 68bd 87e9 fbbc
00000050: 026b 4abd 7db4 3ebd 2929 26bc b325 60bb
00000060: 1de4 83bd 14fd 8fbd 6c58 62bc efb9 993c
00000070: 6495 a23c 5f15 583d 428f febb 6c83 60bd
00000080: e66a d3bc 5113 14bd d335 893d 036d e9bc
00000090: a861 893d 0787 86bd b6fc 413d bad6 f4bc
000000a0: 9659 a23c 224b 513d af5e 84bd c6fe 363d
000000b0: f0d4 1b3c c2fa 6a3d c065 59bd ad5a 78bc
000000c0: 1a15 6f3d 800e 04bd 5fa3 84bd f0ad 82bc
000000d0: e7a8 1d3d fa84 39bd 197a 453d eebf cf3c
000000e0: b382 4bbb 357e 233d 2fbe 94bc cfe9 b3bc
000000f0: 4a55 2abd 03f6 1ebd a74c 24bc 3855 543d
00000100: cae1 663b 3881 7f3d 8240 393d 159d 1a3d
00000110: 91a5 87bc 050c c8bb a58a 87bc 2c2b 08bd
00000120: a5f5 17bd a632 3b3c 15cd 16bd 46ad 35bd
00000130: cf77 cdbc dbfe d4bc dd79 5abd 6790 55bd
00000140: 93d9 5c3d 93df fabc 65ac 393d 5823 2fbd
00000150: 07fa 953c fc70 8a3c e1ec 34bd 8e9c ccbc
00000160: 1a3c 7fbd 1a44 8abd c38d e73b a456 debc
00000170: b469 92bc 6e7f 47bd 3ee6 dbbb f0e0 2f3c
00000180: 78a9 86bd 2684 2abd b609 093d 95ad 433d
00000190: bdc5 333d 12fa 423d 66d8 663c 7f7c 6dbd
000001a0: d8ec 8a3d b7df 963c fb0f a1bd 447c 4cbd
000001b0: d1fa 1cbc 0032 8e3b cec7 8a3d 5627 50bd
000001c0: dbab d93c c3af a23d 4384 88bd e258 5abd
000001d0: f5ad ca3c dbe0 533d da93 0b3d 834a 09bc
000001e0: d525 973c b566 0cbd 8b00 fb3b 6308 5b3c
000001f0: 435c 95bb f80b c6bc ab2d f9bc 8807 fc3c
00000200: 5230 b13d f5e0 ab3c 545a 543c 213c 42bd
00000210: ac00 4d3c e4a4 1cbd d598 06bd e016 9ebc
00000220: 29e8 f43b 687b aa3b 1087 183d 6171 89bc
00000230: ae3b 9e3c 61c1 0b3d fbdd 453c cc21 16bc
00000240: d267 2c3d 1130 c13c 33cd 913d 9f48 543d
00000250: 1b27 f03c 0f0b d5b8 7520 c2bb 493c 193d
00000260: 43d9 1b3c cdce 063c 4dac 2ebc 0ee8 97bc
00000270: 4e3b 0139 d021 e3bb cfb6 233d 68d6 3e3d
00000280: 4138 88bb 62ca 313c d989 7bbc e7cf e23b
00000290: c975 19bd 30cf 6d3b a10d 11bd 5c6b 133c
000002a0: 6dc2 67bc f828 923c 1c7f 9c3c b4b1 dfbc
000002b0: fb48 7abd cdcf d1bb 588a 1e3d e85f 12bc
000002c0: 4196 f53b 26cb c93c e663 223d 5311 dbbc
000002d0: a796 c1bb bb13 023d ecd4 52bd c390 8b3a
000002e0: 63f4 6d3c 5319 7bbc d9a7 baba d106 913c
000002f0: 2181 5abb eae3 ff3c eac5 123d 1de3 81bc
00000300: 8e58 d63c 453e c4bc 1548 373a b581 f8bb
00000310: bca5 413c bd34 54bd 6824 9f3a 3fbd 1e3d
00000320: ed67 963c e0b2 4dbd b584 c6bb 8b04 d53c
00000330: e548 6e3b 0a81 873c f4c1 26bd be5f c13c
00000340: 8026 a13c dfa6 64ba 812c e6bc c597 863d
00000350: c356 32bd 62e7 d1bb dd78 3a3d 867c 0c3d
00000360: f19e 213d db84 753c 82e1 8bbc b89c 063d
00000370: 1227 743d 45a3 a03c b726 483b 3453 c4bc
00000380: 6f96 f2bc f029 afbc ab69 5d3d 95a8 6dbd
00000390: 685c 8cbb c9c5 05bd b68e 51bc 6b5a 463d
000003a0: fede c0bc 2815 83bc 371f 0dbd 22ad 2fbd
000003b0: 7ae4 313d ff6b 8dbc 9990 61bc dce9 413c
000003c0: 9ece d2bb 4adc f1bb cabb 0b3d 9481 f13c
000003d0: 3929 d2bb 5e9b adbc 922b 96bb d098 ae3b
000003e0: 74c8 f6bb d789 9f3a dc6c e63c 28aa d7bc
000003f0: 5f3e 683d f307 15bd 78d2 cd3c 7425 e3bc
-0.0077234735 0.034161404 -0.021126274 0.049201943 -0.057363763 0.04705526 0.050388727 0.058520418
0.02179835 0.0084808385 -0.03768109 -0.053702556 0.018117806 -0.036136787 0.06375448 0.02177168
0.0098521765 -0.036065012 -0.05684178 -0.030751003 -0.049418457 -0.046558846 -0.010141649 -0.0034202158
-0.064399935 -0.07030693 -0.013815027 0.018765418 0.019846626 0.052754756 -0.0077685425 -0.054812834
-0.02580781 -0.036151234 0.06699719 -0.028494364 0.067080796 -0.06568723 0.047360145 -0.029887546
0.019818109 0.051097043 -0.06463372 0.044676565 0.0095112175 0.057368048 -0.053075552 -0.015158338
0.058369733 -0.03224039 -0.06476473 -0.01595208 0.038491156 -0.045292832 0.048212145 0.025360074
-0.0031053245 0.039915282 -0.018157093 -0.021962075 -0.041585244 -0.038808834 -0.010028041 0.051839083
0.0035229796 0.062379092 0.045227535 0.03774746 -0.01655844 -0.0061049485 -0.016545603 -0.033244297
-0.0370995 0.01142565 -0.036816675 -0.0443547 -0.025081543 -0.02600043 -0.053338874 -0.052139666
0.053918432 -0.030624187 0.045330424 -0.042758316 0.018307699 0.016899578 -0.044171218 -0.024976995
-0.062313177 -0.067512706 0.00706646 -0.027140923 -0.017872669 -0.04870551 -0.0067107966 0.010734782
-0.06575292 -0.041629933 0.033456527 0.047772963 0.04388975 0.047601767 0.014089679 -0.057980057
0.067834556 0.018417222 -0.07864376 -0.049923196 -0.009581284 0.0043394566 0.06776391 -0.050818764
0.026571205 0.0794368 -0.06665852 -0.05330742 0.024741152 0.05172811 0.03407655 -0.008379581
0.018450657 -0.034277637 0.007659977 0.013368699 -0.0045581176 -0.024175629 -0.030417284 0.03076531
0.086517945 0.020981291 0.012960989 -0.047420625 0.012512367 -0.03824319 -0.032860596 -0.019298017
0.0074739647 0.0052026995 0.03723818 -0.016777696 0.019315567 0.034119967 0.01207685 -0.009163331
0.0420912 0.02358249 0.07119217 0.05182707 0.029315522 -0.00010158691 -0.0059242793 0.037411008
0.009512248 0.008228016 -0.010661197 -0.01854327 0.00012324491 -0.006931521 0.03996926 0.046591192
-0.0041570966 0.0108514745 -0.01535269 0.0069217565 -0.037465844 0.0036286823 -0.03541339 0.008997764
-0.014145476 0.017841801 0.01910358 -0.027306415 -0.061104756 -0.0064029456 0.038706154 -0.008933999
0.0074947183 0.024633002 0.03964605 -0.02674166 -0.0059078517 0.031757098 -0.05147259 0.0010648001
0.014523598 -0.015325862 -0.0014240696 0.017703446 -0.0033341127 0.031236608 0.035833277 -0.015855366
0.026165273 -0.023955474 0.0006991637 -0.0075838217 0.011819299 -0.051808108 0.0012141587 0.038754698
0.018360103 -0.050219417 -0.0060583004 0.026003143 0.0036359366 0.016541023 -0.040712312 0.023605224
0.019671679 -0.00087223755 -0.028097393 0.065719165 -0.043539774 -0.006405757 0.04552542 0.034298442
0.03945822 0.0149852885 -0.017075304 0.032864302 0.059607573 0.019609103 0.0030540654 -0.023965456
-0.029612748 -0.021382302 0.05405585 -0.0580221 -0.0042834766 -0.032659326 -0.012790373 0.048426073
-0.023543831 -0.016001299 -0.034453597 -0.04288972 0.043430783 -0.01726341 -0.013767385 0.011835542
-0.006433322 -0.007380997 0.034114636 0.029480733 -0.0064136055 -0.021192249 -0.0045828307 0.0053282753
-0.00753122 0.0012171817 0.02812808 -0.026326254 0.056700107 -0.036384534 0.025124773 -0.02772782

action_model._discrete_distribution.branches.0.bias f4 [2]
00000000: d8f4 f53a 93f4 f5ba
0.0018764986 -0.0018764905

action_model._discrete_distribution.branches.0.weight f4 [2, 128]
00000000: 1332 2cbd 7979 c5bc 0d8d e5bb 917f 82bc
00000010: 4d49 e4bc 554d c2bb a373 7e3c aa36 543c
00000020: 61e6 183d fe30 06bb 2851 23bd 8c8c 97bb
00000030: 1949 f337 68ee 93bd 2f98 293c 69f6 933b
00000040: ccd6 8439 d834 473c 8972 c13b e0f9 5abc
00000050: 28f5 d5bc a6c6 25bc c20d a33c 2936 c13c
00000060: f512 8e3c f7bc c6bb a126 343b 4d44 593b
00000070: 7ea1 feba fec6 86bc e5db e13c ada5 b0ba
00000080: 41fd 093c 52b8 153c a472 e0bc b47f c33c
00000090: 52ee ea3c a160 8fbc 4091 013c 4a99 5b3b
000000a0: f3e9 c93c 6168 763a 3273 51bc f599 a239
000000b0: 8668 903c 053f 903c becd febb 57d9 9dbc
000000c0: f68d 953c b2f6 eabb f69c 8fbd aa9d 0b3d
000000d0: a79a b83c 3970 5f3b c5b5 b73c 50d6 133d
000000e0: c2ee cd3c 95d4 3abc fcd0 883d 9fcf a2bc
000000f0: bc51 853b dfba b13b 75ff c53c cc8f 36bb
00000100: d4d2 143d 6900 d53c 1e71 903c c9cf 6ebc
00000110: 9b80 343c 9481 e4bc 110b 2cbc 543e 463b
00000120: 6d73 413c cae2 133d 499e afbb 7bdc 8cbc
00000130: 925e 4dbc 43c5 fa3c e2ed 823c 9a34 ebbc
00000140: 8fb2 943b 60a8 fc3c 60d2 2abd 0c4f 5cbc
00000150: 543f ccbc ebb4 32bd 6223 263b 4d0b 993c
00000160: 1022 96bc 60ca b73c 4898 4d3c 803f e33b
00000170: 8651 f13c 36e0 a73b f04b 87bb 9f69 5b3c
00000180: 0509 95bc ea17 b43c d6dc 083d f96e c4bc
00000190: 696c 72bc 28ef 9cba 6e4d cb3b f523 003d
000001a0: 8f4a c43c fd92 b3bb e3be 35bd 4ab1 5ebc
000001b0: 514d 9cbc 32cf c7bc 1913 35bb fe84 43bc
000001c0: dd2c 203d b9a2 a63b c959 f33c de9d 853a
000001d0: 1e26 c0bc 31dc 3c3c 3a50 b1bc 58f6 053d
000001e0: 19d4 523a 9e8b b4bc c605 0f3c bc5f 923c
000001f0: 5bb0 f03c b42c 463a a2f2 e23c e733 7f3b
00000200: 2082 113d 4cdf 073c fbd2 dcbb 6977 e8bb
00000210: 67c7 0e3d 2269 6bbc 42f3 81bc 7780 0dbc
00000220: f425 5bbd ad82 123c 2e89 353d b889 633c
00000230: 6fd4 613c bee6 973d c745 ebbc 4a23 8cbb
00000240: af07 cc38 38ae 93bb 610c 84bc 50d3 5a3c
00000250: 35b9 8a3c ab10 4b3c b360 8dbc f32c c3bc
00000260: 8b00 cabb e78b f83b b011 413c d660 2b3c
00000270: 1267 eebb 7013 163c 82c1 b5bc 831e 0c3c
00000280: 5e38 11bc c12a c23b 7cb2 7e3c 5835 10bd
00000290: 0f60 ccbc 03e5 ec3c 809e 893a 1b5b a8bb
000002a0: 79c8 afbc b909 563a 101d 0f3c fa81 603c
000002b0: 8159 7eba 913e 7abc 9a86 5a3b 8f34 dd3c
000002c0: 3e91 34bc 8bbe b63b f403 373d 9fff e9bc
000002d0: 56a3 cf3b 3df1 f13b 4cf6 9e3a 77dd 1abd
000002e0: e19d efbc 5c80 1e3b d658 67bd 92ff a23b
000002f0: 6817 73b9 95b2 8d3c 2189 fdbc 801a 5c3c
00000300: c470 15bd d9ba 18bc 54be d73b 2c84 c73c
00000310: 8911 86bc aa87 103d 8cc5 b33c 5831 963b
00000320: 1930 ae3b e4c1 9bbc 2e6e 83bb e2a6 003d
00000330: de89 d4bb fb10 abbc 3857 f8bc c55a 253d
00000340: 0552 89bc cc6f e2bc b1d4 5d3c 1e45 8e3c
00000350: 89c0 cf3c f637 463c 6eed db3c 98a9 cabc
00000360: cf1d db3c ea1b 75bc 5c26 4dbb d8a6 4fbc
00000370: d8ed 97bc e6b3 f43b 406d a9ba cbcc 39bc
00000380: 4a63 a0ba c8cb b5bc 7237 06bd 8159 2f3c
00000390: 800d e93c d6e1 093b 7ec7 46bc b36f 53bc
000003a0: 2f91 31bd 3777 0c3c 947f 873d 776a bc3c
000003b0: af98 153d 9b7c 163c 0aa1 f1bb e992 053d
000003c0: cf31 1fbc 0881 353c 30c4 81bc 00fa 49bb
000003d0: 66e7 5a3c 4750 ec3b 10ba d03c 629b ec38
000003e0: 42d3 743b 0e6f db3c ad6a 26bb 4997 89bc
000003f0: 49d3 afbc c634 9bbb 0aa3 34bc de7b 25bc
-0.042039942 -0.024105774 -0.00700534 -0.015929969 -0.027866984 -0.005929629 0.0155305 0.012952486
0.03732908 -0.002047598 -0.03987232 -0.004624909 2.9001896e-05 -0.07223207 0.010351225 0.0045154584
0.00025337038 0.012158595 0.005903546 -0.013365239 -0.026117876 -0.010118162 0.019904021 0.023585396
0.017343024 -0.006065007 0.0027488845 0.0033152283 -0.001942679 -0.016452309 0.027570674 -0.001347711
0.008422197 0.009138184 -0.027398415 0.023864605 0.028678093 -0.017502131 0.007908165 0.0033508115
0.024647688 0.0009399709 -0.012783812 0.00031013755 0.017627966 0.017608175 -0.007775991 -0.019268675
0.018256169 -0.0071705217 -0.0701236 0.034085907 0.022534681 0.003409399 0.022425542 0.036093056
0.025138263 -0.011403223 0.066804856 -0.019874392 0.0040685814 0.005423888 0.024169663 -0.0027856706
0.036333874 0.026001172 0.017632063 -0.014575907 0.01101699 -0.027893819 -0.010500685 0.0030249553
0.011807305 0.036104955 -0.0053594452 -0.017194977 -0.012534754 0.03061164 0.015982572 -0.028711606
0.0045378874 0.030842006 -0.041704535 -0.013446581 -0.024932541 -0.043629568 0.002535068 0.018682146
-0.01832679 0.022435367 0.012548514 0.00693506 0.029457819 0.0051231636 -0.0041289255 0.013391881
-0.018192777 0.02198406 0.03341373 -0.023978697 -0.014796355 -0.001197313 0.0062042987 0.03128429
0.023961334 -0.005480169 -0.044371497 -0.013592074 -0.019079836 -0.02439079 -0.0027629791 -0.011933563
0.039105285 0.005085316 0.029705899 0.0010194143 -0.023455676 0.011527107 -0.0216447 0.032705635
0.0008042469 -0.02203923 0.008729404 0.017867915 0.029380968 0.0007559762 0.027703587 0.0038940848
0.035524487 0.008292984 -0.006739018 -0.007094313 0.034858134 -0.014368327 -0.015863065 -0.008636585
-0.05350299 0.008942288 0.044320278 0.013887815 0.013783558 0.074170575 -0.028719796 -0.0042766677
9.728909e-05 -0.0045068525 -0.016119184 0.013356045 0.016934017 0.012394111 -0.017258024 -0.023825144
-0.0061646155 0.007585037 0.011784002 0.010460099 -0.0072754705 0.009159908 -0.022186998 0.008552196
-0.008863537 0.005925507 0.015545484 -0.035207123 -0.024948148 0.028917795 0.0010499507 -0.0051378137
-0.021457897 0.0008164901 0.008734956 0.013702864 -0.0009702668 -0.015273706 0.003334439 0.027002601
-0.011020957 0.0055769137 0.044681504 -0.028564272 0.00633661 0.007383494 0.0012127846 -0.03780886
-0.029250087 0.0024185395 -0.056481205 0.004974314 -0.00023183005 0.017297069 -0.030949177 0.0134340525
-0.036484495 -0.009321892 0.006583968 0.024355017 -0.016365783 0.03528563 0.021944784 0.004583519
0.0053157923 -0.019013353 -0.004010937 0.03140915 -0.0064861616 -0.02088212 -0.030315027 0.040369768
-0.016762743 -0.0276412 0.013539479 0.017366942 0.025360363 0.012098303 0.026846614 -0.024739072
0.026747612 -0.0149602685 -0.0031303382 -0.012674056 -0.01854603 0.0074677346 -0.0012926236 -0.01134033
-0.0012236622 -0.022191897 -0.03276772 0.010702492 0.02844882 0.002103915 -0.012132524 -0.012905049
-0.04335135 0.008573345 0.066161305 0.022999985 0.036522564 0.009184982 -0.0073739337 0.032610808
-0.009716465 0.011078127 -0.01584062 -0.0030819178 0.013360834 0.0072117182 0.025479347 0.00011282299
0.0037357365 0.026786353 -0.0025393174 -0.016795771 -0.021463053 -0.0047365157 -0.0110252 -0.010100333

network_body.linear_encoder.seq_layers.0.bias f4 [128]
00000000: 605a 143d 2d34 b13b 5ac5 763c 68a4 3a3c
00000010: d42c 123c 50f9 85bc 7f04 61bb c9af b93c
00000020: 8d90 193c c9b9 ea39 b6e9 cb3c 090d 593c
00000030: 3777 413b 0011 09bc 2151 d03b f3f7 37bc
00000040: 98f5 e43b 4a49 ad3c efb7 453c ec9e 513c
00000050: 5ae5 d53c 0a03 e13c 6375 153c efbe fb3c
00000060: 71c2 ae3b b072 413c a856 2a3d b50d 8b3c
00000070: 76c7 86bb 6bb7 453b ca9e 4a3a fe6d 233d
00000080: be83 bdbc 3470 423c df0b 313d c1c0 6abc
00000090: a358 9d3c 4ca7 bbbb 398b ddbb bb62 48bc
000000a0: 526b 163d 78e7 233d 2e76 a53c 78fe 81bc
000000b0: 212b cbbc d24c 0a3c e458 7d3c bae5 df3a
000000c0: 64e3 023d 06ce c2bb d962 ce3c fb07 b93c
000000d0: 3118 c23c fc07 503d a7cf 4ebb 530a 8a3c
000000e0: 2de5 8cbc cebb 833c ac83 64bb 72a9 ee3c
000000f0: e68d 933b 71c1 1bbc 5a14 8a3b b140 f83b
00000100: d6ec 343b 4fab 103d d6ff 063d 75e9 b53b
00000110: 30af 223d 2682 b73c 4970 a3bc be5a ea3c
00000120: 57f3 b43b 67b0 f0bb 286f 9abc 8790 a33c
00000130: 1f02 823b aad2 eebb 4ad9 e13c f920 f5bb
00000140: 69e9 203c 65e9 b43c 4881 da3b 4968 05bc
00000150: 2b85 833c 450d 263c 65f5 883c 635d 743c
00000160: 6bae c43c 0674 cf3c 04c3 f13c 0e4c 0a3d
00000170: eaac eb3c 7c26 6b3c cc57 ad3b eb50 a53c
00000180: d3e4 1b3d 3367 dc3a d4b3 bfbb cf82 d8b9
00000190: 3152 7f3c 6dba 733c b84b ad3c a6c5 433d
000001a0: 4243 173d bb31 0c3d 6615 023d b015 57bc
000001b0: 0cb1 fd3c 542a bc3c fb27 163d 27c3 30bd
000001c0: 2b9a b0bc c9d4 ac3c a309 88bd 16ef 3a3d
000001d0: bb7c 93bc a6a2 f03c 4334 723c abfd c1bb
000001e0: 505c 863c 1bf4 e9bb b587 353b 1a2e 8ebc
000001f0: 7df8 1f3d e069 f93c 0633 113c c333 103b
0.036219 0.005407831 0.015061701 0.011391737 0.008921821 -0.016354233 -0.0034334955 0.022666829
0.0093728425 0.0004477038 0.024891715 0.013247737 0.002952052 -0.0083658695 0.0063573276 -0.011228549
0.006987285 0.021153111 0.012067779 0.012794238 0.02611034 0.02746727 0.009122225 0.030730693
0.005333238 0.011807129 0.041586548 0.01697431 -0.004113133 0.003016914 0.000772935 0.03989982
-0.023134109 0.011867572 0.04322421 -0.014328183 0.019207304 -0.0057267305 -0.0067609814 -0.01223057
0.036723442 0.040015668 0.020197954 -0.01586841 -0.024800839 0.008441167 0.015463088 0.0017082014
0.031955138 -0.00594497 0.025193619 0.022586813 0.023693176 0.050788864 -0.0031556876 0.016850626
-0.017199123 0.016080763 -0.0034868522 0.029133532 0.0045029996 -0.009506569 0.004213852 0.007576071
0.0027606986 0.035319623 0.032958828 0.005551512 0.039717853 0.022400927 -0.019951003 0.028607722
0.0055221724 -0.0073452475 -0.018851832 0.019966377 0.003967538 -0.0072882967 0.027569432 -0.0074807373
0.009821274 0.022083947 0.0066682436 -0.008142539 0.01605471 0.010135 0.016718576 0.014914843
0.02400895 0.025323879 0.029511936 0.033763938 0.028768975 0.014352437 0.005290007 0.020180186
0.03806002 0.0016815424 -0.0058502946 -0.0004129619 0.015583561 0.01487599 0.02115427 0.047795914
0.036929376 0.034227114 0.03175869 -0.013127729 0.030968212 0.022969402 0.036659222 -0.04315486
-0.021557888 0.021097558 -0.06642463 0.045638166 -0.018003812 0.029374432 0.014782968 -0.005920132
0.01640144 -0.0071396953 0.0027699296 -0.017355967 0.039055336 0.030445993 0.008862263 0.0022003509

network_body.linear_encoder.seq_layers.0.weight f4 [128, 70]
00000000: 304e c03d 8a0d 5f3d 28df 19bd 0747 26bb
00000010: 1852 813d 9476 063e fd02 cabd 5456 273e
00000020: e7c9 e9bc 0596 063e 235a 1dbe c285 f33d
00000030: b10c 5b3e 8bc3 fb3d 6aa2 233e 14a3 df3d
00000040: 4bb8 cf3d adc9 b2be 215f 3b3d 9020 82bd
00000050: dcc4 b93c bda0 c33e e2bc 24be d88d 45bd
00000060: 35fb d13d 1dd0 d43d eebe 2f3e 409a 1a3d
00000070: f525 ac3d d5f7 e3bd 0f9c 8cbd c518 15be
00000080: 4e27 3cbe 57fa 09be ebfb 1dbe 6b98 613d
00000090: b934 823a 8e74 5d3d 8ed9 b43d 49fa df3d
000000a0: c329 febd ab34 463e 210c 03be 205f 0ebe
000000b0: f1f4 143d c80a 073d a5c1 a2bb 7218 7cbd
000000c0: a52e 333e 2b8b d5bc 5f9a 1dbd ce0a a33d
000000d0: 79da a43d ef0e f43d 38ad 423d b5f5 3b3e
000000e0: 771c fb3d da21 5f3d 04f5 a1bd 926f 803c
000000f0: 77c1 0cbd c9cd 353d 70b5 4ebe 3bf0 d4bd
00000100: 4ba2 2ebe d31e 1dbe 3098 f23d 687d 4f3e
00000110: e50d adbe 3206 76bd 9829 173e f06c 773e
00000120: 4d74 843d 83e3 bcbd bb1e 1d3d 1775 aabc
00000130: 7194 c73d 3fd4 86bd d1db 193d f5fe 11bd
00000140: c618 003e ed0c c23d 8611 21bd 3375 8c3d
00000150: 0db1 26be c1d7 9dbd 0c93 60bd fc8a d43d
00000160: 3475 ae3e fa06 e2bd 32e3 87bd 1333 1f3e
00000170: b9b2 a23d 6efe 923d c4e9 c93d b631 b4bc
00000180: 4700 4dbd a784 36bd c60d 37bc 0768 e0bd
00000190: 6da9 773e 5d92 f6bd 8f91 a33c 3b63 2d3e
000001a0: 8432 6a3e 7da5 b33a 62f5 e03c e128 ee3d
000001b0: cad5 dabb 339b 24bd d821 27be 8fd7 483e
000001c0: 9402 b8be 1fed c93c 4973 233e 798b c4bd
000001d0: 7043 80bc d205 0dbe 1ef2 f1bd 1ba5 27bd
000001e0: d1f5 4fbe 567b 1abe a9ac 22bd 2f5b 83bb
000001f0: 2409 38be 1fe6 953e a03e a0bb 8456 67bd
00000200: f586 cdbc 3e25 f1bd d1da 213e 56b4 81be
00000210: a931 0fbd 9989 f73d 9a03 49be 15a1 523e
00000220: a55e 133a c98d a4bc d08e f439 9e6c e5bd
00000230: 0661 15bd b169 183e 2cac 163e e725 92bd
00000240: 8b46 b03c 98fa a23d 8584 9bbc 4307 b8bd
00000250: 511c c3bd b05b 953d 5e3b 8fbd ed50 3d3e
00000260: efaa 903c d8bc f6bd d658 a1bd a050 fe3d
00000270: 4d3d 793b fc7b 303d 6f62 fcbb 3fe2 30be
00000280: 443e 20bd e2b4 143c 763d 85bd 396e 64bd
00000290: 58cd 963c 12bd 683e 6824 813d 10b4 fdbd
000002a0: ce6c dabd 63a2 a13b 3b74 cb3c 33aa 02be
000002b0: d6fc 35bd 8a10 433e c5fa 753b bc44 f73d
000002c0: 61ae 813c 0004 a4bd 3193 f5bd edf5 9abd
000002d0: 1667 e43b 8076 943e e3af 19bc 7fc8 4cbe
000002e0: a3e7 ba3d eef9 d83d 002e 1cbd 67c7 213e
000002f0: 90f1 3bbe ef8a 9fbd f42f 26bd adc8 87bd
00000300: 389d b63d 3703 dcbd e72e eabc ca25 08be
00000310: 5584 a6be 3eb1 6fbe b81a e7bc 852e 3a3d
00000320: bf7a 98bc 9b42 47bd ff73 da3d 77d0 f5bd
00000330: d630 943c e930 04be 9be7 8b3d 3edc 3d3e
00000340: db9c 1c3c e21a 8abd 4678 733e 756c 263d
00000350: 1f6e 62be 047a 6c3d 5e40 a73d bdff 04be
00000360: 2930 a23d a6cc f8bd 1a08 d23d cfea 913e
00000370: 8f31 6c3c 89d5 01be 058c 3e3d f42a 29bd
00000380: cee8 be3c ffa7 89bd e164 2c3e 8cec 343d
00000390: 5b1c f13d bc31 8c3e 340e f5bc 315d 8d3c
000003a0: 13dc 2c3d fc5a 0eba 1b3b ff3b 3e08 a53c
000003b0: d19b 933c 5587 2ebd bf9b 95bd 55fe cc3d
000003c0: 7f1c 90bd 3c3e e23d 1517 4ebe 9c13 bebb
000003d0: 1412 3cbe 7f2a a83e 4b66 6d3e e4e5 e0bd
000003e0: d17a 5dbe 2261 94bd 6356 3ebc 8d7d 8cbd
000003f0: 1701 843c 78ff fdbd 45ff 86bd 65ae 213e
0.09389913 0.05445627 -0.037566334 -0.0025371925 0.06314486 0.13131171 -0.09863851 0.16341525
-0.028538657 0.13143165 -0.15366416 0.11890747 0.2139156 0.12293156 0.15979925 0.109197766
0.10142573 -0.3491949 0.04574502 -0.06353867 0.022676878 0.3820857 -0.16087678 -0.048230976
0.10252992 0.10391257 0.17162678 0.03774476 0.08405677 -0.111312546 -0.06865703 -0.1456023
-0.18374369 -0.13474403 -0.1542813 0.055076998 0.0009933925 0.054066233 0.08830558 0.1093641
-0.12410309 0.19356029 -0.12797596 -0.13903475 0.036366407 0.032969266 -0.004966932 -0.06154675
0.17498262 -0.026067337 -0.038477298 0.07961045 0.08049483 0.11916911 0.047528476 0.18355449
0.122612886 0.054475643 -0.07908061 0.0156782 -0.03436419 0.044385705 -0.201864 -0.10397383
-0.17054097 -0.1534379 0.11845434 0.20262682 -0.33799663 -0.060064502 0.1476196 0.2416265
0.06467495 -0.09223082 0.038359385 -0.020807786 0.0974511 -0.065834515 0.03756315 -0.035643537
0.1250945 0.09475122 -0.039323352 0.068582915 -0.16278477 -0.077071674 -0.054827735 0.10378072
0.34073794 -0.11036487 -0.06635131 0.15546827 0.07944245 0.07177435 0.098590404 -0.02199636
-0.050049093 -0.0445601 -0.011172717 -0.10957342 0.24185725 -0.12039635 0.019966869 0.16932385
0.22870833 0.0013705936 0.027460758 0.11628891 -0.0066783177 -0.040187072 -0.16321504 0.19613479
-0.35939467 0.024649201 0.15961947 -0.09596915 -0.015657157 -0.13771752 -0.11813758 -0.04092894
-0.20308615 -0.15086111 -0.039715443 -0.0040086727 -0.17972237 0.2927713 -0.004890278 -0.056478992
-0.025088767 -0.117746815 0.15806128 -0.25332898 -0.03495947 0.120867915 -0.1963028 0.2056926
0.0005621708 -0.02008714 0.0004664571 -0.11202358 -0.036469482 0.14884068 0.14714116 -0.071361355
0.021518013 0.07957953 -0.018984089 -0.0898576 -0.09526885 0.07292879 -0.06993745 0.18487902
0.017659632 -0.12047738 -0.07878272 0.12417722 0.0038030923 0.04308699 -0.007702164 -0.17273806
-0.03912188 0.009076329 -0.06505863 -0.05576918 0.018408462 0.22728375 0.06305772 -0.1238786
-0.10665284 0.004932688 0.024835696 -0.12760238 -0.044430576 0.19049278 0.0037533503 0.12073657
0.01583022 -0.080085754 -0.11990965 -0.07566438 0.0069702966 0.28996658 -0.009380314 -0.19998358
0.091262124 0.10594545 -0.038129807 0.15798722 -0.18353868 -0.07790171 -0.040573075 -0.06630073
0.08916706 -0.10742801 -0.028586818 -0.13295665 -0.32522836 -0.23407456 -0.028210983 0.04545452
-0.018613217 -0.048647504 0.10666656 -0.12002652 0.018089693 -0.12909283 0.068312846 0.18541047
0.009558882 -0.06743409 0.2377635 0.040630776 -0.2211232 0.05773355 0.08166574 -0.12988181
0.07919342 -0.121484086 0.102554515 0.28499457 0.014416113 -0.12679113 0.04652025 -0.04130073
0.02330437 -0.06721496 0.16835357 0.0441709 0.117729865 0.27381694 -0.029914 0.017256351
0.042202067 -0.0005430428 0.0077890283 0.020145532 0.018018635 -0.04260953 -0.07305097 0.100094475
-0.07036685 0.110470265 -0.20125993 -0.0058006775 -0.18366271 0.32844922 0.23183553 -0.10981348
-0.21628882 -0.07245089 -0.011617276 -0.068598844 0.0161138 -0.124022424 -0.065916575 0.15789182

network_body.linear_encoder.seq_layers.2.bias f4 [128]
00000000: ca51 153d 0dbe b53c a7fe d43c a55a 13bc
00000010: f414 c13c ebe2 cabc 316c dbbc 48e3 32bd
00000020: acde c63c 9169 c43c 90e7 9a3c 453d 983c
00000030: 4d61 eb3b 29ec 193d 8694 a5bc 6b4c 20bc
00000040: 7601 40bc 48f8 573c 4708 043d 15f5 093d
00000050: cfa0 d23c a2f9 813c 9779 0ebc 861d dc3c
00000060: 0999 ec3c fd5c 3b3d edee 0a3d 7b5e 613b
00000070: a1f8 0dbc 19a8 f1bc c270 213c e2b9 053d
00000080: bea0 0eba 6c25 9a3c 7d64 6fbc 1a46 883b
00000090: dc1b dbbc 505a 073d 8edd 0cbd aa46 aa3b
000000a0: 21ec 03bd ee1e b2bc 72e3 0e3d 2fd9 88bc
000000b0: 5364 0abc 80aa 36bc da5e cb3c f3e9 f93a
000000c0: 50b4 03bd b56c ed3c 3f53 f33c b67c d33b
000000d0: c68d 23bd 90b7 f93c 350f f8bb 3307 0abd
000000e0: f8a2 f8ba 838a d9bb e2f1 043c ce18 bd3c
000000f0: acc9 d93c 0151 e93c 159e 563c e0f8 06bc
00000100: cbb1 923c b61e dfbc b0ce c0bc 9552 5fbc
00000110: 5cc9 d3bc 6ec6 333c 1cf5 b03c def2 643c
00000120: 8cd1 b53c 8408 67bc 2cec a73c 047c f13c
00000130: ff98 d73a b663 f43b 9ff7 b93b 75aa ce3c
00000140: 74e6 153b 03a8 b13c 4251 523b 7bfb f23c
00000150: dc1a 0c3c 882b d4bb dcab 7d3c 044a cf3c
00000160: dc5e 273d a584 fa3c c972 f33a 2a28 d43c
00000170: faa7 783b 64b2 113d 2805 bf3c 5e8c 4e3c
00000180: b0c2 c83c 824c 813b 4beb 343b e912 e4bb
00000190: 7713 07bd 16a5 d6bc 8c77 6dbc 38e7 893c
000001a0: 21be b23b 893c 97ba 357b 263d 97a1 75bb
000001b0: 485b 6e3b ec44 bd3b 4b1d e9bc 929a 203d
000001c0: cdf8 d5bc c02e f5bc 0a21 013d 7f54 ff3c
000001d0: 9a3b aeba 1ffe 7dbc 2613 75bc 703f 463c
000001e0: 56c3 15bb 47dc 8a3b d376 873b 3e76 96bb
000001f0: 2193 de3a b015 f43a 082d a73c 1f13 b03b
0.036454953 0.02218535 0.026000334 -0.008993779 0.023569562 -0.024766406 -0.026784988 -0.043673784
0.0242761 0.02397612 0.018909246 0.018583903 0.00718323 0.037578736 -0.020212423 -0.009783844
-0.011719098 0.013181753 0.032234456 0.033680994 0.025711445 0.015866105 -0.008695981 0.026869547
0.028881567 0.045742977 0.033919264 0.003438859 -0.008665235 -0.0294991 0.009853544 0.032647975
-0.00054408226 0.018816672 -0.014611361 0.0041587474 -0.026746683 0.033045113 -0.03439098 0.005196412
-0.032207612 -0.021743264 0.034884878 -0.016705124 -0.008446771 -0.011149049 0.024825502 0.0019066915
-0.03215438 0.0289825 0.02970278 0.0064540757 -0.039930128 0.030483037 -0.007570172 -0.033698272
-0.0018969467 -0.0066388263 0.00811431 0.023083117 0.026585422 0.028481008 0.013099213 -0.008238047
0.017907044 -0.027236324 -0.023536056 -0.013630529 -0.025852852 0.010972602 0.021601252 0.01397392
0.022194646 -0.014101151 0.020498358 0.02947808 0.0016448795 0.0074581755 0.0056752707 0.025227765
0.0022872956 0.02168656 0.003209189 0.02966093 0.008551326 -0.006474916 0.015482869 0.025303848
0.04086195 0.030580828 0.0018573637 0.025898058 0.0037941919 0.035570517 0.023317888 0.012606708
0.024506897 0.003945888 0.0027606066 -0.006960262 -0.032977547 -0.026201766 -0.014493834 0.016833887
0.005454794 -0.0011538427 0.040644843 -0.0037480348 0.0036370326 0.0057760384 -0.02845635 0.03920991
-0.026119614 -0.029929519 0.03152565 0.03116822 -0.0013292909 -0.015502482 -0.014958179 0.012100086
-0.0022852025 0.004237685 0.004134038 -0.0045917323 0.0016981104 0.0018622186 0.020407215 0.005373373

network_body.linear_encoder.seq_layers.2.weight f4 [128, 128]
00000000: b7eb a23d 83a5 2ebe b599 bc3c 98b4 1a3e
00000010: 5670 98bd 68df 5cbd ec9b 1e3e 504c b6bc
00000020: bcca 60be 110b 5ebd 013b f33d 0b07 5e3d
00000030: 471c 0dbe 6b2c 7e3d 80bf 2b3d 27df c93d
00000040: 6364 dcbc 4e2c 8e3d 657a 143c bbea ffbd
00000050: 3fb1 123d af41 b0bd ea1d dd3c 2886 dcbc
00000060: f824 83bd 37e3 ec3d f72c 04bd 5b7b 9e3d
00000070: f8ae 43bd 620a 0bbe 7b13 2e3d b7c0 433e
00000080: 727c 49bd 94ae bf3c 53ff d43b c5df 9ebd
00000090: 3a10 e23d b696 05be a51c e93d 9703 84bd
000000a0: 4c1f b9bc 4779 c13d 87be 34be 892e 4c3c
000000b0: 8b20 28be 22a9 5c3d 4728 773d 93d8 5b3d
000000c0: 4089 af3d 0a31 bfbd 9160 2f3e 59a7 3c3d
000000d0: fa6e 053d ff92 333d 2444 98bd 6092 e9bc
000000e0: f7f7 003c 64ce ea3d 16b8 79bb 043c 033c
000000f0: ba39 3dbd 4e84 b8bd 5627 a63d cdd8 c6bd
00000100: 8a92 143e 080d 2bbd 52c4 c33d 3410 703d
00000110: 0435 173e cf25 333e d8a3 b4be 14c9 f4bd
00000120: 4f3f 47bd 0838 50bd 42d8 d1bd b689 86bd
00000130: 4ccb d53c 9385 1fbe 0794 a83d 3aee f2bc
00000140: 33de 46bd 5cbe 5f3d c752 fcbd cd88 413e
00000150: 10df cb3d 2818 20bd fd78 0f3d 850d 82be
00000160: 68cb 0bbd d2a5 ccbd 48d9 d73d 9484 a53d
00000170: d16e f8bd 8f26 4dbc 6500 5abd 4d33 0abd
00000180: 52d2 79be 8edd 6dbc 1d83 d73c 8638 5eba
00000190: c3a9 993e 8c9b 893e 8b2c c9bc dcce dcbd
000001a0: f23d 81bc 0fa9 7cbe 0545 7a3d 75a3 0f3d
000001b0: b5e7 1c3d 483d 5b3d f82f 9ebc 549d b6bd
000001c0: 911d 023e 72e9 ea3d 0b0e 193d a524 8c3d
000001d0: 46cc 64be a9ab 873d 8221 ef3c a003 05be
000001e0: 7d0e 6e3c 33c0 57be 2b5a 933d 18ee 2cbe
000001f0: 4a39 de3d 5482 a63d b1a3 18be cd44 f23d
00000200: a9c7 febd 3035 353c 9e21 dfbc a40d 893e
00000210: df1c bcbd c47e abbc 21b5 6f3d 7e7c febd
00000220: e580 76bd 52b4 b7bc f73a 593e 8eb0 f0bc
00000230: 1c83 bcbb 0c8a 27be 93db 78bb 330f a13c
00000240: b00c 0b3d b55e 073d 33ab b3bc 43e4 d5bd
00000250: bcbb e7bd 1441 a7bc fbff 2dbd 89b3 263e
00000260: 0901 b2bc c890 1b3d d251 0dbd 3452 913d
00000270: b0ac 53bd 79af 293d 8b85 85bc f3a2 f23a
00000280: d2b1 793d 7bf8 173c 26b9 5dbd 5980 0cbe
00000290: e241 22bb 9793 0ebd 18ac 51bb b515 e5bd
000002a0: f450 053d 8904 033b 005c 7e3d c5e5 8cbc
000002b0: 0426 29be 3059 a0bd 33e1 8ebd fb3e d73d
000002c0: aeab 713d af6d 94bd 3ae3 80bd c3e3 d4bd
000002d0: e664 35bb 0555 5a3e 70a5 ae3d 465f 973d
000002e0: a8aa 2e3d d3d9 873d 5a0b 95bd 254a b73c
000002f0: 20b4 503d bf38 b23d 6fb0 59bd 2440 36bc
00000300: d6a8 16be cea5 06bd 3134 bebc 03e5 3bbc
00000310: 3533 afbd d2ad 97bc 9119 5c3e af43 29be
00000320: daf8 55bb b4ee 993d ff94 c9bb 50b7 c9bc
00000330: e4a3 9e3d c4e4 923c 2d4e a33d 32fd ee3c
00000340: ed2e f53d fe52 8d3d 1584 4cbd eeef 0bbd
00000350: 8bec a6bd 794d 213e c4d8 ecbd 619a f13b
00000360: 72f8 fa3d 6a27 a13d e0dc c73c 54f6 183e
00000370: c2c2 173e ee07 55bd 3a97 313d d110 05be
00000380: 70bd 313e 098c 4dbc a47f 023d af1e 28bc
00000390: c0e3 f73d d373 c3bd 9db3 dc3c 1976 6f3d
000003a0: bf7c 2a3e b626 25bd d2d4 2abd 67d0 503d
000003b0: eebd 063b 85dc 0e3d 53ce 883d d1f3 22bd
000003c0: 2263 913c a598 693d 4693 053e 4d2a 7a3d
000003d0: 4b6c eb3d 3dca 57bd 28fb c5bd 8a67 72bd
000003e0: 1170 27bd 01a0 05bd d48b 5d3d 36be 2ebe
000003f0: 9391 8d3c 14eb 48bc 2133 57bd 5366 103d
0.07955115 -0.17055325 0.023022512 0.15107954 -0.074433014 -0.053923994 0.15489167 -0.022253186
-0.21952337 -0.054209772 0.118764885 0.054205935 -0.13780318 0.06205408 0.041930676 0.09857016
-0.026903337 0.06942044 0.009062384 -0.12495943 0.035813566 -0.08606278 0.026991803 -0.02691944
-0.064035356 0.11566775 -0.032269444 0.07738372 -0.047774285 -0.1357818 0.042499047 0.19116484
-0.049190946 0.023398675 0.0065001636 -0.077575244 0.11038251 -0.13045773 0.11382417 -0.06445997
-0.022597931 0.0944696 -0.17650805 0.012462267 -0.16418664 0.053872235 0.060341146 0.05367334
0.085711 -0.09335525 0.17126681 0.046058033 0.03257654 0.04384136 -0.07434872 -0.02851218
0.007871619 0.11465147 -0.0038104109 0.008009914 -0.04619763 -0.0900961 0.081129715 -0.0970932
0.14509025 -0.041760474 0.095589295 0.058609203 0.14766318 0.17494892 -0.35281253 -0.11952415
-0.04864436 -0.050834686 -0.10246326 -0.06569235 0.026097916 -0.15578298 0.08231359 -0.02965461
-0.04855175 0.0546249 -0.12320476 0.18899842 0.09954655 -0.039085537 0.035027493 -0.2540094
-0.03412953 -0.09992565 0.1053949 0.08081928 -0.121305116 -0.0125214 -0.053223033 -0.03374033
-0.24396637 -0.014518155 0.026307637 -0.00084770506 0.3001233 0.26876485 -0.024557373 -0.10781643
-0.015776608 -0.24673866 0.06110098 0.035067994 0.03830691 0.05352524 -0.019309983 -0.08916727
0.12706591 0.114703074 0.037366908 0.06842927 -0.22343549 0.066245385 0.029190782 -0.12989664
0.014529821 -0.21069412 0.071949326 -0.168877 0.10850771 0.08130327 -0.14906193 0.11829529
-0.12440426 0.011060044 -0.02723771 0.2676822 -0.09185194 -0.02093447 0.058522347 -0.12426089
-0.060181517 -0.02242485 0.212139 -0.029381063 -0.005752934 -0.16361254 -0.0037972673 0.019660568
0.033947647 0.033049304 -0.02193222 -0.10443928 -0.11315104 -0.020416774 -0.04248045 0.16279425
-0.02172901 0.03797987 -0.034501858 0.07095757 -0.05167836 0.04142711 -0.01629903 0.0018511697
0.0609606 0.009275551 -0.05413165 -0.13720836 -0.0024758507 -0.03480872 -0.0031993445 -0.11185781
0.032547906 0.0019991717 0.062099457 -0.017199406 -0.16518408 -0.07829511 -0.06976547 0.105100594
0.059001617 -0.07247483 -0.0629334 -0.103950046 -0.0027678548 0.21321495 0.085276484 0.07391219
0.04264322 0.066333435 -0.07277556 0.022374222 0.05095303 0.0870223 -0.053146776 -0.011123691
-0.14712843 -0.032872967 -0.023218246 -0.011468175 -0.08554689 -0.018515501 0.21494128 -0.16529725
-0.0032649548 0.07516232 -0.006151795 -0.024623543 0.077461034 0.01793135 0.07973895 0.029173467
0.11971841 0.06900595 -0.04993065 -0.03416436 -0.08150586 0.1575221 -0.11564782 0.0073731397
0.122544184 0.07868846 0.024397314 0.14937717 0.14820388 -0.052009515 0.04335711 -0.12994696
0.17357421 -0.012545594 0.03186001 -0.010261222 0.12103987 -0.09543576 0.026941115 0.058462236
0.1664915 -0.04032012 -0.041706868 0.050979998 0.0020559984 0.034878273 0.06679978 -0.039783303
0.017747466 0.05703034 0.13044462 0.061075497 0.114952646 -0.052683104 -0.09667045 -0.059180774
-0.04087836 -0.032623295 0.05408843 -0.17064747 0.01728133 -0.012263078 -0.052538995 0.035253834
