Assets/Networks/AgentPowerYellow.onnx (onnx, 238908 bytes, 9 tensors)

action_model._continuous_distribution.log_sigma f4 [1, 3]
000000 03 31 94 bb 3d 32 9c 3c 5c 17 25 bd
       -0.004522444 0.019066924 -0.04030548

action_model._continuous_distribution.mu.bias f4 [3]
000000 60 58 21 3c b6 04 89 bc bc e6 49 3a
       0.00984773 -0.01672588 0.00077019236

action_model._continuous_distribution.mu.weight f4 [3, 200]
000000 23 da ef 3a 5b 7b 9f bb 8c 88 dc bc 7c 2c 84 bc
       0.0018299263 -0.004867 -0.02692058 -0.016134493
000010 22 44 35 bc 99 8a a1 bc 2d a1 20 3c ba cc 9a bc
       -0.011063607 -0.019719409 0.009804052 -0.01889645
000020 19 64 8d bc fb 18 df bb 9b 99 f9 3b 8c d2 36 3c
       -0.017259644 -0.006808398 0.007617188 0.011158597
000030 ec 7f 7f 3b c1 fc 04 3d 8f 26 bd bb f2 e1 df bb
       0.003898616 0.032467607 -0.005772419 -0.0068323547
000040 dc d8 92 b9 22 41 56 bc c2 a9 3c 3c 67 0f 80 3b
       -0.00028008863 -0.013077052 0.011515083 0.003908086
000050 2d ba d7 ba f4 c0 9b bc 0f 13 56 3c 9a 4c 11 bd
       -0.0016458683 -0.019012906 0.013066067 -0.035473444
000060 4e 00 1f bd 41 bd fd bb 5b 1f 59 3c 3f cd 55 3c
       -0.03881865 -0.007743508 0.013252105 0.013049423
000070 33 60 02 3c e2 16 19 bc 9b 36 f3 bb 0c 10 47 3d
       0.007957506 -0.009343835 -0.007422281 0.048599288
000080 6b f8 b0 3c 83 d5 29 3c e5 ca aa 3b bf 28 98 3b
       0.02160283 0.010365847 0.005212175 0.004643529
000090 ec 71 5f bb 61 ab 84 3b e8 14 2d 3d da 78 e4 bb
       -0.0034095002 0.0040487503 0.042256266 -0.0069724144
0000a0 18 e3 94 bc aa e1 12 bc 3a 24 62 bc 6c 37 b1 3c
       -0.018174693 -0.008964935 -0.013802582 0.021632873
0000b0 62 63 80 bb d1 dd 98 bc d1 b0 c9 bc 6e 9a 1c bc
       -0.0039180974 -0.018660458 -0.024620445 -0.009558303
0000c0 97 be 07 3c af b1 a8 3c 4a 5e 91 bc 20 72 59 bc
       0.008285186 0.020592539 -0.017745156 -0.013271838
0000d0 f6 7b 3c 3c b0 11 6d 3b 9b ed c3 bc 77 7a 06 bd
       0.011504164 0.0036173873 -0.02391701 -0.032831635
0000e0 c5 68 b1 3c 35 14 02 3d 64 14 95 bc 50 8c bf bb
       0.021656403 0.031757552 -0.0181982 -0.005845584
0000f0 be fd 2c bc f4 14 f9 3c e2 c0 3a bb 6c e0 13 3b
       -0.010558544 0.030405499 -0.0028496315 0.0022564186
000100 98 4d d8 bc 14 19 b0 bb 56 72 13 bd be 52 a3 bc
       -0.026404187 -0.0053740833 -0.03599771 -0.019936915
000110 4f 48 66 3c 02 55 d2 bb 71 ca 36 bc b8 50 56 bc
       0.014055326 -0.006418825 -0.011156664 -0.013080768
000120 f4 dc d0 bc db bf ae bc 59 8e e1 3b 10 ca e2 3b
       -0.025495984 -0.021331718 0.0068834242 0.0069210604
000130 26 d3 b6 bc b6 42 98 3c a4 0c 21 bc ea 82 1b bc
       -0.02231748 0.018586498 -0.009829674 -0.009491662
000140 60 88 7a bc 71 5d 03 3c 32 c5 27 3c 36 f0 a8 3b
       -0.015291303 0.008017884 0.010239886 0.0051555885
000150 12 18 cc 3a 64 29 93 3c 94 57 d4 3c 46 70 9c bc
       0.0015571138 0.017964073 0.025920667 -0.019096505
000160 e0 42 bc 3c 6e 68 ca 3c c3 95 9b 3b 33 f4 32 bc
       0.022981107 0.024708 0.0047480776 -0.010922479
000170 09 1d 17 bb e8 95 8d 3c f9 84 6f 3c 73 c5 54 3c
       -0.0023058078 0.017283395 0.0146191055 0.012986529
000180 2c 7e 04 bb c8 ce e2 bb f9 5c 08 bb 21 9f 0e 3a
       -0.0020216806 -0.006921623 -0.002080737 0.0005440582
000190 bd 09 18 3b 2a 07 3f 3d cb fc 1a 3b 28 5b e7 3c
       0.0023199164 0.04663769 0.0023649212 0.028241709
0001a0 47 e0 f1 3c eb 31 b3 bc 19 0a bd bc 2d 48 99 bb
       0.02952589 -0.021874389 -0.023076104 -0.0046777935
0001b0 5d c6 81 bb 52 3f 45 3b 29 f0 39 bd d9 6e 4f bd
       -0.0039604143 0.0030097556 -0.04539505 -0.050642822
0001c0 02 46 ee 3c 8a d6 0d 3c b1 cc 58 bc 4e 44 0a bc
       0.029086117 0.008657107 -0.013232396 -0.008439137
0001d0 a9 3a 9e 3b 17 83 95 ba ed 01 7f bc 98 eb d0 3c
       0.00482877 -0.0011406866 -0.015564424 0.025502965
0001e0 ac c6 b4 bc 14 96 b1 3c 4c 8f 63 bc ea 29 2c 3c
       -0.02206739 0.021678008 -0.013889145 0.01050804
0001f0 b4 35 15 3c 84 3b 56 bc a0 a0 ba 3b ef 34 ce bb
       0.009107042 -0.013075713 0.0056954175 -0.0062929313
000200 64 bf 3a bd b4 bf 84 bc 7e da 10 3d 80 a3 a5 3b
       -0.04559268 -0.016204692 0.03536462 0.005054891
000210 5e 69 3a bc 73 30 ad 3c 40 be 5f bc 15 d6 b2 3b
       -0.011377661 0.021141266 -0.013656199 0.0054576495
000220 f3 11 b2 3b 48 a5 aa bb 40 bd 9e bc 06 26 73 3c
       0.0054342686 -0.0052076913 -0.01937735 0.014840608
000230 ce 99 1e bd f9 46 37 3c 2c c2 37 3c 58 01 b1 bc
       -0.0387209 0.011186355 0.011215728 -0.021607086
000240 ca 79 10 3c ae 94 f3 3c 12 19 fd bc e1 cf 47 bb
       0.008818099 0.029733982 -0.030895744 -0.0030488896
000250 ea ef 7e bc 61 66 3c 3c 06 87 c0 bc e9 13 b2 ba
       -0.01556013 0.011499018 -0.023501884 -0.0013586256
000260 53 b8 52 3d 73 6c 33 3d 15 3c 1f 3c 1f 00 90 bb
       0.051445317 0.043804597 0.0097189145 -0.0043945457
000270 4a b4 58 bc c7 50 3a bd 33 de 72 bc d8 64 35 3d
       -0.013226578 -0.04548719 -0.014823484 0.044285625
000280 50 94 35 3b 28 53 3f 3c c8 9f 95 bc dd 16 67 bc
       0.002770681 0.011677541 -0.018264666 -0.014104572
000290 82 94 a3 3c 3d dc 07 3c 05 2a d5 3a a0 4b af 3c
       0.019968275 0.008292255 0.0016263133 0.021398365
0002a0 76 ff 09 3d 16 b2 3a bc e3 07 94 bc bf 0c 27 3b
       0.033690892 -0.011394998 -0.018070167 0.0025489775
0002b0 b5 92 0e 3c 9e b3 0d bc 1a ca 10 bc 2b 1b 3e bc
       0.00870197 -0.008648781 -0.008837247 -0.011603157
0002c0 6a fd f0 ba c2 b6 b4 bc 7d 07 6a 3b 01 9f 0d 3d
       -0.001838607 -0.022059802 0.003571003 0.034575466
0002d0 4e fa 67 3c 53 b1 a3 bb c0 0d a5 3c 73 2d 77 bb
       0.014158798 -0.004995504 0.020148158 -0.0037716299
0002e0 22 3a 46 bc e2 f1 89 3b 43 2e 0c 3b 82 61 e5 3b
       -0.012098821 0.004209743 0.0021389879 0.007000149
0002f0 47 a4 2f 3c 97 17 a6 3c e7 52 aa 3b a4 93 0b bc
       0.010720319 0.02027492 0.005197871 -0.008519087
000300 b5 84 45 bc 99 9a a5 3b 89 30 5c 3c a0 27 ba bc
       -0.012055566 0.00505383 0.013439306 -0.022723973
000310 21 aa ee 3b 6a 51 95 bc 83 69 fd 3a 47 a5 fb bb
       0.0072834645 -0.018227298 0.0019333813 -0.0076796147
000320 f5 48 30 ba 37 98 e6 bc b6 d6 7d bc 29 66 b0 bc
       -0.00067247386 -0.028148754 -0.015493086 -0.021533089
000330 51 53 7c 3c 59 5c e1 3c 9a e8 ce 3c 16 74 b9 3c
       0.015400724 0.027509855 0.025257397 0.022638362
000340 aa 3c 09 3d e0 54 0a bc 6c 4e ba bc 6d f9 1d 3c
       0.03350512 -0.008443087 -0.022742473 0.009641987
000350 3c d4 04 3d 00 4e 38 3c 8e 12 ff 3c 41 bc ab 3c
       0.032428965 0.011249065 0.031136777 0.02096379
000360 9e 14 3b 3c ea 08 df 3c 56 59 53 bc d9 d5 b7 bc
       0.01141849 0.02722593 -0.012899717 -0.022440838
000370 de 03 e1 3c 0f e4 8f 3a e3 23 3a 3c ed 8c b4 39
       0.027467664 0.0010978001 0.011361095 0.00034437273
000380 ee 96 b7 3c 2e 47 03 bd 25 a5 40 bc 41 ef 02 bc
       0.022410836 -0.032050304 -0.0117581235 -0.007991613
000390 6b 73 ad 3c a8 be be bc 2a e5 1b bb b8 a3 23 bc
       0.0211732 -0.023284271 -0.0023787715 -0.009987764
0003a0 fe 03 fd 3b 5d 4a 58 bc 4d af 4e bb 7d d5 7e 3c
       0.007721423 -0.013201323 -0.0031537593 0.015553829
0003b0 d5 60 f2 3a c6 4a 84 bc 27 89 29 3b 80 d3 c7 3c
       0.0018491993 -0.016148936 0.0025869103 0.024392843
0003c0 0d 26 83 b9 93 02 a9 bc a1 0a 49 bc 81 39 38 bc
       -0.00025014617 -0.02063111 -0.012270601 -0.011244179
0003d0 84 cb 8b 3b ca 6e 56 3c fd 56 db bb 5b 99 bc 3c
       0.0042662043 0.013087938 -0.0066937194 0.023022344
0003e0 10 cb d7 3c d7 7f d1 bc 4e f7 3e 3c bd 33 5d 3c
       0.026341945 -0.025573654 0.011655642 0.013501105
0003f0 9c 9a fc bb 62 71 7c bc 1d 57 64 3b 8a df 5e 3c
       -0.0077088606 -0.015407892 0.0034841963 0.013603101

action_model._discrete_distribution.branches.0.bias f4 [2]
000000 23 f5 f9 bc 23 f5 f9 3c
       -0.030512398 0.030512398

action_model._discrete_distribution.branches.0.weight f4 [2, 200]
000000 76 d6 ec 3a 85 3c c0 3b c6 be 18 bc d0 39 06 3c
       0.0018069285 0.0058665895 -0.009322828 0.0081924945
000010 f1 bc 6f bc 2d 9f 2d 3b 1f f1 55 3c 0d 0e 14 3c
       -0.0146324495 0.0026492581 0.013057976 0.009036553
000020 76 31 15 3d 15 7b 1f 3c 0c 58 ca 3c 61 3f 36 bb
       0.036424123 0.009733935 0.024700187 -0.0027808773
000030 97 78 a3 3b 61 97 94 39 53 44 5f bb 44 7e ea ba
       0.0049887407 0.00028341546 -0.0034067824 -0.0017890413
000040 05 d7 e0 3c b6 c3 8a 3b 0e 4c 2e 3c 10 48 2e bb
       0.02744628 0.0042347563 0.01063825 -0.0026593246
000050 4e 2a 80 3b f7 3c 3b bb 71 e6 87 bb e0 a3 ad 3c
       0.003911293 -0.0028570273 -0.004147344 0.021196306
000060 4f b0 da 3c 3a 62 b3 bb 8a 89 df bb 4f 05 57 3c
       0.026695399 -0.005474356 -0.006821816 0.013123824
000070 a3 25 c7 3a 67 6e fc 3a 84 b4 8a 3c 71 45 d2 bb
       0.0015193712 0.0019258977 0.01693178 -0.0064169695
000080 9b 9a d5 3c 41 bf 35 3c 93 2d fe 3b 09 9d 30 bc
       0.026074698 0.011092962 0.0077568977 -0.010779628
000090 e9 38 99 bc 78 ee 05 bc 8d 5f f3 3c 34 f2 a9 3a
       -0.018703895 -0.008174531 0.029708648 0.0012965859
0000a0 b6 d9 16 bb 72 ee da bb 80 c9 c8 bb 68 a7 32 3c
       -0.002301795 -0.006681257 -0.0061275363 0.010904171
0000b0 60 d6 ef 3a 3c b9 9e bc 3e df e8 bb cc 52 6f 3b
       0.0018298142 -0.019375436 -0.0071066907 0.0036517857
0000c0 f6 07 d6 bb 56 c8 86 3c 3d c4 6c bc c9 69 4c 3c
       -0.0065317107 0.01645295 -0.014451084 0.012476393
0000d0 2c ed b9 3b 61 fe e1 3b 63 15 a3 3b f7 16 9e bb
       0.005674025 0.0068967794 0.0049769147 -0.004824515
0000e0 f0 f5 27 3d 51 01 cd 3b 9d 14 55 3c 2a f5 88 bc
       0.04100603 0.0062562604 0.013005403 -0.016718466
0000f0 28 e3 77 3c d7 5b 06 3c 43 c1 1a bb a5 64 05 3c
       0.015129842 0.008200607 -0.0023613728 0.008141671
000100 fd cb 58 bc 80 11 01 3c 8f 72 e6 bb b0 80 c8 3c
       -0.013232228 0.0078777075 -0.0070326994 0.024475425
000110 2b 75 8c 3c f0 a9 0b bc 7f ac e9 bc a7 ad 1e 3d
       0.017145714 -0.008524403 -0.028524635 0.038739827
000120 d3 7f 55 bc 46 98 8d 3a c4 7a 4c bc 63 c9 20 ba
       -0.013030964 0.0010802827 -0.0124804415 -0.00061335246
000130 5e 6b 84 3b 13 8c 16 bc dd 9d 6b bb 49 2c dd 3b
       0.0040411195 -0.00918867 -0.0035952248 0.006749664
000140 ec d9 00 3b 8d 79 64 3d a5 1d 51 3a b1 d4 a9 bb
       0.0019661142 0.055779982 0.00079771347 -0.0051828255
000150 e7 d6 34 bd a0 88 35 3c 95 64 cc bb c6 eb a2 3a
       -0.04415026 0.011079937 -0.0062375762 0.0012429885
000160 b5 01 b3 bb 1d 06 a8 bb 6d 01 d1 3b 32 53 42 bc
       -0.00546285 -0.005127682 0.006378344 -0.011860656
000170 cd 99 96 bb 33 cc 8f b9 c3 b7 09 bc 66 64 5d bc
       -0.004595971 -0.00027427226 -0.008405629 -0.013512706
000180 51 5f b0 3c d1 78 1e 3c 7e 59 64 3c 7f 43 f1 3b
       0.021529825 0.00967236 0.013937352 0.0073627825
000190 a1 08 96 3c 16 38 05 3d 46 cb 82 bb c4 13 1b 3c
       0.018314661 0.03252419 -0.0039915172 0.009465162
0001a0 f7 0c d6 3b 76 47 2d bd e8 93 83 bc 62 e3 1a ba
       0.0065323072 -0.04230448 -0.016061738 -0.00059085165
0001b0 93 21 61 bb c3 34 d8 bc fe 5e 2c 3d f3 8f 66 bc
       -0.0034352287 -0.026392346 0.04208278 -0.014072406
0001c0 7e 3d 0c 3c 26 81 70 3c d5 e0 48 3c fa ec 1c 3c
       0.008559583 0.014679229 0.012260635 0.009577984
0001d0 14 65 3b 3d 9d 4c 6f 3b fe f1 3c bc 82 0c 20 3c
       0.045750692 0.003651417 -0.011532305 0.009768607
0001e0 a0 8a 2c 3b ea c0 98 bc 03 c1 ed 3b 1e 03 29 bb
       0.0026327744 -0.018646676 0.007255675 -0.0025789212
0001f0 c6 fe 84 bb c8 84 ac 3b 9a 19 06 3c 6e 28 aa bb
       -0.0040586917 0.005264852 0.008184815 -0.005192808
000200 70 08 c0 3b 6d 1d 5d 3a 45 6f d6 3b dd 66 f2 bb
       0.005860381 0.0008434866 0.006544026 -0.007397516
000210 51 45 54 3c c3 80 3f 3c c8 2f 3e bc 0c 93 6a bc
       0.012955979 0.011688414 -0.011608072 -0.014317285
000220 ae 10 25 bc 9c 47 4a 3a f9 32 0c 3b 72 07 5d 3b
       -0.0100747775 0.0007716359 0.0021392687 0.0033726362
000230 85 96 f8 bb 34 ee 56 3c 1f 4d e3 bb f5 01 a2 bc
       -0.0075863027 0.0131183155 -0.006936684 -0.019776324
000240 98 f9 a5 bc 33 ad 8b bc 1f fe 97 3b 30 0d 12 3c
       -0.020260617 -0.017050361 0.004638448 0.008914277
000250 87 f6 86 bb 88 fd b3 3c b5 da ec 3c a7 07 d5 3b
       -0.004118744 0.021971479 0.028912881 0.0065011564
000260 59 93 fd 3c 46 53 d7 bc 43 0b ca bc 03 5f 0e bc
       0.03095405 -0.026284825 -0.024663573 -0.008689645
000270 8f 62 a6 bb 00 e7 02 3c 39 0b 8d 3b 78 cb 1b 3d
       -0.005077667 0.007989645 0.0043043164 0.03803584
000280 f4 f1 77 bb f7 b3 a6 bb f0 06 16 bc 39 8c bc 3b
       -0.0037833424 -0.0050873714 -0.0091569275 0.0057540205
000290 b9 e0 20 3b 34 cd 4a 3c e2 39 ff 3c 15 d7 9e bb
       0.0024548008 0.012378026 0.03115553 -0.004847417
0002a0 08 03 8a 3c cd a3 d6 3c cf ce 19 bb 48 67 e7 3c
       0.016847149 0.026201153 -0.0023469215 0.02824749
0002b0 ba c7 21 3c f7 f1 ae 3b b9 ee 3d bb 79 81 b2 3c
       0.009874279 0.005338903 -0.00289814 0.021790253
0002c0 0f f1 73 3a 7b 70 14 3c c7 aa 22 bc a6 ef 9e 3c
       0.0009305635 0.009060021 -0.009928412 0.019401383
0002d0 41 64 c6 3a 4a dd 8c 3c e7 83 93 bb 55 69 5e bc
       0.0015136079 0.017195363 -0.004501808 -0.013574918
0002e0 12 ca 03 3c e9 52 e7 bb 29 23 51 3c 48 5f 9a 3c
       0.008043783 -0.007059444 0.0127647305 0.018844262
0002f0 63 1f b3 3c 73 d9 58 3c 78 a6 a3 3c e2 a7 00 bd
       0.021865552 0.013235438 0.01997684 -0.031410106
000300 4c 57 08 bb 89 86 27 3c ea f1 28 3c fc c8 3c bc
       -0.0020803986 0.010224947 0.010311583 -0.011522528
000310 79 9a 7e 3c 44 28 03 bc 18 91 c6 bc bc aa a0 3c
       0.015539759 -0.008005206 -0.024239108 0.019612662
000320 cb 8a eb ba d5 7d 74 bc f6 08 1b 3c 6b ea 82 bb
       -0.0017970441 -0.014922579 0.009462586 -0.00399523
000330 98 fa ce 3b 14 9b 0e bc 9e fe 0a 3b 48 a2 b9 bc
       0.006316494 -0.008703966 0.0021208893 -0.02266039
000340 04 1c 14 bd 48 3f 9a 3b 01 e0 98 bc ef ad a6 bc
       -0.03615953 0.0047072507 -0.0186615 -0.02034661
000350 3e 8b 83 3b 54 3f 0d bc d7 1c 84 3c 8e 3f 65 bc
       0.0040144017 -0.008621056 0.016127033 -0.013992203
000360 84 10 ac bc c2 9e 19 bc 73 32 57 bc e9 f7 1d bc
       -0.021003969 -0.00937623 -0.013134587 -0.009641626
000370 61 c6 42 bb bf 29 0a bb f5 1f 79 3a f7 b9 d4 3b
       -0.0029720294 -0.0021082012 0.0009503358 0.0064918953
000380 b7 0b e1 bc c7 07 be 3c 00 c3 3f 3c 40 e0 9f bc
       -0.027471406 0.023197068 0.0117042065 -0.01951611
000390 ac 4c 99 3a 86 d6 58 bc 91 ba 5f 3c 3f 81 5a bb
       0.0011695824 -0.01323474 0.013655321 -0.0033341197
0003a0 73 c5 b2 bc 70 1f 19 bc dd 45 b0 3b b8 ee 19 3c
       -0.021822667 -0.009345874 0.005379422 0.009395294
0003b0 da 1e 95 3b e5 f5 a1 3a 30 2b 51 bc 22 a9 08 3c
       0.004550797 0.0012356607 -0.012766644 0.008341106
0003c0 72 58 fc ba b2 97 84 3c 31 ac 3f 3c 2e 5c d1 ba
       -0.0019252433 0.016185615 0.0116987685 -0.0015972906
0003d0 67 93 83 bb a3 57 12 3c 45 bf 11 3c 72 e1 67 bc
       -0.0040153745 0.008932027 0.0088957 -0.014152871
0003e0 9d 38 6c bb 56 cb 01 bc b5 82 14 3c b6 96 c8 bc
       -0.0036044486 -0.007922014 0.009064366 -0.024485927
0003f0 09 3e ab 3a d2 3d 8c 3b aa d3 4f bc 93 ab 36 bc
       0.0013064753 0.0042798305 -0.012684742 -0.011149305

network_body.linear_encoder.seq_layers.0.bias f4 [200]
000000 be a7 12 ba c0 c9 3b bc 87 4a 1a 3c f6 19 47 bc
       -0.00055944535 -0.011461675 0.009417183 -0.012152186
000010 c8 b0 15 bc 0e 17 7a bc ea c8 83 bb e7 fe 0c bc
       -0.009136386 -0.015264286 -0.0040217536 -0.008605695
000020 d8 c9 18 bc 32 ed 77 bc 73 df 04 3c aa 0f b8 bc
       -0.009325467 -0.015132235 0.008109915 -0.022468407
000030 ec 33 45 bc 06 bd 7e bc d5 3b cd bc c1 1b a9 3b
       -0.012036305 -0.015547996 -0.025052944 0.005160779
000040 6e 95 a8 3c b9 f5 2b 3c 61 6b 07 3c d7 98 f2 3c
       0.020579066 0.010495597 0.008265347 0.029613895
000050 f6 1b eb bb 6a 9c 94 bc c0 18 54 3c 6f 9f 3f bc
       -0.007174964 -0.01814099 0.012945354 -0.011695727
000060 fd 0b 19 bb 68 dd 1d 3d 3a 36 0c bc a8 67 9c 3c
       -0.0023353093 0.038541228 -0.0085578505 0.019092396
000070 75 38 0a bc 01 75 e7 3b 43 ad c1 3b 0e 3f 50 3c
       -0.008436312 0.0070635085 0.005910547 0.012710346
000080 6a 65 63 bc 08 31 f9 3c f5 ce c6 bb 82 27 9d 3c
       -0.013879159 0.030418888 -0.0060671517 0.019183878
000090 94 8e 7e 3c b3 67 b4 bc 05 a2 90 3a 3f 5b 63 bc
       0.015536923 -0.022022104 0.0011034614 -0.013876735
0000a0 c2 54 8c 3c 63 fa 11 bc 8d 8f 31 3c ee 28 e3 3c
       0.01713026 -0.0089097945 0.010837448 0.027729478
0000b0 13 af a1 3c 76 6f 18 3d 0d 3e b0 3c 91 c2 95 bb
       0.019736802 0.037215672 0.021513963 -0.0045703133
0000c0 02 7e ae 3c 3d cd a5 3c c4 a5 39 3c b2 74 48 bb
       0.02130032 0.020239467 0.0113310255 -0.0030587134
0000d0 2c f8 fc 3c 03 09 f5 bb 34 6c 89 bc a4 f8 d1 3c
       0.030880056 -0.007477881 -0.016775228 0.025631256
0000e0 ba 67 00 3d 73 49 cf 3c 00 73 c8 3c ea c4 82 bb
       0.03134892 0.025303578 0.024468899 -0.003990759
0000f0 47 9d c4 3c 3d 49 d1 bc a3 df 33 ba 21 6d cc 3a
       0.024000777 -0.025547618 -0.00068616326 0.0015596488
000100 dc ad 79 bc a6 e9 c3 3b a1 e5 0a 3c df de d3 bc
       -0.015239205 0.005978781 0.008477599 -0.02586311
000110 6d eb 0a 3c 70 a3 54 3c b3 eb 2b 3c 0c e9 b3 3b
       0.008478981 0.01297842 0.010493207 0.005490428
000120 a9 0c 12 3d ad e0 d1 3c 1e c4 da 3b 55 7e d0 3b
       0.035656605 0.02561983 0.006676211 0.006362716
000130 41 8f 62 3c 50 32 e9 3a a5 f2 04 3c 81 9e 92 3c
       0.0138281 0.0017791484 0.008114492 0.017897846
000140 bc d5 ba 3b ae 4d 3d 3c d1 79 df b9 8f 88 83 3c
       0.0057017487 0.011554165 -0.00042624635 0.016056327
000150 03 89 b5 bb 57 9b 91 3c 40 96 f2 3c 48 4a a2 bb
       -0.0055400147 0.017774267 0.02961266 -0.0049527027
000160 be 05 72 bc 46 2f 40 bb 36 02 12 bc 1e 78 d4 bc
       -0.014771877 -0.0029325052 -0.00891166 -0.025936183
000170 1e 35 5c bb 16 ac 03 3d 01 bd 7b bc 67 19 ee 3b
       -0.0033600996 0.032146536 -0.015364886 0.007266212
000180 65 17 44 3c f9 a9 c2 3b ab 3f 8a 3c 95 f0 98 bb
       0.011968468 0.0059406725 0.016876062 -0.0046673515
000190 c5 bb a0 bb 36 b4 e9 3b 58 38 2a bb 0d 42 31 3c
       -0.0049051964 0.0071320785 -0.0025973525 0.01081897
0001a0 fc d3 d1 3c 69 9d ef 3b c1 34 c7 3c 92 5f 15 3c
       0.025613777 0.007312466 0.024317147 0.009117024
0001b0 7b 56 56 bb 13 7f 70 3c 66 04 65 3b 60 42 e1 bc
       -0.0032705355 0.014678734 0.0034945249 -0.02749747
0001c0 2d c4 16 3d e2 a9 ab 3c 1b 0b 8e bb a2 05 1a 3d
       0.03680818 0.02095503 -0.00433482 0.037603028
0001d0 e5 cc fe 3c 74 bd 2b bc 79 e6 cc 3b 9e 58 1b 3c
       0.03110356 -0.010482181 0.0062530604 0.009481577
0001e0 4f 24 19 3b 82 1f 03 bd 4c ea 50 bb 86 83 95 3c
       0.002336759 -0.03201247 -0.0031877933 0.018251192
0001f0 80 59 10 3d f3 5c 05 3b 97 8e ef bc 76 75 60 3c
       0.035241604 0.0020349592 -0.029242797 0.01369988
000200 d7 9e a4 3c 36 88 0d 3c 96 f3 cc bc a2 9c 71 bb
       0.020095272 0.008638432 -0.025018495 -0.0036867042
000210 2c 10 04 3d 12 e6 f7 bc 41 85 8f bc c5 d8 63 3c
       0.032241985 -0.030261073 -0.017519595 0.013906662
000220 3f f2 69 3c 1c 51 73 bc 9d c7 f9 3a 6d 51 c7 3b
       0.014278947 -0.014850881 0.0019056682 0.0060827048
000230 86 04 2b bc b5 dd 72 ba 04 38 d8 3c 04 c7 5a 3c
       -0.01043809 -0.00092646043 0.026393898 0.013353113
000240 46 23 15 3d bb 08 38 3d 8d 43 b2 3a 1f 4b d6 bb
       0.036410592 0.0449302 0.0013600454 -0.006539717
000250 51 cc 28 3c b1 7d 02 bb b0 59 e5 3c 7e c5 45 3b
       0.010302619 -0.0019911344 0.027996868 0.003017753
000260 6b 3b 1a bb 68 45 3a 3c 06 9d cf bc 11 87 aa 3b
       -0.002353395 0.011369087 -0.02534343 0.0052040895
000270 2c 4b e1 3c de 66 1e 3c 8a 7a 1e 3c 07 44 ac 3c
       0.027501665 0.00966808 0.00967277 0.021028532
000280 60 73 a8 3c ff b2 59 bc f9 c6 15 3c 15 43 93 3c
       0.020562828 -0.013287305 0.009141677 0.017976323
000290 ad 83 ea 3b 65 5f a1 3c 39 1a 34 3d ab 3d 40 bc
       0.0071568103 0.019698808 0.04397032 -0.011733453
0002a0 51 0d a3 bb be eb d2 3c 45 93 0e 3c 76 43 c1 bc
       -0.0049759527 0.025747176 0.008702104 -0.023591738
0002b0 54 1b e2 3c 4e 2e 12 3d 39 cf c1 ba 67 7d ff ba
       0.027600922 0.03568869 -0.0014786489 -0.0019492329
0002c0 7f 69 65 3b c4 5c 52 bc 01 3b 8a 3c 30 52 f6 bb
       0.0035005508 -0.0128395 0.016873838 -0.0075171217
0002d0 73 94 17 3d d8 4f 8c 3c 07 0e 84 bb 32 24 81 bc
       0.037006807 0.017127916 -0.0040299925 -0.01576433
0002e0 ce e1 03 bc 16 a2 cd 3c e4 de 8c 3a 04 fd 07 3d
       -0.0080494415 0.025101703 0.0010747579 0.03320028
0002f0 c6 52 e0 3c e9 84 b3 3c d9 3b 5a 3c a6 5c f5 bc
       0.02738322 0.021913962 0.013319933 -0.029951405
000300 05 50 ee 3a d6 fb 23 3c 54 35 ad 3c 00 c8 d0 3c
       0.0018181807 0.010008773 0.021143593 0.025485992
000310 0b f5 4c 3a 95 19 8c 3c c0 18 e9 3c aa 7b 7c bc
       0.00078184967 0.017102042 0.028454185 -0.015410343

network_body.linear_encoder.seq_layers.0.weight f4 [200, 88]
000000 5c 84 4b bd c7 88 fe bb fa b0 9e 3d 03 d4 63 be
       -0.049686775 -0.00776777 0.07748599 -0.22248845
000010 74 10 c0 3c 7b 60 7a 3c b9 6f c4 3d 3a 4a e2 bd
       0.023445345 0.015281792 0.09591622 -0.11049314
000020 4f a6 35 be 02 45 e2 bd f8 f0 3b bd 10 76 0e bd
       -0.17739223 -0.110483184 -0.045884103 -0.034780562
000030 b5 62 8c bd a9 0a 64 3e 4f 6d 51 be e7 04 57 bd
       -0.06854764 0.22269692 -0.20451854 -0.05249491
000040 ec 59 02 3e 94 9d 48 bd 84 25 c7 39 8e 58 26 3d
       0.12729615 -0.048978403 0.0003798419 0.040611796
000050 41 ae d2 3d 4e fb 7c bd b4 5a 22 bc ec 42 b2 bd
       0.102871425 -0.0617631 -0.009909321 -0.087041706
000060 2b 11 91 be 0b 95 d3 3d 05 97 b9 bd cb 79 ad 3d
       -0.2833341 0.10331162 -0.09062008 0.08470496
000070 3c 39 3a 3e 25 17 c0 bd 2b 15 e5 3c fc 69 59 3c
       0.18185896 -0.093794145 0.027964195 0.013269898
000080 f8 19 e2 bd 2f 31 ee 3c 5e e7 44 3d fb d5 5e bc
       -0.110401094 0.029076187 0.04807221 -0.013600822
000090 0a 55 47 3d b4 d1 20 3e d2 70 e6 3d 88 29 91 3d
       0.048665084 0.15704995 0.112519875 0.070879996
0000a0 25 04 6b 3c d1 f2 58 3d 2f af a1 bd b2 a3 93 3d
       0.01434425 0.052965943 -0.07894742 0.07208957
0000b0 59 15 dc bd 78 a6 36 3e df c5 7a 3e fd 00 b7 3d
       -0.10746259 0.1783694 0.24489544 0.089357354
0000c0 7a 93 65 be 9a 23 91 3d 74 b3 31 3e 66 af 33 3e
       -0.22419539 0.070868686 0.17353612 0.17547378
0000d0 04 ef 1a be f4 7d 5c ba 71 2e 6d bc 5b c3 00 3e
       -0.1513024 -0.00084111025 -0.0144764045 0.12574522
0000e0 8e 2d 81 bd fe b0 b0 3c b7 5d d9 3d 79 6e 36 3e
       -0.06307517 0.021568771 0.10613578 0.1781558
0000f0 d6 39 d4 bc e4 86 1d 3d d5 36 cb bd b0 a0 2d bc
       -0.025906485 0.03845872 -0.09922568 -0.010597393
000100 07 07 a8 bb bb e4 b5 3b 09 df 9f 3d 40 92 51 3e
       -0.005127791 0.0055509484 0.078062125 0.20465946
000110 d6 ad b3 3d 8e 8f d5 bc ef 7b bb 3d 81 43 8b bd
       0.08773391 -0.026069429 0.09154498 -0.06799985
000120 97 dd c6 bd 50 9b 27 3d 97 b0 0a be 66 43 dc 3d
       -0.09710234 0.040919602 -0.13543926 0.10755043
000130 dc 68 ff 3b 18 7a 4f be 6d 44 0a 3e 8f 0d eb bc
       0.0077944826 -0.20261419 0.13502665 -0.028692989
000140 3c f9 80 be 38 3f 65 3e 51 ef a1 bd 1b d0 ee 3c
       -0.2519015 0.22387397 -0.07906974 0.029151967
000150 fb 1e 2a 3e f7 aa 35 3a 10 30 16 3d 57 a5 0a 3b
       0.1661338 0.0006930078 0.03666693 0.002115568
000160 b1 bf 55 3e 1a 8c 19 3d eb ed 0a 3e 0e 2e 84 bc
       0.20873906 0.037487127 0.13567321 -0.016135242
000170 c1 fe ea 3d 50 56 a4 3d a6 d2 75 3a 8c c4 5a 3e
       0.11474372 0.08024275 0.00093773974 0.21364039
000180 63 d5 aa bd 4b d5 05 3e a0 d2 fb 3c 44 e6 90 bd
       -0.083414815 0.13069646 0.030740082 -0.0707517
000190 5b 32 32 bd 8d 3d a6 be 26 10 20 be f2 3d a6 bd
       -0.043505054 -0.32468835 -0.1563116 -0.08117284
0001a0 23 83 fa bc 80 41 43 be 0a be 81 3d ec b5 4d bd
       -0.030580109 -0.19067955 0.06335075 -0.050222322
0001b0 56 4e 0c bd 56 6f d0 3d 47 41 01 3e db 74 cd bd
       -0.034254394 0.10177486 0.12622558 -0.10032054
0001c0 05 b0 c3 bc 34 76 35 3e ff f3 28 3c db 65 09 3e
       -0.023887644 0.17720872 0.010312079 0.13417761
0001d0 a7 c8 06 3e b1 bb 3e 3e 51 f0 f3 3b 61 c1 8c 3d
       0.1316248 0.18626286 0.0074444194 0.068728216
0001e0 d8 32 bd bd 55 64 cc bd 0b 80 05 be f4 aa 26 3e
       -0.09238213 -0.09980074 -0.13037126 0.16276151
0001f0 b2 e4 46 be cf 00 28 3c 76 74 d6 bb a4 27 5d 3e
       -0.19423178 0.010254099 -0.006544645 0.21597153
000200 7e be 27 be 5b f6 05 3e d0 1d 1c 3d 7f 45 04 3e
       -0.16381261 0.13082258 0.03811437 0.12917136
000210 85 1d b5 bc c5 6e b4 bd 7c 6f 28 be f8 47 e5 bc
       -0.022108803 -0.0881019 -0.16448778 -0.027988419
000220 e4 4d b0 bd cd c6 24 bd d4 67 aa 3c d3 42 8b bd
       -0.086086065 -0.040228654 0.020801462 -0.06799855
000230 d5 f8 59 3d 47 4d 17 3e f7 26 28 be 41 80 29 be
       0.05321582 0.14775573 -0.16421114 -0.16552831
000240 96 cc 47 3d 75 98 90 3c 62 f1 0e bc 52 72 3a bd
       0.048779093 0.017650822 -0.008724542 -0.04551918
000250 62 cf 8e bc 83 de a8 bd 0a c1 18 bd e3 ce 46 be
       -0.017432872 -0.08245566 -0.03729347 -0.19414859
000260 b9 e7 3d 3e 57 45 86 3d 25 be 8d 3d 40 e9 1b be
       0.18545426 0.06556194 0.06921033 -0.15225697
000270 8a fc 8c 3d 20 e0 48 bd 8c 1a 8b 3c c3 f1 19 bd
       0.068841055 -0.049041867 0.016980432 -0.037584078
000280 cf b5 33 3c a9 94 04 bd d0 02 a4 3e ff 68 8b bc
       0.0109686395 -0.032368336 0.32033396 -0.01701784
000290 66 1f 7e bc 47 39 1c bd 72 fd 15 be 7e e0 c6 3d
       -0.015510416 -0.03814056 -0.14647463 0.09710787
0002a0 1a 55 0f be cd 70 33 bd c0 b6 0e bc a6 52 3b 3d
       -0.13997307 -0.043808747 -0.008710563 0.045733117
0002b0 90 76 1c bb 8d 83 d5 bd 2b df c0 3d 7e c4 bd bd
       -0.002387438 -0.10425482 0.09417566 -0.092659935
0002c0 c2 5c 1b be eb b7 44 3e 20 a7 8d 3e c4 17 ae 3c
       -0.15172103 0.19210784 0.2766657 0.021251567
0002d0 af 38 a2 bc 88 f7 a1 bd 6e 76 80 3d e3 5a 9e 3c
       -0.01980242 -0.07908541 0.06272589 0.019330448
0002e0 96 8a a3 3c 8b 1f 5f be 15 2e 4e 3c e2 dd 17 bc
       0.019963544 -0.21789376 0.012584229 -0.00926921
0002f0 4b 61 28 be c6 82 b1 3d 09 7d 42 bc 1b 50 a8 3d
       -0.16443364 0.08667521 -0.011870631 0.08218404
000300 29 ac 72 3c 4c 11 f9 bd ef f8 e7 3d ba 8e af 3b
       0.014811554 -0.12161502 0.11326777 0.0053575905
000310 7a 7a de 3d 99 17 91 bd 6b 43 d0 bd 45 45 5d bc
       0.10863204 -0.07084579 -0.10169109 -0.013505285
000320 3f 4e a3 3c 5f 76 60 3e 37 aa a7 bd 0b 72 6e bd
       0.019934772 0.21920155 -0.08186763 -0.05821423
000330 0c 35 bc 3d 7f ec 2c 3e ba bc c6 bd aa d2 88 3b
       0.091898054 0.16887091 -0.097039655 0.0041755037
000340 57 c2 8c 3d ce 9e 04 3d 44 a0 72 bc cc 8d fd 3c
       0.06873005 0.03237801 -0.014808718 0.030951403
000350 87 1a fb 3d e5 08 5b bd c8 23 2b 3e 97 23 69 be
       0.12260919 -0.05347528 0.16712868 -0.22767483
000360 d5 e2 fd bc 42 1d 15 bc 99 ea 37 3d ec f4 a7 bd
       -0.030991951 -0.009101214 0.044901464 -0.08201012
000370 51 1f 7a 3d fb e5 1e bc 88 4d 91 be 89 0d e5 bd
       0.061065022 -0.009698386 -0.28379464 -0.11184222
000380 e6 82 23 3d 65 81 d7 bc a5 79 17 3d 13 93 06 3e
       0.039919756 -0.026306817 0.036981244 0.13142042
000390 53 45 17 3e 3a 38 90 bd db c4 05 be 21 bf e6 3a
       0.14772539 -0.07041974 -0.13063376 0.0017604568
0003a0 3f 0d 9b 3c c5 84 2f 3d 3b 7b 14 3e ff 11 55 be
       0.018927215 0.04285123 0.14500134 -0.20807646
0003b0 ad 11 c5 3d 53 14 03 be c4 92 a8 3b 05 0e 69 3e
       0.09622512 -0.12800722 0.005144449 0.22759254
0003c0 02 65 64 bd 99 ff ae 3d 9e 0e af 3c cc 4b 5b 3d
       -0.05576039 0.08544845 0.021369275 0.053539082
0003d0 8a c3 22 bd ab 55 8a 3d ce 34 46 be 05 ac 62 3e
       -0.03973726 0.06754621 -0.19356081 0.22135933
0003e0 d7 66 26 bd 5b 34 3f bd b0 e3 d5 bd 26 be 7c bd
       -0.04062542 -0.04668079 -0.104438186 -0.061704777
0003f0 2a 48 97 bd 66 47 f0 3d 47 d8 f9 3d 41 71 b4 bd
       -0.07386811 0.11732368 0.12199455 -0.08810664

network_body.linear_encoder.seq_layers.2.bias f4 [200]
000000 26 2f e2 b9 51 20 da 3b 74 ee f4 b7 bf 7d f2 b9
       -0.00043141207 0.0066566844 -2.9198105e-05 -0.00046251525
000010 1e 4c 96 3b 75 7d ea bc 79 fe 05 3c 34 d1 a6 bc
       0.0045867106 -0.028624276 0.008178347 -0.020363428
000020 e0 fd 47 3c c0 6f c3 3b 93 08 32 3c 03 fb a8 3a
       0.012206525 0.0059642494 0.010866302 0.001289219
000030 f5 9b 9a bb 7c 86 05 3c 44 3c 8a 3c 0b 04 87 bc
       -0.0047182986 0.008149739 0.01687444 -0.01648142
000040 ce c0 d9 bb 10 41 fb bc af b2 a2 3b b1 5c 7b 3c
       -0.0066452986 -0.030670673 0.0049651484 0.015341924
000050 fd d2 c5 bc 87 1d 95 3b d5 ad ce bb e3 f6 2b bc
       -0.024148459 0.004550639 -0.0063073435 -0.010495874
000060 93 1f c6 bc 91 1f d0 3b 15 e3 91 3c cf 4d 7b 3b
       -0.024184978 0.0063514193 0.017808476 0.0038345938
000070 d3 3b c4 bb 5c e0 0e 3c 2e 23 a1 b9 4e 8b a7 3c
       -0.005988577 0.008720484 -0.00030734524 0.020452168
000080 e1 62 08 bb 79 73 89 3c 3e 7a eb 3b 2a c0 08 b9
       -0.002081089 0.016778694 0.0071862033 -0.00013041557
000090 ce 59 ea 3c 03 4c a9 3c f8 e5 d7 3b 0b a4 d6 bb
       0.028607275 0.020666128 0.0065886937 -0.006550317
0000a0 d6 8d 0c bc 27 f0 22 3c e7 8b 8a 3b 9f 70 5a 3c
       -0.008578738 0.009944952 0.0042281034 0.013332515
0000b0 b0 92 21 3a 30 93 d7 3b 7d a9 e2 3b 49 66 ac bc
       0.0006163521 0.0065788254 0.0069171772 -0.021044867
0000c0 96 93 45 3c b0 09 a3 3c 54 4c 78 3a 4b 4d 39 bc
       0.012059113 0.01990208 0.0009471823 -0.011309932
0000d0 80 78 fe 3b 4b 12 0f 3c e1 c7 27 bb 3b 79 77 bc
       0.0077658296 0.008732389 -0.0025601315 -0.015104587
0000e0 eb 2d 9e 3c 04 6e 78 3c 6a 14 38 bc 75 d6 b3 3a
       0.019309005 0.0151629485 -0.011235336 0.0013720529
0000f0 d4 28 7d bc bd 03 74 3c bd d4 29 bc 2f 2c 86 3c
       -0.015451629 0.014893469 -0.010365662 0.01637849
000100 56 e4 97 3c 50 e1 7a bb 07 e0 d2 ba 1b 86 b1 bc
       0.018541496 -0.003828127 -0.0016088494 -0.021670392
000110 6e 3d 0e 3c c5 97 8c 3c 0a 8d a9 3c 42 c2 63 bc
       0.008681638 0.017162213 0.020697135 -0.013901295
000120 99 8c b1 3b 4d b2 0f bb 0b be 60 ba 83 2e 49 bc
       0.005418372 -0.0021926344 -0.00085732405 -0.012279156
000130 14 8c bf bc 49 0d 95 3c a2 26 80 3c c8 ee 8b bb
       -0.023382224 0.018194811 0.015643422 -0.0042704083
000140 21 74 97 3b 01 e4 47 3c 17 e4 96 3c b9 00 8d 3c
       0.004621998 0.012200356 0.018419309 0.017212259
000150 ee bb 0a 3d af 05 0a bb c7 90 aa 3c 75 8c 56 bc
       0.03387063 -0.0021060517 0.020820988 -0.013095011
000160 42 d0 ae 3b 15 61 a1 3c 40 b0 a2 3c a6 59 ee 3c
       0.005334885 0.019699613 0.019859433 0.029095482
000170 b7 13 cb bc ed ef 2a 3c 09 e1 b8 3c f5 b2 aa 3c
       -0.024789674 0.010433179 0.022568243 0.020837286
000180 08 1f dd bc 3a bc fd ba 97 94 82 3c 79 39 d6 3c
       -0.026992336 -0.0019358464 0.015939994 0.026150452
000190 5e b2 5a bc 07 ba a6 3c 9d a0 bb 3c 20 a1 55 3c
       -0.01334819 0.020352377 0.022903735 0.0130389035
0001a0 1f df 2e 3d ff 47 4a bb 6c 16 62 3c 08 c6 46 bc
       0.042693254 -0.0030865667 0.013799291 -0.012132175
0001b0 d7 2a a7 bc 11 47 3f 3a b9 a2 84 bc bf 60 ba b9
       -0.02040617 0.00072966615 -0.016190873 -0.00035548766
0001c0 7f 1f ca 3b 1a 38 c0 3b bb 52 d8 bc 2a 99 5c bc
       0.0061683054 0.005866063 -0.026406636 -0.0134642515
0001d0 ca a7 2a bc 6e 4a 6f 3b a1 70 40 3b 06 cb 98 3c
       -0.010415981 0.003651287 0.0029364007 0.018651497
0001e0 83 88 4c 3c 65 d6 de 3c c6 76 bc bb 27 36 40 3c
       0.012483719 0.02720184 -0.0057514636 0.011731661
0001f0 27 05 ed bb 48 32 16 bb ae f0 72 bb 9c 2e c3 3c
       -0.00723328 -0.0022918154 -0.0037069726 0.023825936
000200 9e cd e5 bb 00 d5 6a 38 8c 24 14 3c 60 31 24 3c
       -0.007013037 5.598832e-05 0.009041917 0.010021538
000210 3c 72 e4 bc 87 d4 14 3b 8b fd 06 bc 49 11 07 3c
       -0.027886502 0.0022709684 -0.00823916 0.008243867
000220 f7 1e 92 3c 77 dc 3b bc a7 05 9b bc 0c 65 33 3c
       0.01783703 -0.011466137 -0.018923594 0.010949384
000230 24 6b 50 ba ce d4 82 3b 36 91 f8 3c f4 6d 9b 3c
       -0.00079505355 0.0039926535 0.03034268 0.018973328
000240 ef fa b1 3b 2d dc 1b 3d e3 da 9a 3c 4f 12 8f bc
       0.005431525 0.038051773 0.018903201 -0.017464785
000250 dc de 13 3c 21 c0 0f bc 5e b7 88 3b a9 06 36 bc
       0.009025302 -0.008773834 0.0041722497 -0.011109986
000260 f0 1b 94 3c bc cf a0 3c 35 fb 68 3b 5a ed 84 bb
       0.018079728 0.019630305 0.0035550122 -0.004056615
000270 d7 07 bc 3a 41 85 a6 3c ab 8a 1f bc 4f 86 21 3b
       0.0014345598 0.020327212 -0.009737651 0.0024646705
000280 dc de a2 3b cc c1 c1 3a 11 b6 cc 3a e0 f4 ab 3b
       0.0049704146 0.0014782487 0.0015618225 0.0052476972
000290 66 21 b0 3c 88 35 99 bc 29 ab 8b 3a 7a 91 af 3b
       0.0215003 -0.018702284 0.0010655868 0.0053579183
0002a0 65 ed 98 3c 74 2d c2 bc 4f 9a d0 bb e3 4d af bc
       0.018667886 -0.023703314 -0.0063660513 -0.021399444
0002b0 cf 06 96 bc 27 b0 c0 ba 22 6c 43 3c e5 65 72 bc
       -0.018313793 -0.0014700935 0.011927636 -0.014794801
0002c0 67 b4 82 3c 96 81 80 bc e5 ca 89 3c f5 1e 9c 3c
       0.015955163 -0.015686791 0.01682038 0.01905773
0002d0 1f f4 60 3c bd 8e c9 bc 12 70 ad 3c 92 9b 20 bc
       0.013730078 -0.024604196 0.021171603 -0.009802716
0002e0 fd 20 74 bc 2d d1 c3 3c 98 96 7c 3c e2 e9 a1 3c
       -0.014900443 0.023903454 0.015416764 0.019764844
0002f0 27 bb 91 bb 9b 5b 2c 3c 6b 8b 74 bc ef 11 d7 3c
       -0.004447359 0.010519887 -0.014925818 0.026253669
000300 e6 66 8a 3b 8d 47 0f 3b cc 53 9c 3c 69 0b 98 bb
       0.004223692 0.0021862716 0.019082926 -0.004640032
000310 e8 3c 2d bb 2b e9 7d bc 0b cb 90 3c 3f a5 9d bc
       -0.0026434008 -0.015497486 0.017674943 -0.019243835

network_body.linear_encoder.seq_layers.2.weight f4 [200, 200]
000000 f6 85 bd bd 2e ee c8 bd 87 d1 2e bd c4 c0 24 bd
       -0.09254067 -0.09811054 -0.04268029 -0.040222898
000010 5c e4 9d 3d ed 67 bc 3d 32 19 82 bd 9b 8f 57 bd
       0.07709572 0.0919951 -0.06352462 -0.052627187
000020 01 b9 94 3d b3 c3 16 3d 18 a1 e5 bd 7b 05 8e bd
       0.07261849 0.036807727 -0.11212367 -0.06934639
000030 fa e0 71 bc 4d 66 22 bd f9 74 81 3c c2 bf df 3d
       -0.014763111 -0.039648343 0.015802847 0.10925247
000040 c2 7c 1a bc 22 40 33 3d 90 99 7d 3d 43 b6 aa 3c
       -0.009429159 0.043762334 0.061914027 0.020838862
000050 a3 ac eb 3d 1d 3b 26 3c 3b de 9a 3d b7 52 90 3b
       0.11507537 0.01014593 0.07561918 0.0044043916
000060 6c ca b9 3d a1 a6 a3 bc 15 ff 60 3b d3 4b 32 bd
       0.09071812 -0.019976916 0.0034331728 -0.043529343
000070 c1 29 67 3d 81 a3 da 3d 36 d0 f5 3b b4 e8 c1 bd
       0.056436304 0.10675717 0.0075016273 -0.09468213
000080 99 8b c0 bd 40 ab f8 3b c4 23 76 bd cb a0 be bc
       -0.09401626 0.007588774 -0.060092703 -0.023270031
000090 aa 84 87 3d a6 4e 62 bc 8f e8 88 bc 2a d4 80 3d
       0.066171005 -0.013812697 -0.016712455 0.06290467
0000a0 9d 81 f6 3b 6c 97 93 bd 76 5c 35 3d 2d 07 0c 3d
       0.0075227753 -0.07206616 0.04427763 0.03418653
0000b0 31 9a 04 3e a2 66 9f bb 4b b5 26 3d 39 b8 f7 3c
       0.12949444 -0.0048645297 0.04070024 0.030239211
0000c0 08 56 fe bd dd 0d 83 3c 78 80 56 bd 6d a5 da bd
       -0.12418753 0.015997821 -0.05236861 -0.10676084
0000d0 71 14 8e bd 28 cd 61 bd 91 81 fc bc 7d c8 59 3d
       -0.06937493 -0.055127293 -0.0308235 0.053169716
0000e0 14 af ce 3c 58 bc 90 bd 88 b7 41 3d 9b 8e 9f bc
       0.025229968 -0.07067174 0.04729417 -0.01947718
0000f0 75 10 b7 3d dd 34 11 be ef cf 83 bc 3f 8c 03 bd
       0.08938686 -0.14180322 -0.016090361 -0.03211617
000100 c1 ad 1b 3d 27 1a 9b 3c b6 73 2e 3d e4 bf c7 bb
       0.0380075 0.018933369 0.04259082 -0.006095873
000110 61 1e 2f 3e ba 73 71 bc f3 64 b0 bd 93 9c a6 3c
       0.17101432 -0.014737064 -0.086130045 0.020338332
000120 31 93 ea 3c 7b 8b 2b 3d 97 cc 09 3d 81 e4 46 3c
       0.02863464 0.041881066 0.033642378 0.0121394405
000130 8b 2f b5 bd 85 21 1b bd 73 e5 91 bd 2f 27 62 bd
       -0.08846959 -0.037873764 -0.07123842 -0.05521315
000140 2c 59 26 3d 87 4b 20 3d 03 e3 26 be 5a f5 74 bd
       0.040612385 0.03913453 -0.16297536 -0.059804298
000150 7f b8 3d bd 00 1c 2f 3d cd 08 bf 3d 61 39 a2 3d
       -0.046318527 0.042751312 0.093278505 0.079211004
000160 b8 31 98 bd 1e 37 62 bb 9d 44 b6 bd 3a 4c 99 3d
       -0.07431358 -0.0034517716 -0.08899806 0.07485242
000170 7a e3 e1 bc 6b 98 4c bd 42 f8 49 3d 00 13 a8 3c
       -0.02757429 -0.049950045 0.049309023 0.020516872
000180 b8 88 2e bd fd 3e 4e bc 03 7e 8b 3d fe ef 80 ba
       -0.042610854 -0.01258826 0.06811144 -0.0009837148
000190 5c e9 9e 3d c9 fc b7 3d 5b 1d 08 be 5e 8b 4d bc
       0.077593535 0.08983762 -0.13292448 -0.012545435
0001a0 f5 00 01 3d fa a0 51 3a 35 d2 82 bd 6d 9d 06 3d
       0.031495053 0.00079967047 -0.0638775 0.032864977
0001b0 ec cc ed 3c 0e 11 67 3d 64 a6 59 3d ef 9d f2 bd
       0.029028378 0.05641275 0.053137198 -0.1184653
0001c0 df ce 63 bd c5 6f 46 3d bd 03 cc bd 92 71 6e 3d
       -0.05561721 0.048446435 -0.099616505 0.058213778
0001d0 7e 5e 66 3d e7 97 4e 3d 97 b3 df 3b 44 7b 9b 3c
       0.05624246 0.050437834 0.0068268287 0.018979676
0001e0 e3 6d c3 3c bf f5 87 bd a2 ca d2 3c 6e d1 21 3d
       0.023856109 -0.06638669 0.025731388 0.03950637
0001f0 14 84 61 3d 6c be 22 3d ef 53 0c bc ea 00 3d bc
       0.0550576 0.03973238 -0.008564933 -0.011535862
000200 53 05 9f 3c c1 8c 96 bd 01 67 67 3d ef 09 03 3e
       0.019411718 -0.073510654 0.056494717 0.12796758
000210 fc df cc bd 1f 5c 3e bc e9 d7 02 bd 23 51 c9 bc
       -0.10003659 -0.011618643 -0.03194419 -0.024574822
000220 0e 5a ff 3c 29 c8 82 3d 22 a4 41 3d 4c ce ce 3c
       0.031170871 0.06385834 0.04727567 0.025244854
000230 7a fd b6 bc ad b3 15 bb cb 9f 87 bd a6 20 0c 3d
       -0.022337664 -0.002284269 -0.06622275 0.034210823
000240 28 17 ee 3d c2 d2 c8 bc 05 cc 90 bd 7a 7e 71 3a
       0.116255105 -0.02451456 -0.07070164 0.0009212267
000250 da 66 d7 3d 0d 15 c4 3d a3 de cf bc 88 bc 3e 3d
       0.10517664 0.095743276 -0.025374716 0.046566516
000260 f6 da 2a 3d 89 a1 17 bc d1 27 6b bb 35 6a 0b bd
       0.041712724 -0.009254822 -0.0035881887 -0.034036834
000270 13 7f ed 3d a2 8d 9d bd 7c 8a 2c bd 8c d4 08 be
       0.11596503 -0.0769303 -0.042124256 -0.1336233
000280 d9 ce 8e 3d af be 2e 3d b1 1c 44 3b 21 c1 6f bb
       0.06973047 0.04266232 0.0029924328 -0.003658362
000290 a8 2f 0d bd e5 bd c7 3b 8c 93 11 be 6d b0 f2 bc
       -0.034469277 0.0060956352 -0.14216441 -0.029625142
0002a0 ec ab 92 3c 75 89 69 bd ec 3d 94 bd 35 2f 3a be
       0.017904244 -0.057015855 -0.07238373 -0.1818207
0002b0 0b 42 0c 3d 69 b1 ca 3d c2 6d 47 3b e1 c4 ac bd
       0.03424267 0.098971196 0.003043041 -0.08435989
0002c0 4b 26 6f bd f9 d0 77 3d 45 6b 22 be a3 dc 09 be
       -0.05838613 0.060502026 -0.15861233 -0.13463072
0002d0 d2 52 90 bd 39 6a 1b 3b 4f 18 13 be 19 fa 6c bc
       -0.07047047 0.0023714437 -0.14364742 -0.014463925
0002e0 a2 17 d0 bd 41 0e 83 bd 20 a7 e0 3d 68 46 e1 3d
       -0.101607576 -0.06399203 0.109693766 0.10999757
0002f0 be 58 fd bd a7 b4 96 bd 7a 0b a6 bd 60 3f c5 3d
       -0.12370442 -0.073586755 -0.08107658 0.096312284
000300 7b 8a 0a 3c b3 34 fb bc 24 4f 67 3d 20 89 81 bd
       0.008455868 -0.030664777 0.05647196 -0.06324983
000310 85 63 32 be b5 06 c7 bd 37 c4 a9 bd 5a 00 b5 bd
       -0.17420776 -0.09718076 -0.08289378 -0.08837958
000320 50 6e 14 3d cc 3d 99 3c fa 55 ad 3b 20 f7 bb 3d
       0.036238015 0.018706225 0.00528979 0.09177995
000330 ea b8 b1 ba ae d3 3b 3d f1 1e 1d 3d e4 31 89 3d
       -0.0013559137 0.04585617 0.038359586 0.06698969
000340 2b 4b d7 3d 93 3c 0a bd d6 9a 03 bd 71 65 b4 3d
       0.10512384 -0.033749174 -0.032130085 0.08808411
000350 86 a3 35 3b 42 4a 20 bd f1 2d 4a 3d 52 39 05 3e
       0.0027715876 -0.039133318 0.04936022 0.13010147
000360 3c 92 e3 bd eb bc 22 3d 22 99 82 bd 43 9e 77 bd
       -0.11111876 0.039730947 -0.06376864 -0.060453665
000370 03 9a 59 3d c0 be 0f be bf be 86 bc 3a 63 01 bd
       0.053125393 -0.14037609 -0.016448377 -0.03158877
000380 7c 63 45 3d ea 6f b3 3c cd 83 b2 bb 56 4b eb 3c
       0.04819058 0.02190395 -0.005447841 0.028722446
000390 b1 ec 74 3d e9 6d c9 bd b4 b1 d9 bb 03 1d c5 bc
       0.05979604 -0.09835417 -0.0066434983 -0.024061685
0003a0 6d 57 f4 bd d0 66 4d 3e 04 0d 58 bd 77 16 7e 3c
       -0.11930738 0.20058751 -0.052746788 0.015508286
0003b0 16 2d 6f bd 36 c9 e8 3d 37 b3 22 bd c3 5e 6f 3c
       -0.058392607 0.11366503 -0.039721694 0.014609995
0003c0 78 74 80 ba 36 1a 42 bd ca f1 d9 3c d5 93 6f bc
       -0.0009800335 -0.047388278 0.026604552 -0.014622648
0003d0 51 43 3b 3d 56 e5 99 bd 27 e2 42 bc 9f 72 08 bd
       0.045718495 -0.075144455 -0.011894739 -0.033312436
0003e0 2b 1d a1 3c 9d 7d 74 3d 7b d0 2d 3d 74 dc 67 3c
       0.019667229 0.059690107 0.04243515 0.014151681
0003f0 50 fb 92 3d 19 b2 dd 3d e9 68 b3 bc 29 4a 49 bd
       0.0717684 0.10824985 -0.021900611 -0.04914299
