Assets/Networks/AgentRapidBlue.onnx (onnx, 238908 bytes, 9 tensors)

action_model._continuous_distribution.log_sigma f4 [1, 3]
00000000: 0dc6 063b 57a1 84bc a2b9 f4bc
0.0020564825 -0.016190214 -0.029873673

action_model._continuous_distribution.mu.bias f4 [3]
00000000: 087b 3bbb 12a8 093b 0ef0 a53b
-0.0028607268 0.0021004719 0.005064017

action_model._continuous_distribution.mu.weight f4 [3, 200]
00000000: 8c16 2b3d 3b57 0a39 3e10 1e3d 31cf 003d
00000010: 46ce 6e3c 013e 3f3c 5a97 cfbb b66c a03c
00000020: ed74 28bc 6338 243d c6d7 703c e994 0d3d
00000030: b2ce 64bc 9e97 a8bb e803 f73c 295b eabc
00000040: 0782 453c 5870 88bc 391c ae3c 20fc 0b3c
00000050: 23fa 69bc 19d3 10b9 bca4 69bc 007e 5fbd
00000060: 19b4 603c 1fe7 a53c dabc c1bc 7742 a5bc
00000070: 1a58 323c cb0a 7bbb f5b5 5b3b caa9 c93c
00000080: b3d6 c4bb 74fd 24bd 8da1 09bd df2b 8ebc
00000090: d956 a0bb e2ed ad3c 8000 16bd b71f 563c
000000a0: a587 b3bc 09c2 1b3c 612f 1a3c ed4e 5bba
000000b0: 8c3a 3ebd e0a2 8ebc 4802 aa3b db4c 86bc
000000c0: bc7a 56bc 24c6 c93c e43b 4b3b 7045 0e3c
000000d0: b6d9 8c3c d76e 843c 6b7a 1fbc d210 1abc
000000e0: 37a2 86bc 782d 38bd 987a 8c3b c9b7 30bd
000000f0: 601c 493c 1672 ce3c c19c 113d 728d 813c
00000100: 3d50 a0bc 49ec ec3c e033 353c c012 603c
00000110: 4adb 9abc a88f 8b3b f873 5ebc ad73 973c
00000120: 2db7 f33b c852 863c e523 983c 8828 113c
00000130: ce25 09bb 7f6e 5338 4e95 61bc 86d5 6c3c
00000140: 2eb2 963c 69bc ca3c e7a1 15bc db39 cebc
00000150: 3918 993c 6d2b 57bc 8fb9 5cbc 7310 54bc
00000160: 5926 8c3c fa4b 173d bb2d 8cbc 9c04 853c
00000170: f1f4 5cbc 6e9b 99bc a8b8 fdbb c149 c63b
00000180: 9409 8abb e78b 5c3c 5dbc 66bc d377 c73b
00000190: 236d 6a3c 2be4 e53b b240 993c dde7 033d
000001a0: 3a1d c1bb cbe6 053d 87d7 b83c 644b d1bb
000001b0: 6222 623c 02a6 4bbd fd13 88bc 9754 033d
000001c0: 2999 b33c 6ee5 b6bc 3073 f03b fb88 e23c
000001d0: 807b 2eba df0b c43c 423a e1ba f489 a3bb
000001e0: 1309 93bc a718 09bc c438 493c d44e 563c
000001f0: d43b c33b 8921 62bc 34a8 ac3a cea7 72bc
00000200: 5eb9 3c3d 7bad b9bc da16 f13b e906 e3bb
00000210: 8417 43bc eaff c13c 886b 243d 2349 7abc
00000220: de93 f6bb 5174 a13b 5048 43bc 5d5f d4bc
00000230: f19a 91bb 67f0 cd38 535c 013a 62ba 013d
00000240: b43b 06bd c7b5 7f3a 45a7 f7bb a218 c0bc
00000250: dd7a 8e3c 30c1 25bb c6f6 6abc 897a 29bb
00000260: f7f7 28bd 5e84 9b3c 4f3b 9f3c 1e9a 14bd
00000270: 4135 103c b05b 7f3c c79c 633c 4528 273d
00000280: c3f3 68bc 439a 1dbc 3c1e 82bb 94e2 b1bb
00000290: bb95 ce38 8c93 913b f50a 143c 7887 f8bb
000002a0: 74d4 0e3b 5d60 23bc b702 6f3b f791 543c
000002b0: 91f3 3e3c 4d1c 8abb 0970 e23c 17d4 47bc
000002c0: b429 813c 1225 563c 469f 9abb d639 8b3b
000002d0: d7fe 963c d5b0 333c 1563 3d3d ebd5 bfbb
000002e0: 13a9 04bd 3558 023d 4798 5bbb 41a7 58bd
000002f0: aed2 333c a09e 3e3b 72fb 9ebb 0465 3fbc
00000300: 629d 1bbd 8da2 1ebb d183 1fba 562a 81bb
00000310: 0f3c 453c 62c0 43bc 51cd 193c 1906 fabc
00000320: 031c 643c d722 46bc ecf1 0abc bc29 353b
00000330: 2ae9 6b3a 01eb a93c d304 40bb dd6f b6bc
00000340: c866 d03c be2c ebbb a116 923c 09ab 4ebc
00000350: c535 3e3d 57ac 66bc 7cea 0a3c ac7e 5fbc
00000360: 1ad7 c1bc 192a 8fba 3864 3aba f7e5 3b3a
00000370: 95a1 a53b 8acb f1ba 69ac f1bb d2b8 bf3c
00000380: 94e8 64bc 606e 4bbc 8fde 8dba d55e 8bbc
00000390: 17df a3bc df70 623c d8ec 823c 374f 44bb
000003a0: 39ad b03c 874b 083b fa89 84bb 03db 973a
000003b0: 04e0 c03c 8a56 e7bb 7f7b 803a ba6d 13bb
000003c0: 3195 c5ba a775 573c 48b1 e0bb d8d5 d3bb
000003d0: 8dad 0f3c 9f40 8dbc 6530 92ba fdc9 ed3a
000003e0: 1c8a 6fbb ad98 203a 4205 193b 8d61 583c
000003f0: 84cb bdbc d036 d8bb 02cf 113c 8124 01bc
0.04176955 0.00013193201 0.03858971 0.031447593 0.014575547 0.011672498 -0.006335181 0.019583087
-0.0102817835 0.040092837 0.014699882 0.03456584 -0.013965296 -0.0051450273 0.03015323 -0.028607922
0.012054927 -0.016655132 0.021253692 0.008543998 -0.014280829 -0.0001381155 -0.014260467 -0.054563522
0.013714814 0.020251809 -0.023649622 -0.020173294 0.010885263 -0.0038305994 0.0033525203 0.024617095
-0.0060070395 -0.040280774 -0.033601332 -0.017354904 -0.0048931655 0.021231595 -0.03662157 0.013069085
-0.021915266 0.009506711 0.00941071 -0.0008365948 -0.046442553 -0.01741165 0.00518826 -0.01639407
-0.013090786 0.024630614 0.003101104 0.008683547 0.017193656 0.016166134 -0.009733777 -0.009403424
-0.016434772 -0.044965237 0.0042870753 -0.04314402 0.0122748315 0.025200885 0.035549883 0.015814517
-0.01956951 0.028921263 0.011059731 0.013676345 -0.018903393 0.0042590685 -0.013577454 0.018487776
0.0074376077 0.016396895 0.018571803 0.008859761 -0.0020927074 5.0409228e-05 -0.013768507 0.014455205
0.01839551 0.024748044 -0.009132839 -0.025174072 0.018688308 -0.013132912 -0.013471975 -0.012943375
0.01710813 0.03693769 -0.01711165 0.01623755 -0.013486133 -0.018750872 -0.00774296 0.0060512726
-0.0042125676 0.01346109 -0.014082995 0.006087282 0.014308247 0.007015725 0.018707607 0.032203544
-0.0058933767 0.032690804 0.022563709 -0.006387161 0.013802143 -0.049718864 -0.016611094 0.032063093
0.021923618 -0.022326197 0.00733795 0.027653208 -0.0006655976 0.023931442 -0.00171835 -0.0049908105
-0.017948663 -0.008367694 0.0122816 0.0130803175 0.00595806 -0.013801941 0.0013172687 -0.014810516
0.046075217 -0.02266573 0.0073574604 -0.006928314 -0.011907462 0.0236816 0.040141612 -0.015276226
-0.0075249514 0.004927196 -0.011919096 -0.025924379 -0.0044435193 9.81994e-05 0.0004934717 0.03167189
-0.03277178 0.0009754565 -0.007557782 -0.023449246 0.01739257 -0.002529215 -0.014341062 -0.002586039
-0.041252103 0.018984016 0.01943746 -0.03627979 0.008801759 0.015585825 0.013892359 0.04080989
-0.014218274 -0.009619298 -0.0039708894 -0.0054286215 9.850735e-05 0.004442638 0.0090358155 -0.0075845085
0.0021794112 -0.009971705 0.0036470124 0.012974254 0.01165475 -0.0042147995 0.027641313 -0.012196562
0.015766956 0.013070362 -0.004718694 0.004248838 0.018432064 0.010967453 0.04623707 -0.0058543584
-0.032387804 0.031822402 -0.0033507512 -0.05289388 0.010975523 0.0029086247 -0.004851752 -0.011681799
-0.03799189 -0.0024205775 -0.0006085011 -0.0039418144 0.012038245 -0.011947723 0.00938733 -0.030520486
0.013922694 -0.012093267 -0.00848053 0.0027643284 0.0008999283 0.020741941 -0.002929975 -0.022270137
0.025439635 -0.0071769645 0.017833056 -0.01261402 0.046437997 -0.014079175 0.008478757 -0.013641041
-0.023662139 -0.001092258 -0.00071102707 0.00071677513 0.0050546625 -0.00184475 -0.007375289 0.023403559
-0.013971467 -0.012416452 -0.0010823774 -0.017012993 -0.020003838 0.013820856 0.015982077 -0.0029954442
0.021566974 0.002079697 -0.0040447684 0.0011585656 0.023544319 -0.007059877 0.000980243 -0.0022495822
-0.001507437 0.013150609 -0.006857071 -0.006464701 0.008769405 -0.017242728 -0.0011153339 0.0018141862
-0.0036550825 0.0006126266 0.0023349081 0.013206852 -0.023168333 -0.006598331 0.008899452 -0.007882238

action_model._discrete_distribution.branches.0.bias f4 [2]
00000000: ad8a d13c aa8a d1bc
0.025578821 -0.025578815

action_model._discrete_distribution.branches.0.weight f4 [2, 200]
00000000: f45b e73c 00cb 5dbc 0b69 503c b5d8 7d3c
00000010: f44c 8bbc b63d 583c 432f 8e3b 3bea 323d
00000020: 3011 7b3b a21c aa3b 5d90 8f3c e689 473c
00000030: 2afa bc3b f493 abba 77a4 593b 7585 2bbc
00000040: 4fd4 d939 c4f1 cdbb 9658 463c 1695 d7bb
00000050: 4180 c83c 8b4d 39bb 8e49 fbbc 4b30 3c3c
00000060: 17bd d53c 5c10 673c ed98 ad3b 475d e23b
00000070: 5e4a 153c 07f5 bcbc a368 5c3c 26b0 c23c
00000080: b0ad b73c 2d0b a03c 9ff5 09bc 0477 56bd
00000090: 00bc 503c 7d79 1d3d b2c5 083c 980a 48bc
000000a0: 8859 8bbc ec17 4a3c 4c29 1cbc 8c42 d93b
000000b0: 306d 17bc e2bc e03c 0737 e03a fe45 0c3c
000000c0: 660e 1b3d 6f88 533c 0598 21bb f496 c43c
000000d0: 1cce db3a 6e85 edbb 3b29 d7ba 5917 a3bc
000000e0: 3ecf 073c d39e 63bc 162d d63c 6be8 f2bb
000000f0: f0e9 4b3c 1704 da3b aa3b 1b3c 908c 313c
00000100: 43ea 54bc db58 90bc 686e 5dbc 2784 30bc
00000110: 7887 9fbc 9dc3 cebb 5681 b1bc ce70 11bc
00000120: 8c88 76bc 125e a93c a5b4 003c e3d1 bfbb
00000130: e40c 2a3b e976 893b cc09 92bb ab7a 4d3c
00000140: df3a 4d3c 66f9 fd3c 626b 2e3c 1aa9 93bc
00000150: 490b 913a 5ac7 b2ba 7669 c4bb baa4 0dbb
00000160: c771 37bc 2c5f a03c e412 f9bc f639 da39
00000170: bb45 c13b b09a cb3c e671 15bc 280b e53a
00000180: c4ed 303c 9f98 8b3c a6ee ccbc 97fb 1bbb
00000190: 9041 3e39 44a2 b4bb 287b c13c 27a8 7c3c
000001a0: a3ca 143d 508f 353c 0536 03bc ab60 2cbb
000001b0: 30f3 5e3c dd88 4bbc e638 243c 2e28 d13c
000001c0: 4388 db39 35bd d8bb 8f0c 043c 57e5 313c
000001d0: e18f 9a3b f113 dfbb de29 4cbc 7d0d 5bbb
000001e0: e461 e3bc 9016 e6bb 4187 e73b 281e 693c
000001f0: 8200 08bb 9af7 153b 463f ffb9 d565 853a
00000200: 8b0a ff3c f24a d9bc b9eb 4d3c 50d0 113c
00000210: 90a2 9939 4fa7 2d3c 065a ee3b 1cb0 093c
00000220: 0747 7f3b 304b 88bc f4f3 b13c 5cc4 e53b
00000230: d778 bcbc 4c17 5b3b 2e75 a83c 3eb5 85bc
00000240: daeb 483b 00cc 2fbd 2cca f139 8977 983b
00000250: a995 9ebb 64ae 553c 989c 4a3b c3b3 e43b
00000260: aa22 663b c9b0 363c 06f5 3a3d ce6c 873a
00000270: e7e7 e3b9 683a bcbb 6ad1 0e3a f907 4f3b
00000280: 5082 a13b 5212 9b3b 757b c039 47e6 953c
00000290: 831c c8b9 d42d f8bb 071e 81ba d88e dd3a
000002a0: 1c5f 06bb 3343 233b b0a5 16bc e17b cabc
000002b0: b60a 2b3a 95b7 a13c 928e a13b baa7 89bc
000002c0: 6dfc acbb 36d7 92bc b70a ae3c 2d88 b53b
000002d0: 8e81 2539 8b26 48bc 803d 9d3c 702a 293a
000002e0: d617 493a f205 5a3c 94ab 79bc d18e a5bc
000002f0: 240d 3f3c 353c 4cbb adf3 593c 8388 07bb
00000300: 01a9 33bc 0dad f9bc f0a0 d2bc 40a5 01bb
00000310: 08ec 0abb 1926 8dbb bbcf 0fba f6e5 203c
00000320: f8dd 4fbd c980 243c 7c60 33bc 5ce9 1ebc
00000330: affe bd3c c2e7 debc 920c 06bc f886 17bd
00000340: 0571 153c 5ad8 2d3b 497e 3abc 1281 51bc
00000350: f460 84ba 5f99 fcbb 4b41 81bb 9c0e 623b
00000360: 7632 343c f438 a93c 9930 7ebc ba6b 493c
00000370: 6734 aebc 2035 77bc 5267 963c c784 deba
00000380: 9f9c 7fbc 3848 70bc 227a 96bc cf64 c23b
00000390: c260 2ebb b503 273d ed36 d0bb 503a 9ebc
000003a0: 7679 17bd 1a9e 5fbc 154e bc3b e1ca f63c
000003b0: 836b 0dbc b9c9 d4bc 6e46 6fbb d9de 80bb
000003c0: d259 8d3c 0bc9 9abc a8ec 3c3c 0a86 c7bc
000003d0: fc27 8a3c 7b9a 5ebb a3b3 853c 93e2 883b
000003e0: d1c2 e2bc 4ca9 0cbd ed7d 03bc b432 cbbc
000003f0: 301b 19bb 868d 2b3c d27a 54b9 d27e 1d3c
0.028242089 -0.0135371685 0.012720357 0.0154935615 -0.017004468 0.013198307 0.00433913 0.04368041
0.0038309805 0.0051914016 0.017524892 0.012178874 0.0057671266 -0.0013090358 0.00332096 -0.01046883
0.00041547648 -0.006284924 0.0121060815 -0.0065790517 0.024475219 -0.002827498 -0.030674722 0.011486123
0.026091142 0.0141030215 0.005297771 0.006908092 0.009111969 -0.023066057 0.013452682 0.023765635
0.022421688 0.019536579 -0.008420377 -0.052359596 0.012740135 0.03844594 0.0083479155 -0.012209557
-0.017010465 0.012334805 -0.00953133 0.0066302475 -0.009242341 0.027433816 0.0017106243 0.008561609
0.03785553 0.012910946 -0.002465726 0.023997761 0.0016769799 -0.007248572 -0.0016415486 -0.019908594
0.0082891565 -0.013892847 0.026144546 -0.0074129603 0.012445912 0.0066533196 0.009474674 0.010836735
-0.0129953055 -0.017620495 -0.013515092 -0.010773695 -0.019473776 -0.00630994 -0.021668117 -0.008876992
-0.015047204 0.020674739 0.007855569 -0.005853878 0.0025947625 0.0041950834 -0.0044567343 0.012541453
0.012526243 0.031002712 0.010645719 -0.01802497 0.0011065985 -0.0013639734 -0.0059940172 -0.0021613077
-0.01119656 0.019576631 -0.030404516 0.00041623384 0.005898205 0.024854034 -0.009121394 0.0017474638
0.010798875 0.017040549 -0.02501614 -0.0023801082 0.00018144236 -0.0055125076 0.023618296 0.01542095
0.036326062 0.011081532 -0.008008485 -0.0026302736 0.013607785 -0.0124227675 0.010023331 0.025531854
0.00041872458 -0.006614352 0.008059635 0.010857902 0.0047168587 -0.006807797 -0.012461154 -0.0033424788
-0.027756639 -0.0070217326 0.007065684 0.014228381 -0.0020752256 0.0022883178 -0.00048684533 0.0010177443
0.031132957 -0.026524995 0.012568408 0.008899763 0.00029303553 0.0105989715 0.007273915 0.008403804
0.0038952248 -0.016637415 0.021722771 0.0070119333 -0.02300684 0.0033430634 0.020563688 -0.016321775
0.0030658157 -0.04291916 0.00046117732 0.0046529216 -0.004839618 0.013042066 0.003091609 0.006979437
0.0035115876 0.011150547 0.04564383 0.0010332109 -0.00043469595 -0.0057442673 0.0005448075 0.0031590445
0.0049288645 0.0047324086 0.00036713076 0.018298281 -0.00038168216 -0.0075738225 -0.0009850868 0.0016903533
-0.0020503467 0.002491188 -0.009194776 -0.024717273 0.00065247284 0.019740859 0.004930326 -0.016803611
-0.005279115 -0.017924886 0.021245344 0.005539915 0.00015783889 -0.012216221 0.019194365 0.0006453162
0.00076710933 0.013307082 -0.015238661 -0.020209702 0.011660848 -0.0031163816 0.013302726 -0.0020680733
-0.010965587 -0.030478025 -0.025711507 -0.0019782335 -0.0021197814 -0.00430752 -0.00054859713 0.009820452
-0.050748795 0.01004047 -0.010948297 -0.009699192 0.023192732 -0.02721012 -0.008181708 -0.03699395
0.009121184 0.002652666 -0.011382648 -0.01278712 -0.0010099695 -0.007708713 -0.003944551 0.003449357
0.010998359 0.02065704 -0.015514516 0.01229375 -0.021265222 -0.01508835 0.018359814 -0.0016976827
-0.015601306 -0.014665656 -0.018368784 0.0059324275 -0.0026607965 0.04077502 -0.006354204 -0.019314915
-0.03698107 -0.013648534 0.005746613 0.030126037 -0.00863159 -0.025975095 -0.0036510485 -0.0039328155
0.017254744 -0.018894693 0.011531033 -0.024355907 0.01686477 -0.003396659 0.016321009 0.0041774004
-0.027680786 -0.03434114 -0.0080256285 -0.02480445 -0.0023362152 0.010470754 -0.0002026365 0.009612756

network_body.linear_encoder.seq_layers.0.bias f4 [200]
00000000: 4663 b63b 71dc 813c 87ca 9d3c 6840 4cbc
00000010: cde6 723c 78fc 7f3b 555f 7a3c 2d59 e6bb
00000020: ed09 c9bb d926 763c 20a9 2e3c 3b81 0f3c
00000030: e77e 223d 44ea b73b e8d3 d53c 30b5 a23c
00000040: d3ca 933b 9da5 513c 3348 0dbd c651 d1bb
00000050: b812 c9bc b78c ab3c 0f0e 35bc 0b5d fc3b
00000060: d111 403c f567 213c 40cd 9dbc 06d1 a53c
00000070: 9871 afbc 9def 733c 3699 e6bb f66d b838
00000080: b3ab 2c3c 1fd2 533b 1ed3 59bb 18e5 803c
00000090: e4ec 0d3d b041 193c 28f2 c73b 9fce 363c
000000a0: fb87 cd3c ff63 2e3b b62b ef3b dd20 353d
000000b0: f5b2 c43c 7d31 2ebc 6c24 1d3c 7ce4 9c3c
000000c0: 05b1 6f3c cf48 c43c f6d7 b93c 41ea 6e3c
000000d0: a6dc 633b e371 c8bb b181 c23b b109 7ebc
000000e0: 8e58 003d 5c87 7e3b 06a0 f33b 6fbf 603c
000000f0: 6a73 45bb 8efd 233d 3f3c a2bc dfdf f139
00000100: bf31 673c 113b dabb 367d 0b3c f0a1 353c
00000110: 4a95 563c 84a5 dc3c 00cb 07bc a61a 1d3c
00000120: 5953 ae3c 89c6 8a3a f9e6 23bb 9586 eaba
00000130: bb1d 783c b1cc 0cbd 21dc 92bc 0e9e 5e3b
00000140: d484 4c3c 2897 b0bc 949e 063d 5fc4 06bb
00000150: bc3c 8ebb 1aab 0d3c 0db4 633c f3b3 033d
00000160: a6a8 c3bc 5b97 603c 64a6 1fbc 7939 5c3c
00000170: 55ee c23c 7a4e be3b 5391 de3c 4025 323d
00000180: c699 45bc d70e 973c 5096 703b 4d97 e0bb
00000190: a20b a93c 9666 93ba de3b 14bc 12a6 613c
000001a0: 88c7 f3bc 5ea9 01bc 0058 463c c8db 723b
000001b0: bd2b 2e3c 46de f53c b16d 6e3c ecb9 9c3c
000001c0: 2e38 82bc 4a20 0f3b 56b6 28bc 030c 9a3c
000001d0: f6cf 99bc e90b 613c 54cc 6c3c a5b2 383c
000001e0: 51b1 ba3b 46f2 613c 84c5 703c 1521 0f3d
000001f0: 8cba c53b b9d0 993c 1b90 733b eaf1 933c
00000200: 1bc5 00bc 8753 043d 90ef 9b3c b346 49bc
00000210: 1e82 143c eb8f 473b e45b ea3a d9fe 8abb
00000220: 9949 7abb 5d65 4e3c 361b 893b f176 beba
00000230: 74f9 aa3a 49c3 56bc 80eb 973c db48 193c
00000240: df10 423c a158 aa3c 923e 953c 9773 fb3a
00000250: dfc5 f23b 472b 0739 28ca 1cbd 6681 323c
00000260: 4969 41ba 6632 7f3c 5b5d 73bc 1091 e03c
00000270: 1e3f e43c c365 b0bc 19cd 143d 6848 8abc
00000280: c8de 0d3c a7b4 df3c 194d ac3c fc16 9eba
00000290: a910 d93c 951e 933c 2269 da3c 530e 833c
000002a0: 6998 2e3b 8099 943c a970 bdbb c15f e4bc
000002b0: 80ba 06bc 74fa 973a 9cd0 903b 11e9 573c
000002c0: 7c14 05bd 4662 b73c 0693 a43c 0929 e3bb
000002d0: 311e e038 f298 d33c 976a ca3c 40d5 c13b
000002e0: e64d 05bc ca81 973b 3fc4 823a a9d4 9b3c
000002f0: a131 9fbb 4491 4b3c b3c5 43ba 97b7 adbc
00000300: 5057 66bc 71e1 913c 3503 2b3d be09 cc3c
00000310: 3709 863c 7ee1 2f3c d09a d53b d043 ebba
0.0055660335 0.015852185 0.019261612 -0.0124665275 0.014825535 0.0039060395 0.015281518 -0.0070296736
-0.0061352164 0.01502391 0.01066044 0.008758838 0.039671805 0.0056126434 0.026102021 0.019861788
0.0045102625 0.012795833 -0.034492683 -0.006387922 -0.024545059 0.020941122 -0.011050715 0.0077015213
0.011722998 0.009851445 -0.01926291 0.020241272 -0.02141647 0.014888671 -0.007037307 8.7942855e-05
0.010538983 0.0032321287 -0.0033237408 0.01573424 0.034649745 0.00935404 0.0061018653 0.011157661
0.025089255 0.0026609895 0.007298912 0.044220794 0.024011115 -0.010631916 0.009591203 0.019151919
0.014629607 0.0239605 0.022685986 0.014582218 0.0034768968 -0.006117092 0.0059358706 -0.01550524
0.031334452 0.0038838005 0.0074348478 0.013717516 -0.0030128607 0.04003673 -0.019804118 0.000461339
0.0141109815 -0.0066598733 0.008513739 0.011085972 0.013097117 0.026934393 -0.008288145 0.009588873
0.021279978 0.0010587733 -0.0025009497 -0.0017892892 0.015143807 -0.034374896 -0.017927231 0.003396872
0.012482841 -0.021556452 0.032866076 -0.0020563824 -0.004340736 0.008646751 0.013897908 0.032154035
-0.023884129 0.013707961 -0.00974426 0.013441437 0.023795286 0.005807695 0.027168905 0.043492556
-0.012060588 0.018439693 0.0036710687 -0.006853974 0.02063543 -0.0011245783 -0.009047477 0.013772504
-0.02975823 -0.007913915 0.012105942 0.003705727 0.010630545 0.030013215 0.01455252 0.019131623
-0.01589593 0.0021839314 -0.0102973785 0.018804556 -0.018775921 0.01373575 0.0144530125 0.011273061
0.0056974073 0.013790673 0.014695529 0.03494366 0.006034201 0.018776285 0.003716475 0.01805969
-0.007859494 0.03230622 0.01903513 -0.012284922 0.0090642255 0.0030450772 0.0017880169 -0.004241806
-0.003819084 0.012597409 0.004184152 -0.0014531297 0.0013044314 -0.013108083 0.018544912 0.009355749
0.011844843 0.020794215 0.018218312 0.0019184229 0.007408842 0.00012890725 -0.03827873 0.010895109
-0.00073780544 0.015575981 -0.014853801 0.027412921 0.027862128 -0.021532899 0.03632841 -0.01688023
0.008659072 0.027307821 0.021032857 -0.0012061293 0.026497202 0.017958919 0.02666146 0.015998041
0.0026641137 0.0181396 -0.0057812524 -0.02787769 -0.008223176 0.0011595027 0.0044193994 0.013178126
-0.03249024 0.022385728 0.020089637 -0.006932382 0.00010686776 0.025829766 0.02470903 0.005915314
-0.008136248 0.0046236264 0.0009976699 0.019022303 -0.004858211 0.012424771 -0.0007468119 -0.021205707
-0.014058903 0.017807694 0.041751105 0.02490699 0.016361816 0.010734914 0.006518699 -0.0017949287

network_body.linear_encoder.seq_layers.0.weight f4 [200, 88]
00000000: fa0b 8abd 73bc 0a3e 95a1 123e cca0 843d
00000010: 0ab3 1d3e e811 98bd 2ffd a5bc 0e00 1dbe
00000020: 2ea3 0ebe b25c 60bd 9ce0 0b3e 5efb 2dbe
00000030: 97b3 3abb 7ee1 143d 97c5 30be 41c6 34bb
00000040: 5837 fa3d 20df a3bd 1002 89bd c2af 1f3e
00000050: 1873 15bc 02a5 5c3e 56a1 bbbd 26ce ef3d
00000060: d88f 173e 86ca 51be fe05 813d bb7d 04be
00000070: 825f e0bb d21a 623d 724a 3cbd 5e09 cbb9
00000080: a163 603d 5c42 91bc 232a 9bbc 9fc3 5fbe
00000090: e66b 26be 47ef 1fbe eddf 4ebe 0462 cd3d
000000a0: 73ca 1bbe fbc4 0b3e 4d5e 4bbd 1b97 81bd
000000b0: 8a6f 973d e4be 0b3d 298d 8dbd f8dc 443e
000000c0: 60c9 c23d 6625 9e3b e2af 60bc ec22 b8bd
000000d0: 731e f5bd 474c ea3d c5dc 983d e685 afbd
000000e0: 7259 d6bd f79b 05be 0e5a 543e 9483 823c
000000f0: c116 7e3d 8565 2cbe 044b 873c 00f8 80bd
00000100: 6dd9 85bd 17ba ab3d 30ad ee3d 0c26 f73d
00000110: 92c6 3fbd 75e8 cabd f38a 1ebd 2beb d23d
00000120: 483d 54bd d8b3 a7bc ad12 52be 0f95 09be
00000130: 50e0 01be 38fa 15bd d7ea c43d cc40 00be
00000140: d947 f93c 4d37 4b3b 24a9 503e 1252 9d3c
00000150: 3c15 323e a364 1f3d 6664 f9bc 96fa 5f3e
00000160: 87de d83c 3e0b 3c3e 1c04 773d f3ef e13b
00000170: e902 da3b 573d 8fbc a230 eebd c51f 9cbc
00000180: 6b60 11be e348 823d eeec 2a3d 4342 e5ba
00000190: 6c23 25bd 5948 893c 0624 d73d fc9d cd3d
000001a0: 57c8 da3d 3a93 d03d 3d41 0d3d ce34 223d
000001b0: 12f9 da3c a605 3abe 3514 63be ed6e 16bd
000001c0: 68a5 d2bb e12f f23d f86b 3d3e ef17 92bd
000001d0: 1c67 b83d 8b63 893c 44f6 c2bd a021 e83d
000001e0: 5b71 05be 65e1 a23d 5ef1 f5bb d6ff 943d
000001f0: fa25 00be 380e 033e aa68 84bd 7a26 3fbd
00000200: 8724 05be a363 24bd 6f8f 2abd 841d d93d
00000210: 4209 b8bd 19c5 f8bd 91bf 90bd 056d 093e
00000220: b898 f03d 0da4 9bbd 2724 2abe bf3b 1b3d
00000230: ce40 a4bd 496a abbd 4613 02bc 3190 4d3d
00000240: a769 6a3d 3c8f 1abd 8ad4 01be 866a b7bc
00000250: 3574 603d bf32 0abc 3530 3a3c 3046 1fbe
00000260: d5ce abbd 955f a63c 9302 d13b b2b2 bc3d
00000270: 580a 333e e954 2a3d 5443 943d 1b0b 0c3e
00000280: 57e2 09bc f0e5 16be 2bdf 0f3e 17d4 afbc
00000290: 5fe4 86ba bac7 43bb ee3b 183d 24a6 2fbe
000002a0: 181a 50bd cad6 703c faa6 c2bd 0462 a43d
000002b0: 70d4 e73c e5e9 94bd a39c 013d b3f0 a4bc
000002c0: 3008 a33d 3d5c 9a3d 5879 ef3d 20e0 633e
000002d0: 3dc4 cb3d 1ccd 95be 5e5c 1c3d 39ba 54bd
000002e0: 45f1 943b 69a5 843c cff0 95bd 43b0 8ebd
000002f0: 6f99 5e3e 5a7c dc3d 16bb 783d 913d b8bc
00000300: 8926 ba3c a01e f03d 21ed abbd a689 15bb
00000310: c109 33be 75bf 173e 4f78 a33d 683f ae3e
00000320: bb51 243e 9412 c43d 6064 1ebe c322 513e
00000330: 8f82 0ebe a4fd b7bd aa02 a6bd 0436 033d
00000340: 4b9d bf3d 7345 103d 86e5 f3bc 1ef2 e73c
00000350: 2e13 843d add3 acbc 948b 313c bebb babd
00000360: 311f 863e 1c35 cdbd 113a 72bd 1d17 d3bd
00000370: d1f9 82bd b034 253e 7169 b2bd 88b7 363d
00000380: 8454 d0bc 4e5b da3d 03be fcbd 77b1 80bd
00000390: e317 9fbd 6443 be3c 29f1 13bd 2a5b 30bd
000003a0: afc1 513d a491 0bbe 4a9d 993d b5d6 1e3c
000003b0: c0f0 65ba 2188 143b e0a4 5d3b e07b b13d
000003c0: 106a 183e a23d 043d 37f7 febd 6b24 e0bd
000003d0: 62f4 e93d a4ae 33bd 5ca4 eb3d 785c 44bd
000003e0: 2f48 eb3a 1e20 a8bd 4c47 bfbd 29ea f8bd
000003f0: 3e71 48be 8f1c 923d 396d 823d 89e8 2f3e
-0.067405656 0.1354845 0.14319451 0.06475982 0.15400329 -0.0742529 -0.020262329 -0.15332052
-0.13929436 -0.0547759 0.136599 -0.1699042 -0.0028488392 0.03634786 -0.17262875 -0.002758399
0.12217587 -0.08001542 -0.066898465 0.1559439 -0.009121679 0.2154732 -0.09161632 0.117092416
0.14800966 -0.20487413 0.06299971 -0.12938587 -0.006847323 0.05520136 -0.045969434 -0.00038726156
0.054782514 -0.017731838 -0.01894099 -0.21851967 -0.16252097 -0.15618621 -0.20202608 0.100284606
-0.15213947 0.13649361 -0.04965048 -0.06327649 0.07394321 0.034117594 -0.0691169 0.19224918
0.095110655 0.0048262356 -0.013713809 -0.08991036 -0.11968698 0.1144033 0.074639834 -0.08570461
-0.10466279 -0.13047777 0.20737478 0.015931882 0.06203342 -0.16835602 0.016515262 -0.06297302
-0.06535611 0.08385103 0.11654127 0.12067804 -0.04682023 -0.09907619 -0.03870673 0.10298761
-0.051816255 -0.020471498 -0.20514937 -0.13435768 -0.12683225 -0.03661558 0.09615105 -0.12524718
0.030429767 0.0031008304 0.20377022 0.019204173 0.17390913 0.038914334 -0.030443382 0.21872935
0.026473297 0.18363664 0.060306653 0.0068950593 0.006653179 -0.017485304 -0.1163037 -0.019058118
-0.14196937 0.06361558 0.04172986 -0.0017491061 -0.040316984 0.01675813 0.10504918 0.10039899
0.10682743 0.10184331 0.034486044 0.03960114 0.026730094 -0.18166217 -0.22175677 -0.03672688
-0.0064284094 0.118255384 0.18498218 -0.07133471 0.090040416 0.016771099 -0.09519628 0.113345385
-0.13031523 0.07953147 -0.00750558 0.07275359 -0.12514487 0.12798393 -0.064652756 -0.046667553
-0.13002215 -0.040134083 -0.041640695 0.10601333 -0.08986141 -0.121469684 -0.070677884 0.13420494
0.11747879 -0.075996496 -0.16615354 0.037898775 -0.08020173 -0.08369882 -0.007939165 0.05018634
0.057229664 -0.037734255 -0.12678733 -0.022389662 0.054798324 -0.00843495 0.0113640325 -0.15554118
-0.083890595 0.020309249 0.0063784807 0.09213771 0.17484415 0.041584883 0.07239404 0.13676111
-0.00841578 -0.14736152 0.14049976 -0.021463437 -0.0010291449 -0.0029873685 0.03716653 -0.17153221
-0.050806135 0.014699647 -0.095045045 0.080265075 0.02829954 -0.07271174 0.03164352 -0.020134306
0.07960546 0.07537124 0.11693066 0.22253466 0.09949539 -0.2925805 0.038174026 -0.05193541
0.004545363 0.016192155 -0.07321321 -0.06967213 0.21738218 0.10765906 0.060725294 -0.022490295
0.022723453 0.11724591 -0.08394838 -0.002281764 -0.1748419 0.14819129 0.079819314 0.3403275
0.16046803 0.09573856 -0.15467978 0.20423417 -0.13916992 -0.08983925 -0.08105977 0.032033935
0.09356173 0.035222482 -0.029772531 0.028313693 0.06448971 -0.021097029 0.010836501 -0.0911784
0.26195672 -0.100198954 -0.059137408 -0.10307143 -0.06395305 0.1613338 -0.087115176 0.044608623
-0.025430925 0.10661946 -0.12340929 -0.06283849 -0.07768228 0.023225494 -0.03611866 -0.04305569
0.0512101 -0.13629776 0.07500704 0.009694745 -0.0008771531 0.0022664147 0.0033820197 0.086662054
0.1488421 0.03228534 -0.12449496 -0.10944446 0.114235654 -0.043867722 0.115059584 -0.047939748
0.001795059 -0.08209251 -0.09339771 -0.121540375 -0.19574448 0.07134353 0.06368489 0.17178549

network_body.linear_encoder.seq_layers.2.bias f4 [200]
00000000: 29c2 5a3c 5c7c 53bb deb7 923b 5b1a 4d3a
00000010: 91dd eb3b a910 3b3c 3f2b ac3c fb5f ad3c
00000020: ebdd 953a 9819 a93c 9d3c 383c 60ea cd3c
00000030: 6ec6 303c 8b70 b3ba 0940 283c 9f0f 553c
00000040: 560d a2bb be88 603c 62fa 1e3c 591c 5abc
00000050: 585e a33c 5cf5 1b3c 12d4 dc3c 7559 fb3c
00000060: 8a4c d53b cff0 abbb 74a0 453c 38fa e93b
00000070: 38b8 c63b b2b1 39bc ad77 303c a5a0 353c
00000080: b23b 0f3d 0e52 823c 660b 813c 394e 8f3a
00000090: ad87 cf3b 1b03 b03c cf67 793c b66e 5cbb
000000a0: b372 97ba 9a10 0e3c cfad b5bc 8136 e33c
000000b0: 5066 ee3c 830e aa3c 6f03 05bc 73ff 2b3c
000000c0: b161 853c 47cb 133c ac36 70ba b2ff 0f3c
000000d0: 2b50 683b 47b8 5abc 341f 0b3c 66e1 b73a
000000e0: f37a 323c ba44 9b3c d7f2 523c a9df 043d
000000f0: 44bb 5c3b 3a1e f2ba 1228 743c e9f1 c73b
00000100: a70d c33c faaf ecbb 4bee 26bb 8389 76bb
00000110: 1250 713c a66d 87bb 3818 a13c 62f9 f4ba
00000120: 2290 9ebc 21f7 1e3a a3a2 a53b 7b65 953b
00000130: e0e4 813b 31bc a6bb ebd5 ec3c 02ea a13b
00000140: f230 b63b 9c60 b13b 0409 743c fe95 983b
00000150: 54ee d53b 0f6f 483c 1088 463c 4f67 ac3c
00000160: a8a2 d83b 9546 293b 6e7c 6bbb 7d24 373b
00000170: 3895 bb3b c0ae df3c 1b4a 493c 065d 18bc
00000180: ae59 873c ea35 3e3c 09e4 483c cd51 9c3c
00000190: 84a9 4ebb a0f4 4c3b 880a 1c3c 508b e13b
000001a0: 56e1 f73b df1e af3b 018d 313c af13 bdba
000001b0: 618e 133b 389d 4a3c b58a 5e3c c85e ec3b
000001c0: 4b18 acbb c3c4 9dba a15d 5d3c cade 3f3c
000001d0: 143a f83c 5116 25bc 52ef feba d6cc a63c
000001e0: 3353 d0b9 f48b 983c e42f 62bb 6202 463c
000001f0: e5c5 91bb 72d4 003c 1926 acba 9594 743c
00000200: 23a0 613c c25e a2ba e792 c93b 63e3 cf3c
00000210: c7ca 253c 2058 d83b aa6c 6a3c 6fb0 613c
00000220: a8c7 50bb 9e98 ad3b 2c71 bb3c a6e6 ab3c
00000230: 764a bc3b 1f92 6a3b 1c90 cc3c e40b 7cbb
00000240: ceb3 f83b c12e e4bc 11ad f8b9 8732 ea3a
00000250: e8ac 9b3b 7a19 323b 706b 2f3c 26da 7d3b
00000260: dc08 343c 51f3 c6ba de2f e63c 14c3 553c
00000270: 3272 283c ad90 8a3a afa1 3339 74d8 1e3b
00000280: 7e3c 853c 473b 623c 4576 05bc 7596 883c
00000290: 0d00 843b 08ab ad3b e3dc 3b3b 4eeb 163c
000002a0: 43d1 c7ba 8428 feba ce2a 9a3c 1a4a f1bb
000002b0: 99c5 6c3c 5f04 cc3c 67e1 113c 25b7 0d3b
000002c0: 295c 36bc 820c 6b3a 5495 aa3c 719c 073c
000002d0: 641e 1cba 90a0 67bc 0186 db3c 243c 79ba
000002e0: 9f72 693c 095c 8fbb ee47 5c3c dc5c d23b
000002f0: 7eb6 943b 3330 2b3c a650 8b3c 93c4 51bb
00000300: 58e2 c13c 5ceb 95bb 2a03 4fbc 25f3 033b
00000310: 40e6 f43b 46ec 79bc fe9e 7e3b e960 ce3c
0.013351955 -0.003227017 0.004477485 0.00078240567 0.0071980436 0.011417546 0.021016715 0.021163931
0.0011433935 0.020642087 0.01124492 0.025136173 0.010789497 -0.0013690157 0.010269173 0.013004213
-0.0049454374 0.013704477 0.009703251 -0.013312423 0.019942448 0.009518947 0.026956592 0.030682305
0.0065093683 -0.0052472125 0.012062181 0.007140424 0.006064441 -0.01133387 0.01077072 0.011085664
0.03496904 0.015908267 0.015752506 0.0010933346 0.0063333125 0.021485856 0.015222504 -0.0033635325
-0.0011554569 0.00867095 -0.022177605 0.02773595 0.02910152 0.020758873 -0.008118494 0.010497916
0.016281934 0.009020633 -0.000916342 0.00878899 0.0035448174 -0.013349599 0.008491326 0.0014028966
0.010893571 0.01895367 0.01287528 0.03243986 0.0033680955 -0.0018472143 0.014902132 0.006101836
0.02381022 -0.0072231265 -0.0025471624 -0.0037618584 0.014728563 -0.004132944 0.019664869 -0.0018690045
-0.019355837 0.0006064047 0.005054788 0.0045592166 0.0039640516 -0.005088352 0.028910598 0.004941226
0.005560034 0.005413128 0.014894728 0.0046565523 0.006528655 0.01223351 0.012117401 0.021045355
0.006611187 0.0025829424 -0.003593232 0.0027945333 0.0057245754 0.027305007 0.0122857345 -0.009299522
0.016522255 0.011609534 0.012261399 0.019081974 -0.0031534145 0.0031273738 0.009523995 0.0068830624
0.007564704 0.0053442563 0.010836841 -0.0014425422 0.0022515284 0.012366585 0.013582875 0.0072134472
-0.0052519194 -0.0012036789 0.013511092 0.011710832 0.030301131 -0.010076121 -0.0019449985 0.020361345
-0.0003973484 0.018621422 -0.0034513408 0.012085529 -0.0044486397 0.007863151 -0.0013133913 0.014928003
0.01377109 -0.0012387859 0.0061515453 0.025376981 0.010119147 0.006602302 0.014308134 0.013774975
-0.0031857286 0.0052977344 0.022881113 0.020984005 0.005746181 0.0035792661 0.02497106 -0.0038459236
0.0075897938 -0.027854325 -0.0004743119 0.0017867842 0.0047508366 0.002717583 0.010706767 0.0038734763
0.01098844 -0.0015178715 0.028098997 0.0130469985 0.0102811325 0.0010571681 0.00017131002 0.0024237903
0.016264196 0.013808078 -0.008145873 0.016673306 0.0040283264 0.0052999295 0.0028665594 0.009211374
-0.001524486 -0.0019390737 0.018819239 -0.00736357 0.014451408 0.024904428 0.008903838 0.0021624055
-0.011130371 0.00089664024 0.020823158 0.008277045 -0.0005955456 -0.014137402 0.026797296 -0.0009507558
0.014248519 -0.004374985 0.013444884 0.006419761 0.0045383563 0.010448503 0.01700623 -0.0032008037
0.0236675 -0.004575176 -0.012635032 0.002013394 0.007473737 -0.015254086 0.003885209 0.025192695

network_body.linear_encoder.seq_layers.2.weight f4 [200, 200]
00000000: 8d7e 60bd 84ed 84bd eb9a ec3d 5509 2abd
00000010: 5ec2 b73d 26ad 213d a87a a53d d5d1 9cbc
00000020: 7278 7e3d 4de8 d8bc eead 013e e9c2 cb3c
00000030: 7993 923c 0ce1 aabd f225 bb3c 64c1 a2bc
00000040: 7bf7 ffbd ed78 283e a2a4 a9bc 50f6 203d
00000050: e162 abbc 66a3 eebc 2a87 06be c124 533b
00000060: a680 e73c 7946 1c3e a7cb 393d 9870 b6bd
00000070: 5a90 10be 979a b8bd 6358 e2bd 532b 06bd
00000080: ff24 783d 619b 40be 58ab 60bd ef63 45bd
00000090: c09f 81bc 265f a53c 6767 28bd ff6b 47bc
000000a0: b732 09bd 697c a7bd b5e0 143d c5d4 a9bd
000000b0: 8c57 78bd 529d 94bd 5a8c 54bd 0417 20bd
000000c0: b6f8 033c 2e90 10be eaa6 33bd cff2 31bd
000000d0: 1099 083d 78a9 2cbd c367 09bd a8a0 d0bd
000000e0: 1231 103d d799 92bd 55e4 c7bc 46f1 c0bd
000000f0: 6c28 35bd 4e74 3bbd 31a9 6d3d bc85 25bd
00000100: 56d8 5c3c 3fbe 8b3d 2f11 633d 5a94 0d3d
00000110: bb1a 673d 7357 5d3c c0f4 d9bc 4816 7ebd
00000120: 9e2d cdbd 9658 013d 3f65 8c3c 57e6 01bd
00000130: 4d6e 56bd 42a4 56bd 2e9f ab3d 300e d13d
00000140: 7e9c 93bd 9d40 afbd 8d42 fcbc 5b9e d93c
00000150: 4723 67bd fc6c 213d 99a7 69bc db78 9fbd
00000160: 95b9 09bd 786f 44bd 5a5a b1bb 9c6d 0e3d
00000170: 1213 293e b573 2e3d 185b 6b3d 54c3 fb3c
00000180: 311c 40bc fda7 b63d c4a0 15bc d068 b23c
00000190: 013f edbc 600c 2cbd 65aa 933c 357e 683d
000001a0: 8fb6 d33c 9beb babc 610a edbb ef4d d5bd
000001b0: 7321 9e3d 84a8 4f3d 9bc4 34bd 7d7f 27bd
000001c0: e47d 92bc 4fa0 4bbb fc0a eabd 607c 7ebd
000001d0: 324e 823d 7a79 b13c 9a78 463c fed3 173e
000001e0: debd c43d faaf 50bd 7dfd e0bd 955e 883d
000001f0: 1b38 d4bd bafe 563d 1410 00bc f72c e33d
00000200: 03c1 b63d 97aa 053e b8e3 d2bd bd34 1bbb
00000210: 84a3 4e3d 0d5d 893d d15a 713d 55ad 0dbd
00000220: ebe2 27bd 68ad 003d 5bca 2fbb fef5 663e
00000230: 6225 dd3b ac34 473d ef77 b5bd fcb6 2dbd
00000240: 3fe7 56bd 65a0 47bd e997 283e 480b 953d
00000250: d469 d33d f4e0 0cbe 6e9b d6bd 0d4f 98bd
00000260: 5028 043d 7a5d 593c 115a ca3d 741f b13d
00000270: 6654 41be 55f1 8f3c 3f49 cf3c f23a 343c
00000280: 5634 85bd a482 673d c93a 3e3c 89fb 45bd
00000290: d727 1d3e 7244 59bc c30a b63c 90b1 7dbd
000002a0: 559c 483d 6a77 c03d 4408 343d d33c 6ebd
000002b0: 2685 dabd 0ccd 77bd 75da 40bd eadb 093d
000002c0: dd42 6bbd 3e4f e73b b9a2 193e 0bf3 fabb
000002d0: 6f5c 44bd 97e6 2bbc c8af d5bc e2bc 8f3d
000002e0: b306 183d f2c9 633d 4b3e 543d f508 6d3d
000002f0: a2d4 c3bc 6b82 62bd 87ee 1a3d ee28 873d
00000300: b707 df3d ad62 d8bc 20be 74bc 135d 58bd
00000310: 617d 3fbc a5dd b33d 7eb9 dabd 7f75 2abe
00000320: 2a4a edbc ce7c 75bd b37c 7f3c ed2c 0f3d
00000330: 81f7 5b3c ac44 703a 22d4 2f3e c30b a6bd
00000340: 6538 a4bd adea e63d b211 91bd d50a 733d
00000350: 93b0 b1bc 8f58 383d fc1f e3bc d55e be3b
00000360: da56 05be 4f4b a53c 081c 70bd eef1 ebbd
00000370: d17b 3ebd 2f51 c7bb 6152 ab3c 6acf 10be
00000380: b03b bcbc 162e 3a3d 4193 85bd a0f4 e5bc
00000390: 4f08 ebbd d634 b9bd 56fd cdbc cc3a 3c3e
000003a0: c597 203d 1b0e 953d cca9 f8bc 08ec 753d
000003b0: 5321 98bc 8ab4 193d 2937 77bd 54a6 8c3d
000003c0: 6f80 60bb 2110 363d 6dbd 463b eb89 9d3d
000003d0: 4ea5 1f3d d0bd eabd 726e 63bb 8414 a53c
000003e0: 935b 163d 2f29 7fbd 5489 623b db49 c3bd
000003f0: 25c9 d5bd 799b 4eba 436e b1bc 556c e0bd
-0.05480819 -0.06490615 0.11552986 -0.041512806 0.089726195 0.039471768 0.080800354 -0.019143024
0.062126584 -0.026477957 0.12664005 0.024873214 0.017892586 -0.083437055 0.022845242 -0.019867606
-0.12498375 0.1645238 -0.020708386 0.039297402 -0.020921173 -0.029130649 -0.13137498 0.0032217952
0.028259587 0.15261258 0.045360234 -0.08908194 -0.14117566 -0.09013861 -0.11052015 -0.03275616
0.060582157 -0.18809272 -0.054850906 -0.048191007 -0.015823245 0.020186972 -0.041114237 -0.012171744
-0.03349563 -0.08178026 0.03634711 -0.08292536 -0.060630366 -0.07256569 -0.051891662 -0.03908445
0.008054903 -0.141175 -0.043860354 -0.04344445 0.033349097 -0.042153805 -0.03354622 -0.10186893
0.035203047 -0.07158249 -0.02440087 -0.09421019 -0.044228002 -0.045765214 0.05802268 -0.040410742
0.013479313 0.06823396 0.05543631 0.034565307 0.056421977 0.013509619 -0.026605964 -0.062032968
-0.100184664 0.031578623 0.017138122 -0.03171381 -0.052351285 -0.052402742 0.083799705 0.10207784
-0.07207583 -0.08557246 -0.030793453 0.026564768 -0.056430127 0.039410576 -0.01426115 -0.07786723
-0.03362425 -0.047957867 -0.005412382 0.0347725 0.16511181 0.042590816 0.05745992 0.030732788
-0.011725471 0.0891876 -0.009132568 0.021778494 -0.028960707 -0.04200399 0.018025586 0.056760985
0.025843887 -0.022817424 -0.0072339033 -0.10415255 0.07721224 0.05069782 -0.04413281 -0.040893067
-0.017882295 -0.0031070893 -0.11427876 -0.062130332 0.06362571 0.02166437 0.012113715 0.14826962
0.09606527 -0.050949074 -0.10985849 0.06658665 -0.10362264 0.05248902 -0.007816333 0.11092561
0.08923533 0.13053356 -0.1029734 -0.0023682558 0.05044891 0.06707201 0.0589245 -0.03458913
-0.04098789 0.031415373 -0.0026823494 0.22554776 0.006748841 0.048634216 -0.08860766 -0.042410836
-0.052466627 -0.04873695 0.16464199 0.07277542 0.103229195 -0.13757688 -0.104788646 -0.07436953
0.032265007 0.013266915 0.0988046 0.08648577 -0.18879852 0.01757113 0.025303481 0.011000382
-0.06504123 0.056521073 0.011610695 -0.048335586 0.15347229 -0.013260948 0.022221928 -0.061936915
0.048977215 0.093977764 0.043953195 -0.058163475 -0.10669927 -0.060498282 -0.047083337 0.033656992
-0.057436813 0.007059007 0.1500348 -0.0076583675 -0.047939714 -0.010491989 -0.026084796 0.070184484
0.037115764 0.055612512 0.05181722 0.05786987 -0.023905102 -0.055300158 0.037825134 0.065996036
0.10890143 -0.02641424 -0.014937907 -0.052823137 -0.0116876075 0.0878251 -0.10679911 -0.16646384
-0.028966028 -0.059933476 0.015593695 0.034954954 0.013425709 0.00091655063 0.17170766 -0.08107712
-0.08018569 0.112752296 -0.07083453 0.059336502 -0.021690642 0.04500633 -0.027725212 0.0058096447
-0.13021412 0.020177511 -0.058620483 -0.11520754 -0.0465048 -0.006082676 0.020913305 -0.14141622
-0.02297768 0.045454107 -0.06522227 -0.028070748 -0.11476194 -0.09043281 -0.025145214 0.18381804
0.03920724 0.07278081 -0.030354403 0.06003955 -0.018570578 0.03752569 -0.06035534 0.06867662
-0.003425624 0.044448975 0.003032531 0.076923214 0.038976006 -0.11461985 -0.0034703282 0.020151384
0.036708426 -0.062295135 0.0034566717 -0.09535571 -0.10438756 -0.00078814436 -0.021659022 -0.10958163
